model/LRNet_weights/g1_c40.pth (torch, 167877 bytes, 15 tensors)

hidden_state f4 [2, 1, 32]
0	0xbfe9c535	-1.8263308
1	0xbed1e182	-0.4099236
2	0x3fa5b3e6	1.2945526
3	0xbf8741d0	-1.0566959
4	0x3eea3332	0.45742184
5	0xbf26f6c5	-0.6522029
6	0xbdd9e433	-0.10639229
7	0xbfd4e58c	-1.6632552
8	0x3f6315c9	0.88705117
9	0x3e1eb6c7	0.15499412
10	0x3f84b124	1.0366559
11	0xbf90cf62	-1.1313288
12	0x3f02d9ce	0.51113594
13	0xbf1583b6	-0.584041
14	0xbdcd9a8c	-0.10039243
15	0x3f92ca7c	1.1468043
16	0xbd9f3c62	-0.07775189
17	0xbe4c838e	-0.19972059
18	0x3f915905	1.1355292
19	0xbeb9e112	-0.36304528
20	0xbf15a868	-0.5846009
21	0xbfc2b04d	-1.5210053
22	0x3e5559f5	0.20835097
23	0x3f345aed	0.7045124
24	0x3f66b4ff	0.9011993
25	0xbf9da514	-1.2316003
26	0x3eac872d	0.3369688
27	0x400a3510	2.1594887
28	0x3f2d2768	0.67638254
29	0xbf3a8546	-0.7285961
30	0xbf5dff18	-0.8671737
31	0xbe8fa68d	-0.28056756
32	0x3f457595	0.7713254
33	0x3ef845b9	0.48490694
34	0xbe9083e8	-0.28225636
35	0xbfb18e1c	-1.3871493
36	0x3f8e67de	1.1125448
37	0xc0089d96	-2.1346183
38	0xbf396aa5	-0.7242835
39	0x4004f753	2.0775955
40	0x3fb99080	1.4497223
41	0xbf158ec5	-0.58420974
42	0x3eb282f9	0.3486555
43	0x4020b6f4	2.5111666
44	0x3fbf68a1	1.4953805
45	0x3f52abf5	0.82293636
46	0x3f13acc4	0.57685494
47	0x3f136a5e	0.5758418
48	0xbf5bd3bd	-0.8586996
49	0xbea2d4a1	-0.31802848
50	0x3cfdec46	0.030996453
51	0xbf157039	-0.58374363
52	0xbc172000	-0.009223938
53	0xbf5248a1	-0.8214207
54	0xbfc5b5a6	-1.544606
55	0xbd63c0dc	-0.055603847
56	0x3fdc07c8	1.7189875
57	0x3f44201e	0.76611507
58	0x3ec10854	0.37701666
59	0x3f25a3e2	0.6470319
60	0xbf918177	-1.1367635
61	0xbe8d21bc	-0.275648
62	0x3d241529	0.040059242
63	0x3d90b14b	0.07065066

gru.weight_ih_l0 f4 [96, 136]
0	0xbe738508	-0.23781216
1	0xbed49a4a	-0.41523963
2	0xbd2fc6b3	-0.042914104
3	0xbf454451	-0.7705737
4	0x3d834d3e	0.06411217
5	0xbfe2d9da	-1.7722733
6	0x3d7569e5	0.059915442
7	0xbecbec2d	-0.39828625
8	0x3d210e8b	0.03932051
9	0xbe48c413	-0.19606046
10	0xbdcd9e5f	-0.100399725
11	0xbe0fd2c3	-0.14045243
12	0x3ecc5c2d	0.39914075
13	0xbd7133a3	-0.058887135
14	0x3f558b12	0.8341533
15	0x3dcb6748	0.09931809
16	0x3ef27735	0.47356573
17	0xbdb32db9	-0.08748955
18	0x3ea5f246	0.32411402
19	0x3c30e73a	0.010797316
20	0x3e8a89dd	0.27058306
21	0xbdac0083	-0.08398535
22	0x3e5f77a0	0.21822977
23	0xbe39a226	-0.18128261
24	0xbc09c866	-0.008409595
25	0xbe89c2a5	-0.26906314
26	0x3e170262	0.14747003
27	0xbee59287	-0.44838354
28	0x3baa6b63	0.00520079
29	0xbcb39a12	-0.021924052
30	0xbd17cff0	-0.03706354
31	0xbe63864e	-0.22219202
32	0x3d97b7a8	0.074080765
33	0xbe072d02	-0.13200763
34	0xbe8c550e	-0.27408642
35	0xbe10faf7	-0.14158235
36	0xbeef1552	-0.46695954
37	0xbc734d1b	-0.014849926
38	0xbf3cfc02	-0.73822033
39	0xbc8b3300	-0.016992092
40	0xbfd12c48	-1.6341639
41	0xbe3ce379	-0.18446149
42	0xbf78e99c	-0.9723146
43	0x3d64b8ae	0.055840187
44	0xbe5f3ff2	-0.21801737
45	0xbd9dc07e	-0.077027306
46	0xbdfceca9	-0.12349827
47	0xbdbf49af	-0.09340226
48	0xbe1d8109	-0.15381254
49	0xbe052d79	-0.13005628
50	0xbe42e119	-0.1903118
51	0xbdc877aa	-0.09788449
52	0xbd595742	-0.05306173
53	0xbe2d4b3b	-0.1692323
54	0xbeaa06ef	-0.33208415
55	0xbe63456b	-0.2219445
56	0xbf205d48	-0.62642336
57	0xbd249ee2	-0.040190585
58	0xbef1f33c	-0.47255886
59	0xbe7c6211	-0.24646784
60	0xbe762c96	-0.24040446
61	0x3dd0d7ff	0.10197448
62	0xbf776610	-0.9664011
63	0x3f6dc629	0.92880493
64	0xbf1cadb0	-0.61202526
65	0x3fa0a6ac	1.2550864
66	0xbdbed014	-0.093170315
67	0x4015daef	2.3414876
68	0xbe6053f0	-0.2190702
69	0x3fa78919	1.3088714
70	0xbe7b269c	-0.24526447
71	0x3f3012a4	0.68778443
72	0xbed3fed3	-0.41405353
73	0xbdbf5c78	-0.09343809
74	0xbfa0fd59	-1.2577316
75	0xbdbfaa7e	-0.09358691
76	0xbfc7c66b	-1.5607427
77	0xbd984e9c	-0.074368685
78	0xc0080db1	-2.1258357
79	0x3e2f02bc	0.17090887
80	0xbfb82e8c	-1.4389205
81	0xbdf6680f	-0.12031566
82	0xbf4f8e03	-0.8107607
83	0xbe05d16e	-0.13068172
84	0xbd12eaf0	-0.035868585
85	0xbdab90d0	-0.0837723
86	0xbe823797	-0.25433037
87	0xbdbca3c4	-0.09210923
88	0xbe801b23	-0.25020704
89	0xbe053041	-0.13006689
90	0xbea833d5	-0.32852045
91	0xbe2f2d14	-0.1710704
92	0xbe2b1185	-0.16705902
93	0xbdea38ad	-0.11436591
94	0xbdf8057e	-0.121104226
95	0xbe0351da	-0.12824193
96	0x3f2299e1	0.6351605
97	0xbdc8cc36	-0.09804575
98	0xbe44b3fc	-0.19209284
99	0xbdb50e79	-0.08840651
100	0xbeb4dd88	-0.35325265
101	0xbc56b0d9	-0.013103687
102	0xbe955431	-0.29165795
103	0xbe8e4f1f	-0.2779474
104	0xbe87d5af	-0.26530215
105	0xbedb270f	-0.42803237
106	0xbd522674	-0.051306203
107	0xbec906b4	-0.39262927
108	0x3dedb2dc	0.1160638
109	0xbec1c583	-0.37846002
110	0x3ed1cf57	0.409785
111	0xbd4e9b36	-0.05044099
112	0x3d99ccbf	0.07509755
113	0xbdc39262	-0.09549405
114	0xbe867299	-0.26259306
115	0x3db03fed	0.08605943
116	0x3d3bd0ad	0.045853306
117	0xbd8f4664	-0.06995848
118	0x3f0215cc	0.5081451
119	0xbe21399a	-0.1574463
120	0x3f24c1c9	0.6435819
121	0xbeb853c1	-0.360014
122	0x3f02df1e	0.511217
123	0x3e60d3a6	0.21955737
124	0x3e15e9a6	0.14639911
125	0x3e397761	0.18111946
126	0x3eb00cf5	0.34384885
127	0x3e27a7c4	0.16372591
128	0x3edc3031	0.43005517
129	0x3eb577d9	0.35443
130	0x3e00b5fd	0.12569423
131	0x3f1db0e2	0.61598027
132	0x3dcdb4f2	0.10044278
133	0x3f483144	0.78200173
134	0x3eb40088	0.35156655
135	0x3f2875ec	0.65804935
136	0x3e26ef11	0.16302134
137	0xbe686111	-0.22693278
138	0x3e552f71	0.20818879
139	0xbe92df61	-0.2868605
140	0xbe48e42e	-0.19618294
141	0xbfcaa3e9	-1.5831271
142	0xbe1f30e2	-0.15545991
143	0xbee150a0	-0.44006824
144	0xbd72d5c7	-0.059285905
145	0x3a955488	0.001139299
146	0x3e123bf5	0.14280684
147	0x3df10a3c	0.1176953
148	0x3d924cdf	0.07143568
149	0x3e41133b	0.18854992
150	0xbc61cd07	-0.0137817925
151	0x3e941d56	0.28928632
152	0xbed3492e	-0.4126677
153	0x3e00c029	0.12573303
154	0xbf0a0277	-0.5391001
155	0x3e9da609	0.30790737
156	0xbe6de096	-0.23230204
157	0x3ea03963	0.31293783
158	0xbe770c42	-0.2412577
159	0x3dec1907	0.11528211
160	0xbe5642fe	-0.20923993
161	0x3e462963	0.19351725
162	0xbe58cd4e	-0.21172068
163	0x3effc718	0.49956584
164	0x3d402587	0.04691079
165	0x3f814de0	1.010189
166	0x3e4966f3	0.19668178
167	0x3ed9af98	0.4251678
168	0x3d1d357c	0.038381085
169	0x3de13c87	0.10997873
170	0x3db32178	0.08746618
171	0xbe0ad8fb	-0.13559334
172	0x3e20c49d	0.15700002
173	0xbdd101a9	-0.10205395
174	0x3e813058	0.25232196
175	0xbe67d02e	-0.22638008
176	0x3ecbb0c2	0.39783293
177	0xbd764f4b	-0.060134213
178	0x3f421fa9	0.7582956
179	0xbb05b5d8	-0.0020402577
180	0x3efa3f44	0.48876393
181	0x3d522be6	0.051311396
182	0x3ea35829	0.31903198
183	0x3e611b44	0.21983057
184	0x3ea84ec9	0.32872608
185	0x3e3c1ca4	0.183703
186	0x3e7ed284	0.24884993
187	0x3e80c93e	0.25153536
188	0x3e163307	0.14667903
189	0x3e2483d4	0.16065913
190	0x40194954	2.3951006
191	0xbd9bebd8	-0.07613343
192	0x40225932	2.536694
193	0xbdbe7353	-0.0929934
194	0x400dde35	2.2166874
195	0xbdeddc9b	-0.11614343
196	0x3fd69293	1.6763481
197	0xbd6abc44	-0.05730845
198	0x3f2f76e1	0.6854077
199	0xbecdc88d	-0.4019207
200	0x3f3d7a77	0.7401499
201	0xbf2d84cf	-0.67780775
202	0x3fa4e045	1.2880942
203	0xbf141fe6	-0.57861173
204	0x3f1e3774	0.61803365
205	0xbf8f1343	-1.1177753
206	0x3f301cf2	0.6879417
207	0xbedfea68	-0.43733525
208	0x3ebd6077	0.3698766
209	0x3d66dbce	0.056361966
210	0x3eab8e29	0.33506897
211	0xbe824ccb	-0.25449213
212	0x3eb542c1	0.35402492
213	0xbe4c448c	-0.19948024
214	0x3ee289c7	0.4424574
215	0xbdf94c28	-0.12172729
216	0x3ea6ad62	0.32554156
217	0xbd9798ae	-0.07402168
218	0x3e82ccaa	0.2554677
219	0x3d4c9e53	0.049955677
220	0xbdca7b1d	-0.09886763
221	0x3e114bd9	0.1418909
222	0x3e24ce97	0.16094433
223	0x3e9980bf	0.29981038
224	0x3e251dee	0.16124699
225	0x3eb2cd77	0.34922382
226	0x3dd87e1b	0.10570928
227	0x3c5cb47f	0.013470768
228	0x3dd13295	0.10214726
229	0x3e0f94f9	0.14021672
230	0x3ea2afe5	0.31774822
231	0x3d44839d	0.04797708
232	0x3e05f821	0.13082935
233	0xbd95d21a	-0.07315464
234	0x3e2d4bf5	0.16923507
235	0xbb96e616	-0.004605065
236	0x3f927182	1.144089
237	0xbb7150f9	-0.0036821945
238	0x3ff55954	1.9167886
239	0xbdbb48f0	-0.09144771
240	0x3fa97f98	1.3242064
241	0x3d19e55e	0.037572257
242	0x3ef10848	0.4707663
243	0x3cfd7976	0.030941706
244	0x3e4b3683	0.19845013
245	0xbe192c16	-0.14958224
246	0x3ec1d0b8	0.37854552
247	0x3e2d3e02	0.16918185
248	0x3f1dedc7	0.61690944
249	0x3e81530d	0.25258675
250	0x3fbcbce9	1.4745151
251	0x3e6284ec	0.22121018
252	0x3f7a4286	0.97757757
253	0x3d87dbd3	0.06633725
254	0x3eb643a8	0.35598493
255	0xbd4133e9	-0.047168646

gru.weight_hh_l0 f4 [96, 32]
0	0x3f6a5f69	0.91551834
1	0x3ef98e28	0.4874127
2	0x3e41be3f	0.1892023
3	0x3ebf71f3	0.37391624
4	0xbde35920	-0.111009836
5	0xbea4f52f	-0.3221831
6	0x3e955969	0.29169777
7	0x3eaa0470	0.3320651
8	0xbd09e35a	-0.033664085
9	0x3efc5c03	0.4928895
10	0xbdcbaef5	-0.0994548
11	0x3d1cfa49	0.038324628
12	0x3e19795b	0.149877
13	0xbef2f9f0	-0.47456312
14	0xbe8d41c4	-0.27589238
15	0xbd1108d8	-0.035408825
16	0xbe96ee76	-0.29478806
17	0x3ee79dbe	0.45237535
18	0x3ed63872	0.4183994
19	0x3d97ca58	0.07411641
20	0x3ea04ccb	0.31308588
21	0xbeb8f0e4	-0.36121285
22	0x3e306174	0.17224675
23	0x3f0dd6b5	0.5540574
24	0x3f677d31	0.904254
25	0x3e0b281d	0.13589521
26	0xbedd596a	-0.4323228
27	0x3d4b30de	0.04960715
28	0xbf0e9fe2	-0.5571271
29	0xbd9893b9	-0.07450051
30	0x3f017faf	0.50585455
31	0x3e7ca843	0.24673562
32	0xbe587b5d	-0.2114081
33	0x3b89e138	0.0042077564
34	0x3e21e685	0.15810592
35	0xbd692f3b	-0.056929808
36	0xbf259fb1	-0.64696795
37	0x3e46ad54	0.19402057
38	0x3d2dc2d0	0.042422116
39	0xbd3c0e6e	-0.0459122
40	0x3e29679f	0.16543435
41	0x3ed4f33b	0.4159182
42	0xbe38f1a5	-0.1806093
43	0x3dc83795	0.097762264
44	0xbeb43079	-0.35193232
45	0x3edc6018	0.43042064
46	0xbecee736	-0.40410775
47	0xbe987f85	-0.2978479
48	0xbd2fa24e	-0.042879395
49	0xbe98ed1b	-0.29868397
50	0x3e91eb48	0.28499818
51	0xbf9069da	-1.1282303
52	0x3ec844d4	0.39115012
53	0x3e87917d	0.26478186
54	0x3f8d863a	1.1056588
55	0x3e947ac9	0.28999928
56	0xbeb3cc13	-0.35116634
57	0x3e801714	0.25017607
58	0xbdbc9cc7	-0.092095904
59	0xbe8805dc	-0.2656697
60	0xbf161542	-0.58626187
61	0x3f0e1670	0.55502987
62	0x3ee9ce2e	0.45665115
63	0xbe2a836c	-0.16651696
64	0x3f0752d5	0.52860767
65	0xbd332169	-0.043733034
66	0x3f05d052	0.52270997
67	0xbf37a88b	-0.7174155
68	0x3ec1292f	0.37726733
69	0x3fb452be	1.4087751
70	0x3d25d647	0.040487554
71	0xbf232ede	-0.6374339
72	0x3e85ae80	0.26109695
73	0xbefe01f2	-0.4961086
74	0xbf997a66	-1.1990478
75	0xbf04d5ad	-0.51888543
76	0x3c2363ff	0.009972571
77	0x3f8ca4c4	1.0987782
78	0xbf08129d	-0.531534
79	0x3f5a6181	0.8530503
80	0x3f506334	0.8140137
81	0x3e82b24a	0.2552665
82	0x3f58baf0	0.84660244
83	0x3f3f9d94	0.7484982
84	0xbf6a709d	-0.91578084
85	0xbf175c36	-0.5912508
86	0xbedb5682	-0.42839438
87	0xbe2d4adb	-0.16923086
88	0xbeb94714	-0.3618704
89	0x3f1cfc21	0.6132222
90	0xbf5c5ec9	-0.8608213
91	0x3d6dc9c7	0.058053758
92	0x3f3377de	0.7010478
93	0xbe4b1fc6	-0.1983634
94	0x3f3872ab	0.7204997
95	0xbea308fa	-0.31842786
96	0xbfa6f36d	-1.3043038
97	0xbfb3fc87	-1.406144
98	0x3e95e442	0.2927571
99	0xbe1d6514	-0.1537059
100	0xbf083791	-0.5320979
101	0xbf49a55d	-0.7876795
102	0x3f6e1222	0.9299642
103	0xbfacac30	-1.3490047
104	0xbdbc5c08	-0.09197241
105	0x3c8cbbba	0.017179359
106	0xbd1b5da2	-0.037931092
107	0x3f5c1745	0.85973006
108	0x3eebdf71	0.4606891
109	0x3e565999	0.20932616
110	0xbea918f3	-0.33026847
111	0x3e6ffc0d	0.23435993
112	0xbe83bdc5	-0.2573072
113	0x3ee0d494	0.43912184
114	0xbfb56401	-1.4171144
115	0xbe774852	-0.24148682
116	0xbd698069	-0.057007227
117	0xbd47abe5	-0.048747916
118	0x3f547116	0.82985055
119	0xbe6ab39e	-0.22920081
120	0x3ef0b822	0.47015482
121	0xbf8235d6	-1.017268
122	0xbf7c0815	-0.9844983
123	0x3f089f66	0.5336822
124	0x3d8ed105	0.06973461
125	0x3ecb94b7	0.39761898
126	0xbecfe4a8	-0.40604138
127	0xbf80da9f	-1.0066718
128	0xbf294d77	-0.66133827
129	0xbf42d725	-0.76109535
130	0xbeff0261	-0.49806502
131	0xbf8b7aa6	-1.0896804
132	0xbeaea490	-0.34109926
133	0x3e617f3f	0.22021197
134	0x3e30187f	0.17196845
135	0xbe99327c	-0.2992133
136	0xbfe46eba	-1.7846291
137	0x3d9f69cf	0.07783853
138	0xbeb6e35c	-0.35720336
139	0x3e880e41	0.26573375
140	0xbf03d69e	-0.51499355
141	0xbe0334ef	-0.12813161
142	0xbf0d2adf	-0.5514354
143	0xbe4385d3	-0.19094019
144	0x3d2be078	0.041962117
145	0x3ea31b20	0.31856632
146	0xbe70f51c	-0.23531002
147	0xbf1884f7	-0.5957789
148	0x3e6c802a	0.23095766
149	0xbeccc712	-0.3999563
150	0xbef91326	-0.48647422
151	0xbebc75e0	-0.3680868
152	0x3f2463ac	0.6421459
153	0xbf29fcbe	-0.6640128
154	0x3ea22745	0.31670585
155	0xbd9963e3	-0.07489755
156	0xbed6ef32	-0.41979367
157	0xbe0fea79	-0.14054288
158	0xbda0db60	-0.078543425
159	0x3ebb1885	0.36542144
160	0x3e675174	0.22589666
161	0xbeb33976	-0.35004777
162	0xbe2ffa13	-0.1718524
163	0xbe3e23e1	-0.18568374
164	0xbdecf4d9	-0.115701385
165	0xbef838f4	-0.48480952
166	0xbe8fdcf3	-0.28098258
167	0x3c2139ad	0.009840411
168	0xbe976f16	-0.2957694
169	0x3e42819f	0.18994759
170	0xbdbea247	-0.09308296
171	0xbeb381c5	-0.35059944
172	0x3eaa7c3e	0.33297914
173	0x3ea3c831	0.3198867
174	0x3ca35401	0.019937517
175	0x3df3bb8d	0.11901007
176	0x3f868326	1.0508773
177	0x3f6415ba	0.8909565
178	0xbea75c0d	-0.32687417
179	0x3e88dabd	0.26729384
180	0xbf1f5ce3	-0.6225111
181	0x3e65a8f5	0.22427733
182	0xbea42d69	-0.32065895
183	0xbbdf93af	-0.006823025
184	0xbe6bbf26	-0.23022136
185	0xbeb6bd48	-0.35691285
186	0x3cabe72b	0.020984253
187	0xbe69d9ea	-0.22837034
188	0x3ecb85df	0.39750573
189	0xbd484228	-0.048891217
190	0xbe46835e	-0.1938605
191	0xbcbe1ffe	-0.023208614
192	0x3db13f7f	0.08654689
193	0xbf4af4b1	-0.7927962
194	0x3ee74d83	0.45176324
195	0xbe546ab7	-0.20743833
196	0xbf4dc7d9	-0.8038307
197	0xbe0ea08b	-0.1392843
198	0xbe78e91d	-0.24307676
199	0xbeb31d57	-0.34983322
200	0xbf5d9cd9	-0.86567456
201	0x3e97286d	0.2952303
202	0x3f175dd1	0.5912753
203	0x3e1bd508	0.15217984
204	0x3d9858fa	0.07438846
205	0xbf3172c7	-0.6931576
206	0x3c4303ca	0.011902759
207	0xbf3ca315	-0.73686343
208	0xbf30a4b0	-0.69001293
209	0xbe108b0d	-0.14115544
210	0xbe4a14bb	-0.1973447
211	0x3de9fb52	0.11424889
212	0xbcf2e50a	-0.02965023
213	0x3e30c858	0.17263925
214	0x3f11b725	0.5692008
215	0xbd5b78d8	-0.053582042
216	0xbf6fa00e	-0.936036
217	0xbf0e05b7	-0.5547747
218	0xbd1ad0e0	-0.037796855
219	0xbe767ffe	-0.24072263
220	0x3f244e15	0.64181644
221	0xbe679438	-0.22615135
222	0x3e46dbb5	0.19419749
223	0xbe654c97	-0.22392498
224	0x3edf8b19	0.4366081
225	0xbe8b8a62	-0.27254015
226	0x3e39169d	0.18075033
227	0x3e336912	0.1752055
228	0x3e19294d	0.14957161
229	0xbdd6f19a	-0.104953006
230	0xbe8831ac	-0.26600397
231	0xbf7429cb	-0.9537627
232	0xbf196758	-0.59923315
233	0x3d9c1651	0.07621444
234	0xbefd42c0	-0.4946499
235	0xbf30d2a1	-0.69071394
236	0xbf3dcf7d	-0.74144727
237	0x3f4e3fa4	0.8056586
238	0xbee745d4	-0.45170462
239	0xbf1b6c3b	-0.6071202
240	0xbeb5b2e7	-0.35488054
241	0x3e46a3be	0.193984
242	0xbdb3c755	-0.08778254
243	0x3ca7ecf4	0.02049873
244	0xbf4607a7	-0.77355427
245	0x3f5c4775	0.86046535
246	0xbe3619f2	-0.17783335
247	0xbdff6559	-0.124705024
248	0x3ea44863	0.32086477
249	0xbe04f4a6	-0.12983951
250	0x3cb05cf6	0.021528702
251	0xbf359193	-0.70925254
252	0x3f155a0c	0.58340526
253	0xbdba6eba	-0.09103151
254	0xbe5e53a9	-0.21711601
255	0xbe7bd94d	-0.24594612

gru.bias_ih_l0 f4 [96]
0	0xbd94f82d	-0.07273898
1	0xbc9bb512	-0.01900724
2	0xbd8eeb75	-0.069785036
3	0xbe305005	-0.17218025
4	0xbd53b593	-0.051686835
5	0xbe2eb8b6	-0.17062649
6	0x3dc963ea	0.0983351
7	0xbc2334b2	-0.009961294
8	0x3dc2cff7	0.095123224
9	0xbb7cf383	-0.0038597293
10	0xbe3adcce	-0.18248293
11	0xbda222bf	-0.079167835
12	0x3d7548ae	0.059883766
13	0x3e6a5e79	0.22887601
14	0x3e4153e2	0.18879655
15	0x3da10c7c	0.07863709
16	0xbdf84114	-0.12121788
17	0xbd853b82	-0.06505491
18	0x3e2010af	0.15631364
19	0xbd3c5e36	-0.045988284
20	0x3e17af66	0.14813003
21	0xbd36e580	-0.044652462
22	0x3dcb6deb	0.099330746
23	0xbe16e05c	-0.14734024
24	0xbcba94d6	-0.022776049
25	0xbe10744c	-0.14106864
26	0xbe902da9	-0.28159836
27	0xbdd7a4a4	-0.105294496
28	0x3dcdb57d	0.10044382
29	0xbe195a1f	-0.14975785
30	0xbe35143c	-0.176835
31	0x3d9ae61b	0.075634204
32	0x3dbfa644	0.093578845
33	0x3e25fbd2	0.16209343
34	0xbdacd955	-0.0843989
35	0x3e59669a	0.21230546
36	0xbc911613	-0.017710721
37	0xbe891fa2	-0.26781946
38	0x3c3a18f0	0.011358485
39	0xbe1482fd	-0.14503093
40	0x3ed66634	0.4187485
41	0xbe375341	-0.17902853
42	0x3e275189	0.16339697
43	0x3e2dec3b	0.16984646
44	0x3d583be9	0.05279151
45	0x3cfd12ac	0.030892693
46	0x3dde80cc	0.1086441
47	0xbc75b395	-0.014996429
48	0x3e6ecd3f	0.23320483
49	0x3e2527cb	0.16128461
50	0x3df05dfe	0.117366776
51	0x3c198ee7	0.0093724495
52	0x3d508d48	0.050915986
53	0xbe7dd266	-0.24787292
54	0xbe2ed0ee	-0.17071888
55	0xbe630b9e	-0.221724
56	0xbd15065c	-0.036383018
57	0x3eb81f42	0.35961348
58	0x3c5fa4a7	0.013650096
59	0xbe87029f	-0.26369187
60	0x3e29d6b3	0.16585808
61	0x3e9b0e14	0.30284178
62	0x3e1840b5	0.14868434
63	0xbe8fe615	-0.28105226
64	0x3db54320	0.08850694
65	0xbd4ec3d7	-0.050479736
66	0x3df8cca6	0.121484086
67	0xbe5d774e	-0.21627542
68	0xbe4df7d3	-0.20114069
69	0x3c5509c6	0.013002818
70	0xbe879a03	-0.2648469
71	0xbabc2eec	-0.0014357246
72	0xbb03031c	-0.0019990867
73	0x3e5895ba	0.21150866
74	0xbe21acc9	-0.15788569
75	0xbcebdaf0	-0.028790921
76	0x3da1f507	0.079080634
77	0xbdf561ed	-0.119815685
78	0x3e7ab513	0.24483137
79	0xbe101864	-0.14071804
80	0xbddaba61	-0.1068008
81	0xbbb17e4d	-0.0054166676
82	0xbca11755	-0.019664446
83	0x3c29cc41	0.010363639
84	0xbd0d8291	-0.034548346
85	0xbe46d4b0	-0.19417071
86	0xbe0870b5	-0.13324244
87	0x3e59d125	0.21271189
88	0xbc3cf0c8	-0.011532016
89	0x3e73128e	0.23737547
90	0xbd9ac928	-0.07557899
91	0x3dcdf4af	0.10056435
92	0x3ddd6036	0.108093664
93	0x3dfe7a26	0.12425642
94	0x3df3b3aa	0.118995026
95	0x3e4d1e7f	0.20031165

gru.bias_hh_l0 f4 [96]
0	0xbc937d40	-0.01800406
1	0x3d1ff130	0.039048374
2	0x3dee0d95	0.11623684
3	0xbe511a9c	-0.20420307
4	0xbde03e90	-0.10949433
5	0xbdd54def	-0.10415255
6	0xbda68538	-0.08130878
7	0xbe1cfcdb	-0.15330832
8	0xbe1f95a6	-0.1558443
9	0xbdcc7dff	-0.09984969
10	0x3dcb2e5c	0.09920952
11	0xbdd5032e	-0.10400997
12	0xbca9a30c	-0.02070763
13	0xbdbcce57	-0.09219044
14	0xbd0632df	-0.03276336
15	0x3e732dfd	0.23748012
16	0xbe9524ae	-0.29129547
17	0x3da4db75	0.080496706
18	0x3e093d84	0.13402373
19	0x3e0047d5	0.12527402
20	0x3cb4a118	0.022049472
21	0x3e508b45	0.20365627
22	0x3e4279ea	0.18991819
23	0xbdcbaf66	-0.09945564
24	0xbe2653d6	-0.16242918
25	0x3dc67d90	0.09691918
26	0xbe4ebe2c	-0.20189732
27	0xbe04c0b5	-0.12964137
28	0xbe4b45dd	-0.1985087
29	0xbc1f3418	-0.00971701
30	0x3d1e1508	0.038594276
31	0x3d67742b	0.05650727
32	0xbb99b0ec	-0.00469028
33	0x3e08841f	0.1333165
34	0x3c02793c	0.007963475
35	0x3dd4ec0b	0.10396584
36	0x3dc6e608	0.09711844
37	0x3c9734e9	0.018457847
38	0x3c50f664	0.012754057
39	0xbe278521	-0.16359378
40	0x3e5324b2	0.20619467
41	0xbc29cfcb	-0.010364483
42	0x3e086ade	0.13322017
43	0xbc0d4f7d	-0.0086249085
44	0xbdf368b4	-0.11885205
45	0x3db365b4	0.08759633
46	0x3e1caaa7	0.15299474
47	0xbcb1b957	-0.021694822
48	0x3e10c191	0.1413634
49	0xbd9969ae	-0.0749086
50	0xbdb3bac6	-0.087758586
51	0x3e4d8994	0.20072013
52	0xbe3475c2	-0.17623046
53	0xbc3e5ea6	-0.011619246
54	0xbe86fe55	-0.26365915
55	0xbdb626af	-0.08894097
56	0x3e16299b	0.14664309
57	0x3e049f89	0.12951483
58	0xbd4bb0d0	-0.04972917
59	0x3d4fc556	0.050725304
60	0x3e213b61	0.15745308
61	0x3e985063	0.2974883
62	0x3e1c5d73	0.15270023
63	0xbed03cf3	-0.406715
64	0x3ef98ffb	0.4874266
65	0xbe783d16	-0.24242052
66	0xbe011e9a	-0.1260933
67	0xbcd7ca26	-0.02634151
68	0xbd851925	-0.064989366
69	0xbeda2e32	-0.4261337
70	0xbe93a7ea	-0.28839046
71	0xbead61fa	-0.33863813
72	0x3e8fc711	0.28081563
73	0x3eea3587	0.45743963
74	0x3ddc94b8	0.10770553
75	0xbd9086bf	-0.07056951
76	0x3e279333	0.16364746
77	0xbe963ad1	-0.29341748
78	0xbd941e9b	-0.072324
79	0xbe37931c	-0.17927212
80	0xbe38a812	-0.18032864
81	0xbd031868	-0.032005697
82	0xbed245a5	-0.4106876
83	0xbeb4d1b8	-0.35316253
84	0xbda5d02b	-0.080963455
85	0x3ea40010	0.32031298
86	0x3d9a08f0	0.07521236
87	0x3e6f448c	0.23365992
88	0x3ee846f6	0.4536664
89	0x3de5daf6	0.11223404
90	0xbe55135f	-0.2080817
91	0x3eb4245b	0.35183987
92	0xbda1213e	-0.078676686
93	0x3e7dc311	0.24781443
94	0xbe94a86b	-0.29034743
95	0x3e4a0a69	0.19730534

gru.weight_ih_l0_reverse f4 [96, 136]
0	0x3e14d700	0.14535141
1	0x3ecff80e	0.40618938
2	0x3dc96035	0.09832803
3	0x3ef1ad15	0.47202364
4	0xbcbd2212	-0.023087535
5	0x3ecdb98d	0.40180627
6	0xbc6822a5	-0.014168416
7	0x3db035ae	0.086039886
8	0x3d7bb862	0.061455138
9	0x3d97b3ec	0.07407364
10	0xbdbeed2e	-0.09322582
11	0xbd9413d5	-0.07230345
12	0x3ce80453	0.028322374
13	0x3d07ef69	0.033187304
14	0x3dd5ac3a	0.1043324
15	0x3d7b880b	0.061409038
16	0x3e53df5f	0.20690678
17	0x3d72b35a	0.059253074
18	0x3b8baf4c	0.0042628404
19	0x3c4b4d03	0.012408498
20	0xbccfd459	-0.02536981
21	0x3e1b6853	0.15176515
22	0xbe5684a1	-0.20949031
23	0x3e8e6a40	0.27815437
24	0xbbacdcb8	-0.005275335
25	0x3e47debf	0.19518565
26	0xbd19f0b3	-0.037583064
27	0x3e5d21a5	0.21594866
28	0x3c8276e1	0.015925827
29	0xbeacdb00	-0.33760834
30	0xbc5786da	-0.01315471
31	0xbe88d1a5	-0.26722446
32	0xbd7c073b	-0.061530333
33	0xbd8f6d75	-0.07003299
34	0x3d557ba6	0.052119873
35	0x3d1683e2	0.036746867
36	0x3d7fb574	0.062428907
37	0x3d908224	0.07056072
38	0xbd2ceeb2	-0.042219825
39	0x3d472a3f	0.048624273
40	0xbe2a0f48	-0.16607392
41	0xbc449169	-0.011997559
42	0xbe6fdc4f	-0.23423885
43	0x3d07a404	0.033115402
44	0xbb2b49ae	-0.0026136446
45	0x3bb6285f	0.005559012
46	0xbd89ee8b	-0.067349516
47	0x3d1e8072	0.038696714
48	0x3d192403	0.03738786
49	0xbca0c46e	-0.019624915
50	0x3d01e6bd	0.03171419
51	0xbc328269	-0.01089535
52	0xbd5f6c2d	-0.054546524
53	0x3c2046bf	0.009782492
54	0xbee61851	-0.44940427
55	0x3c79435b	0.015213813
56	0xbd95756e	-0.072977886
57	0xbe28c222	-0.16480306
58	0xbe8fbd7e	-0.2807426
59	0x3d0268e5	0.031838316
60	0x3e60d7c2	0.21957305
61	0x3df0b614	0.11753479
62	0xbe7b4ecf	-0.24541782
63	0xbefc606d	-0.49292317
64	0xbdbafdfd	-0.09130476
65	0xbeb3a469	-0.35086372
66	0x3cf91875	0.03040717
67	0x3e3897d5	0.1802667
68	0x3d5e651f	0.054295655
69	0x3ed93bea	0.42428523
70	0x3de3caf3	0.11122694
71	0xbcf0776c	-0.02935382
72	0x3c6f8577	0.014619223
73	0xbef2589b	-0.47333226
74	0xbd307e26	-0.043089055
75	0xbf0c71c2	-0.5486108
76	0xbcc4f4ea	-0.024042565
77	0xbf12b327	-0.57304615
78	0x3d5046df	0.050848838
79	0xbeecacda	-0.46225625
80	0xbdef2d94	-0.11678615
81	0xbf16f500	-0.5896759
82	0xbe0ed40c	-0.13948077
83	0xbeec156b	-0.4611009
84	0xbe604ff6	-0.21905503
85	0xbe493610	-0.1964953
86	0xbe250dc5	-0.16118534
87	0xbf2db79a	-0.6785828
88	0x3d06f212	0.0329457
89	0xbf20d8c3	-0.6283075
90	0x3e77597c	0.2415523
91	0xbf05fa13	-0.5233471
92	0xbce03c2e	-0.027372446
93	0xbf127fa1	-0.57225996
94	0xbca08956	-0.019596737
95	0xbec736fd	-0.3890914
96	0x3e2e54cf	0.1702454
97	0xbe4b50ff	-0.19855116
98	0xbe28d93d	-0.1648912
99	0xbf2401c7	-0.6406521
100	0x3e328818	0.17434728
101	0xbf2143be	-0.6299399
102	0x3ee76552	0.4519449
103	0xbe1a0105	-0.15039451
104	0xbdc0e848	-0.09419304
105	0xbec600fb	-0.38672623
106	0xbe64d767	-0.22347794
107	0xbe0e8b00	-0.13920212
108	0xbdfb95d5	-0.122844376
109	0xbeacd4bb	-0.3375605
110	0x3d8f165d	0.06986687
111	0x3e48436b	0.19556968
112	0x3e564144	0.20923334
113	0x3ea0d190	0.31409883
114	0x3da03d9a	0.078242496
115	0x3e6dcdb1	0.23222996
116	0xbe85c5ec	-0.26127565
117	0x3d4537a2	0.04814876
118	0xbdba84f0	-0.09107387
119	0x3e4f1890	0.20224214
120	0x3d7ab2bd	0.061205614
121	0xbbe8ca66	-0.007104206
122	0x3dec5ec4	0.115415126
123	0xbe7ad09c	-0.2449364
124	0xbdf11e89	-0.11773402
125	0xbe9955d6	-0.299483
126	0x3e021a4c	0.12705344
127	0xbe9792e9	-0.2960427
128	0x3cb95cf7	0.022627337
129	0xbe8789e0	-0.26472378
130	0x3dfc7688	0.123272955
131	0x3db0797b	0.086169206
132	0xbe059a4e	-0.13047144
133	0x3e0de53b	0.13856976
134	0x3c0a12db	0.008427347
135	0x3ca8f243	0.020623332
136	0xbdab9f53	-0.08379998
137	0xbe4cb309	-0.19990171
138	0xbd1b0051	-0.0378421
139	0xbef48ad4	-0.47762167
140	0xbe79ec2e	-0.24406502
141	0xbe3c095c	-0.18362945
142	0xbdae29ed	-0.085040905
143	0xbe109a41	-0.14121343
144	0xbd6f7903	-0.058465015
145	0xbd5f5fce	-0.054534726
146	0xbdbcc47c	-0.09217164
147	0xbe6be631	-0.2303703
148	0x3c1e64d6	0.009667596
149	0xbd89e866	-0.067337796
150	0xbd85778a	-0.06516941
151	0xbcab567d	-0.020915264
152	0xbe2e25bb	-0.1700658
153	0x3ddf5660	0.109051466
154	0xbb251e63	-0.0025195114
155	0xbe09195f	-0.13388585
156	0xbe8785b9	-0.2646921
157	0xbd9ad6c3	-0.07560494
158	0x3dc26432	0.09491767
159	0xbd94b815	-0.07261673
160	0xbd85d906	-0.065355346
161	0x3da75ea2	0.08172347
162	0x3d9244fe	0.071420655
163	0xbe00601e	-0.12536666
164	0x3e916c4f	0.28402945
165	0xbf0caee0	-0.5495434
166	0x3da3e9ac	0.08003554
167	0xbef5ed50	-0.48032618
168	0x3bed9106	0.007249954
169	0xbeec7136	-0.46180123
170	0xbe135dd8	-0.14391267
171	0x3ca3a641	0.019976737
172	0xbe6efeff	-0.23339461
173	0x3cb3b375	0.021936158
174	0xbe089f1f	-0.1334195
175	0xbd1aa1f4	-0.037752107
176	0xbee59e1f	-0.448472
177	0xb8a2b291	-7.7580225e-05
178	0xbe64fd6b	-0.22362296
179	0xbddf66df	-0.10908293
180	0xbcd5405a	-0.026031662
181	0xbe0cd2cd	-0.13752289
182	0x3df11601	0.11771775
183	0xbd747430	-0.059681118
184	0xbd7f41b3	-0.062318515
185	0x3d3f48ae	0.046700172
186	0x3df0be32	0.11755027
187	0x3cb506ce	0.022097971
188	0x3d8ea3d2	0.0696484
189	0x3e5d6b8b	0.21623056
190	0xbe250ce4	-0.16118199
191	0x3dcb0db1	0.09914721
192	0xbc0ec364	-0.008713577
193	0x3d04ced2	0.0324238
194	0xbdae7d51	-0.08519996
195	0x3dbf25fc	0.09333417
196	0x3cfb7a77	0.030698044
197	0x3e0285cd	0.12746353
198	0x3d32deea	0.04366962
199	0x3e8aa0be	0.27075762
200	0xbe1324da	-0.14369527
201	0x3e3d78ae	0.18503067
202	0xbe12ae0c	-0.14324206
203	0x3eb17409	0.3465884
204	0x3df3aef0	0.11898601
205	0x3e7de157	0.24792992
206	0x3e0485fc	0.12941736
207	0x3df390b8	0.11892837
208	0xbdf798bb	-0.12089678
209	0xbc9dbbf2	-0.019254658
210	0xbd165b59	-0.03670821
211	0x3e14235b	0.14466612
212	0xbde1d117	-0.11026209
213	0x3c9fa9ae	0.01949009
214	0xbd3810af	-0.044937786
215	0x3c831e47	0.016005648
216	0xbe8e5cd3	-0.27805194
217	0xbd800b61	-0.0625217
218	0xbe808ef2	-0.2510906
219	0xbe2555ff	-0.16146086
220	0xbdca8c04	-0.09889987
221	0xbe604827	-0.21902524
222	0xbd8b269f	-0.06794476
223	0xbd9dd069	-0.07705767
224	0x3e4bc2ca	0.19898525
225	0x3bf0ccac	0.0073486175
226	0x3daa99b7	0.083301
227	0xbd3d82e2	-0.046267398
228	0xbd637b42	-0.05553747
229	0xbdef0a4b	-0.11671885
230	0x3da694ce	0.08133851
231	0xbe088de7	-0.13335381
232	0x3d1945a8	0.037419945
233	0xbd41eba3	-0.04734386
234	0xbd624f9a	-0.055251695
235	0xbd7707c5	-0.060310144
236	0x3e907653	0.28215274
237	0xbd8a25ed	-0.06745515
238	0x3cc51962	0.024059955
239	0x3e728c45	0.23686321
240	0x3ecb2048	0.39673066
241	0xbe3cbddc	-0.184318
242	0x3eb8e588	0.36112618
243	0xbd9fd4b5	-0.078042425
244	0x3e87534e	0.26430744
245	0xbcd1d15b	-0.025612524
246	0x3f362a73	0.7115852
247	0x3e1ea4f7	0.15492617
248	0x3f0d1e99	0.55124813
249	0x3e3c66ad	0.18398543
250	0xbb5e81bb	-0.0033951837
251	0x3cff269f	0.031146346
252	0x3e059622	0.13045552
253	0x3dbcab6a	0.09212382
254	0x3df521d2	0.11969341
255	0x3e78c2ad	0.24293013

gru.weight_hh_l0_reverse f4 [96, 32]
0	0xbdb301a0	-0.08740544
1	0xbf009d06	-0.502396
2	0xbec0915c	-0.376109
3	0x3e1aec96	0.15129313
4	0xbd9dd3d4	-0.07706419
5	0x3e6e09a6	0.23245868
6	0x3ed42760	0.4143629
7	0xbdecf3ff	-0.11569976
8	0xbf6c9eb0	-0.9242964
9	0x3e94bb76	0.2904927
10	0x3f137074	0.57593465
11	0xbeb298d0	-0.34882212
12	0x3d4b6637	0.049658027
13	0xbb01a602	-0.0019782786
14	0x3db42b89	0.08797366
15	0x3ed3cb7d	0.41366187
16	0x3eb73644	0.3578359
17	0xbeb00f28	-0.34386563
18	0x3f264ca4	0.64960694
19	0x3c66efd7	0.014095268
20	0x3f4809e7	0.7814011
21	0x3eb3d597	0.35123894
22	0x3e661fa8	0.22473013
23	0xbe97c35b	-0.29641232
24	0xbf3d9991	-0.7406245
25	0x3da251e6	0.07925777
26	0x3e58c399	0.21168365
27	0x3e200733	0.15627746
28	0xbf3bbec0	-0.73337936
29	0xbd646a26	-0.055765294
30	0xbd847231	-0.06467093
31	0xbf70a7b6	-0.94005907
32	0xbe80db20	-0.2516718
33	0xbe10633c	-0.14100355
34	0x3fbd0cee	1.4769571
35	0xbf62bdd9	-0.88570935
36	0xbbb9ad7a	-0.005666432
37	0x3e7e3883	0.24826245
38	0x3e51944b	0.20466726
39	0xbeb0f225	-0.34559742
40	0xbef82e5d	-0.48472872
41	0xbea9241b	-0.3303536
42	0x3ebac79e	0.3648042
43	0x3f830136	1.0234745
44	0xbf9163b6	-1.1358554
45	0x3ebe76d3	0.3720003
46	0x3ead75fa	0.3387907
47	0xbe821845	-0.2540914
48	0xbd3129b4	-0.04325266
49	0x3f0517c8	0.5198941
50	0x3e2aab58	0.16666925
51	0x3ee18ec7	0.44054243
52	0xbda01299	-0.07816047
53	0x3ed2b7a5	0.41155735
54	0xbe13c593	-0.14430837
55	0xbeda2a85	-0.42610565
56	0xbd3646b6	-0.04450103
57	0xbf86ea65	-1.0540282
58	0xbf1167c9	-0.5679899
59	0x3f31288d	0.692025
60	0xbdf9dccb	-0.12200316
61	0x3e8d4775	0.2759358
62	0x3e9b66e4	0.30351937
63	0x3f3b3023	0.73120326
64	0xbe826cd0	-0.25473642
65	0x3f28f911	0.66005045
66	0x3e9af4b4	0.3026482
67	0xbe3175ac	-0.17330045
68	0x3d8fce12	0.07021727
69	0xbd88ca3d	-0.06679199
70	0x3cce0694	0.025149621
71	0x3d9d796d	0.07689176
72	0x3e63718e	0.22211286
73	0xbe9f26a2	-0.31084162
74	0xbc9363c0	-0.0179919
75	0x3f43568b	0.7630393
76	0x3dde6b72	0.10860337
77	0xbe015449	-0.12629808
78	0x3c2f8ba4	0.010714445
79	0x3e8f360d	0.27970925
80	0x3deb77bc	0.11497447
81	0x3e8e4104	0.27783978
82	0xbf1a8f0c	-0.6037452
83	0x3ea86a0d	0.3289341
84	0xbd92b60c	-0.07163629
85	0x3ebfd496	0.37466878
86	0xbf09c740	-0.53819656
87	0xbe973125	-0.29529682
88	0xbe9048e5	-0.28180614
89	0x3e245f6b	0.16052024
90	0x3e167cec	0.14696091
91	0x3f3e8c71	0.74433047
92	0xbefb1676	-0.49040574
93	0x3ed26815	0.41095033
94	0x3e78a475	0.24281485
95	0x3db89081	0.09011937
96	0x3f2fe82c	0.6871364
97	0x3ebbc01f	0.36670014
98	0xbf18dffd	-0.5971678
99	0xbedb9110	-0.4288411
100	0xbf088182	-0.53322613
101	0x3de14d3d	0.1100106
102	0x3f0686c0	0.5254936
103	0xbef7b529	-0.48380402
104	0xbf00931f	-0.5022449
105	0x3ea1a555	0.3157145
106	0xbf5c9fab	-0.86181134
107	0x3f43d248	0.7649274
108	0x3eab7287	0.33485815
109	0x3f2d7c23	0.6776754
110	0xbdd0c50f	-0.10193836
111	0xbe6fb658	-0.23409402
112	0x3db45936	0.08806078
113	0xbe5bb4e7	-0.21455728
114	0x3da780ee	0.08178888
115	0x3e16973f	0.14706133
116	0xbdd8604b	-0.105652414
117	0x3ea1436a	0.31496745
118	0xbef64f9c	-0.48107612
119	0x3e8469d9	0.25862005
120	0xbec9cd0b	-0.39414248
121	0x3e669bbe	0.22520348
122	0x3cedbbbb	0.02902018
123	0xbebe284d	-0.37140122
124	0x3ebaac94	0.36459792
125	0x3ee317ea	0.44354182
126	0xbd77e70c	-0.060523078
127	0x3e681c20	0.22666979
128	0xbe19bd52	-0.15013626
129	0xbdd0d503	-0.10196879
130	0xbdb92633	-0.09040489
131	0x3f164bda	0.5870949
132	0x3e7f2845	0.24917705
133	0x3f04a254	0.51810193
134	0xbf1a19d9	-0.6019569
135	0x3f2589f7	0.6466364
136	0x3f2d1c91	0.67621714
137	0xbec1e46b	-0.37869582
138	0x3db3d0d3	0.087800644
139	0x3f935c76	1.1512592
140	0xbe210ca7	-0.15727483
141	0xbda6b205	-0.08139423
142	0xbf73a32d	-0.9517086
143	0x3f2c0584	0.67195916
144	0xbdfd3a58	-0.12364644
145	0xbd9ed444	-0.0775533
146	0xbf17b90c	-0.59266734
147	0xbd966d22	-0.07345034
148	0x3e7f13f9	0.24909963
149	0xbd5495f9	-0.051900838
150	0xbeaa5a6b	-0.33272108
151	0x3e91c3cc	0.28469694
152	0x3d9808ac	0.07423529
153	0x3f298788	0.6622243
154	0x3eca530c	0.39516485
155	0xbf604e36	-0.8761934
156	0xbcf518c0	-0.029919028
157	0xbdc634b9	-0.09678025
158	0x3d1e5efe	0.03866481
159	0xbed6bfa1	-0.41943076
160	0xbe7be810	-0.24600244
161	0xbd45f0a8	-0.04832521
162	0x3f2931e6	0.66091764
163	0xbf9670a5	-1.1753126
164	0xbe6b534b	-0.22980992
165	0x3fb4c90b	1.4123853
166	0x3f831560	1.0240898
167	0xbf20f974	-0.62880635
168	0xbf01ffc7	-0.5078091
169	0xbc20eb6e	-0.009821756
170	0xbdc4f62e	-0.096172675
171	0x3e025be5	0.12730367
172	0x3f1c5b0d	0.6107643
173	0xbe20b669	-0.15694584
174	0x3f1d0cfb	0.6134793
175	0xbf5bb24c	-0.85818934
176	0xbeaae136	-0.33374947
177	0x3f6a1387	0.91436046
178	0xbdf59f40	-0.11993265
179	0x3f366058	0.7124076
180	0x3c32ba5c	0.010908689
181	0x3f170a88	0.59000444
182	0xbe509bed	-0.20371981
183	0x3f41394d	0.7547806
184	0xbf33a5ee	-0.70175064
185	0xbe49e38f	-0.19715713
186	0x3f15e0c7	0.5854611
187	0x3eb24aae	0.348226
188	0x3f175049	0.5910688
189	0x3f8098db	1.0046648
190	0x3ee8a22f	0.45436236
191	0xbdf6b497	-0.120461635
192	0xbecca8bd	-0.39972487
193	0xbf2ad809	-0.66735893
194	0xbeb67b36	-0.35640877
195	0xbd72580d	-0.059166003
196	0xbdfa2da5	-0.12215737
197	0xbc3e3d14	-0.011611242
198	0xbea51814	-0.32244933
199	0x3debbaf6	0.11510269
200	0xbe2c12cc	-0.16804045
201	0x3f1acc46	0.60467947
202	0x3eff9afb	0.49922928
203	0xbe2e0986	-0.1699582
204	0xbebb6be1	-0.36605743
205	0xbeb2613b	-0.34839806
206	0xbe50dd59	-0.20396937
207	0x3eab6787	0.33477423
208	0x3ecae927	0.39631006
209	0x3ee71bd5	0.45138422
210	0xbdcc4eb3	-0.09975948
211	0xbe912aa8	-0.28352857
212	0xbf5d1ad3	-0.86369056
213	0xbf7e210c	-0.99269176
214	0xbe9fbc31	-0.31198266
215	0xbe8a7d55	-0.27048746
216	0x3f056f56	0.5212301
217	0x3ed6759a	0.41886598
218	0xbeed1acf	-0.46309516
219	0xbe45776e	-0.1928384
220	0x3e80c71b	0.25151905
221	0xbf1fe175	-0.62453395
222	0x3dcd461f	0.1002314
223	0x3f00ae5d	0.5026606
224	0x3e890cea	0.26767665
225	0xbeadbda2	-0.3393374
226	0xbcda74a0	-0.02666694
227	0xbed1b428	-0.4095776
228	0xbe9b193b	-0.30292687
229	0x3e5a7929	0.21335281
230	0xbe8c3ccc	-0.27390134
231	0x3f13ab49	0.57683235
232	0xbeae5a34	-0.34053195
233	0x3ea2d3b8	0.31802154
234	0xbee5b973	-0.4486805
235	0xbe222b01	-0.15836717
236	0xbe912e47	-0.2835562
237	0x3e80a8ca	0.25128776
238	0x3e354b3f	0.17704485
239	0x3e75e999	0.24014892
240	0x3efff883	0.49994287
241	0x3d643ce7	0.055722144
242	0xbe11fbb7	-0.14256178
243	0xbe8192e0	-0.2530737
244	0xbe2eaaf6	-0.17057404
245	0x3def1d7d	0.11675546
246	0x3ed9e288	0.42555642
247	0xbd184821	-0.037178162
248	0xbef51320	-0.47866154
249	0x3e3c15be	0.18367669
250	0x3de496cd	0.111615755
251	0xbede6a3f	-0.43440434
252	0x3f509aac	0.8148601
253	0xbec6f663	-0.38859853
254	0xbeb75a41	-0.35811046
255	0xbdf7a966	-0.12092857

gru.bias_ih_l0_reverse f4 [96]
0	0xbe7319d1	-0.23740317
1	0xbdc01dc0	-0.09380674
2	0x3d438711	0.04773623
3	0x3de765e7	0.11298733
4	0x3d22518e	0.039628558
5	0x3c5fe84d	0.013666225
6	0xbe5b85ba	-0.21437731
7	0xbe0b25e0	-0.13588667
8	0xbe107df1	-0.14110543
9	0xbb62c907	-0.0034604685
10	0xbe64b7c0	-0.2233572
11	0xbe684bda	-0.22685185
12	0x3e77b64e	0.24190637
13	0xbd0135bc	-0.031545386
14	0x3e448e73	0.19194965
15	0xbd1c4ea5	-0.03816094
16	0x3e089ed4	0.13341838
17	0xbe411bd4	-0.18858272
18	0x3e02e931	0.12784268
19	0xbe1cc2a5	-0.15308626
20	0x3d3596d8	0.04433331
21	0x3cd50571	0.026003571
22	0xbe74b6c3	-0.23897843
23	0xbd958699	-0.07301063
24	0x3df7632a	0.12079461
25	0x3bd05327	0.006357569
26	0x3d37710d	0.044785548
27	0x3cba0ccb	0.022711178
28	0x3e013d35	0.12621005
29	0xbd87f895	-0.0663921
30	0xbdd37a28	-0.10326034
31	0xbe0982c1	-0.13428785
32	0xbe0b33a3	-0.13593917
33	0x3e84e063	0.25952443
34	0xbe90539f	-0.28188798
35	0xbdbfc422	-0.09363581
36	0x3d6ed8b8	0.058312148
37	0xbe4c49ae	-0.19949982
38	0xbdcb4703	-0.09925654
39	0x3d2cde41	0.042204145
40	0x3caf0ccc	0.021368407
41	0xbd362b42	-0.044474848
42	0x3ddc85ff	0.10767745
43	0xbd69de92	-0.057097025
44	0xbe9b94ac	-0.30386865
45	0xbe095454	-0.13411075
46	0xbd7ac9f6	-0.06122776
47	0x3a461685	0.0007556456
48	0x3ec63728	0.38713956
49	0x3d9f9cb1	0.077935584
50	0x3e59ea6d	0.21280833
51	0x3e089384	0.13337523
52	0xbe3c5b43	-0.18394189
53	0x3d3bf94f	0.045892056
54	0xbc37b561	-0.011212678
55	0xbc8642e1	-0.016389312
56	0x3cb93e3c	0.022612683
57	0xbe008706	-0.12551507
58	0xbd9e8964	-0.07741049
59	0xbe0c573b	-0.13705151
60	0xbea9c2c0	-0.33156395
61	0x3d65bc9a	0.056088068
62	0x3e184573	0.14870243
63	0x3e08eee4	0.1337238
64	0x3bc67fbf	0.006057709
65	0x3e2f349f	0.17109917
66	0x3c45566c	0.01204453
67	0x3e04c0d5	0.12964185
68	0xbea37558	-0.31925464
69	0xbed5ae08	-0.41734338
70	0xbe0ed92a	-0.13950029
71	0xbe6918a7	-0.2276331
72	0x3d80d71e	0.0629103
73	0x3e7126d4	0.23549968
74	0xbdf95f3c	-0.12176368
75	0x3ec148b1	0.37750772
76	0xbe34774a	-0.1762363
77	0x3dcac509	0.09900863
78	0x3d910ea4	0.070828706
79	0xbe463de8	-0.19359553
80	0x3dac4d63	0.08413198
81	0x3e1228a0	0.1427331
82	0xbdb54478	-0.0885095
83	0xbcd1242c	-0.025529943
84	0xbe73efe4	-0.2382198
85	0xbe2d68a8	-0.16934454
86	0xbe947757	-0.289973
87	0x3e7dfed3	0.24804239
88	0xbd100722	-0.035163052
89	0xbec42082	-0.38306051
90	0x3eb43f65	0.35204616
91	0x3d922ff8	0.071380556
92	0xbead006b	-0.3378938
93	0xbbf03390	-0.0073303655
94	0x3cefeffd	0.02928924
95	0x3cc13572	0.023585055

gru.bias_hh_l0_reverse f4 [96]
0	0xbe2a1425	-0.16609247
1	0xbe351e2e	-0.17687294
2	0x3e278abd	0.16361518
3	0xbe08b3ba	-0.1334981
4	0x3e88ca68	0.26716924
5	0x3e83c7ed	0.2573847
6	0x3ddef5a2	0.108866945
7	0xbd1c0790	-0.03809315
8	0x3e3e0226	0.18555507
9	0xbdb45de5	-0.088069715
10	0xbe438b7e	-0.19096181
11	0xbe209544	-0.1568194
12	0x3e8d0560	0.27543163
13	0x3cc68ff0	0.024238557
14	0xbdfbbb1e	-0.12291549
15	0x3e3aac68	0.1822983
16	0xbd8224a3	-0.06354644
17	0xbc5d0d53	-0.013491946
18	0xbc526c75	-0.012843241
19	0xbe031f25	-0.1280485
20	0x3dae8003	0.0852051
21	0xbcfd85f7	-0.030947668
22	0xbd588caf	-0.05286854
23	0x3e5e4502	0.21706012
24	0xbe1e3335	-0.15449221
25	0xbdb0a533	-0.08625259
26	0xbe2474ae	-0.16060135
27	0x3cd28046	0.025695931
28	0xbd561907	-0.05226996
29	0x3e4ebada	0.20188466
30	0xbb2c3661	-0.002627753
31	0xbd758175	-0.059937913
32	0xbe86cc32	-0.26327664
33	0x3ec979c0	0.393507
34	0xbe84f7d2	-0.25970322
35	0xbcda7744	-0.026668198
36	0xbd0a48a0	-0.033760667
37	0xbe2fb354	-0.17158252
38	0xbca2a448	-0.019853726
39	0x3deae9ef	0.114704005
40	0x3eaa15bd	0.3321971
41	0x3e0c09a2	0.1367555
42	0xbe24802d	-0.1606452
43	0xbe699be9	-0.22813381
44	0xbd74ed45	-0.05979659
45	0x3d1c56e5	0.038168807
46	0x3dbc5902	0.091966644
47	0xbd26c696	-0.04071673
48	0x3e6148b7	0.22000395
49	0xbcce6996	-0.025196832
50	0x3ebd2033	0.3693863
51	0xbe02f896	-0.1279014
52	0xbe414201	-0.18872835
53	0x3e008bf2	0.12553385
54	0xbe6801f2	-0.22656992
55	0xbe1101b0	-0.141608
56	0x3e71acc1	0.23601057
57	0xbed48de3	-0.415145
58	0xba2fe4bf	-0.0006709806
59	0xbde29779	-0.11064047
60	0xbe0bf35c	-0.13667053
61	0x3c4f87aa	0.012666622
62	0x3eb9cc18	0.36288524
63	0xbd2338d4	-0.039849117
64	0xbf2c6fc3	-0.67358035
65	0xbde6b085	-0.11264137
66	0xbef32f14	-0.47496855
67	0x3e23869d	0.1596932
68	0xbe89a118	-0.26880717
69	0xbf071053	-0.52759284
70	0xbe047a5f	-0.12937306
71	0xbe9c177d	-0.3048667
72	0xbeb83834	-0.3598038
73	0xbeb5590f	-0.3541951
74	0xbda508f4	-0.08058348
75	0xbe1569e5	-0.14591177
76	0x3d4156af	0.04720181
77	0x3dfe07b6	0.124038145
78	0x3d90f3e5	0.07077769
79	0xbebc907a	-0.36828977
80	0x3cce4df1	0.02518365
81	0xbad89752	-0.0016524589
82	0x3e3b47a7	0.18289052
83	0xbe26eb82	-0.16300777
84	0xbc1aec77	-0.009455792
85	0xbc3dfaca	-0.011595437
86	0x3ee8df81	0.4548302
87	0x3e7f5813	0.24935941
88	0x3e142d41	0.14470388
89	0xbe4cd107	-0.20001613
90	0xbd7b7437	-0.061390128
91	0x3e967cc7	0.29392073
92	0x3e12345c	0.14277786
93	0xbdf51a15	-0.119678654
94	0xbe7c2ef1	-0.24627282
95	0x3d9fa3e2	0.0779493

dense.1.fn.net.0.weight f4 [64, 64]
0	0x3dfa7e43	0.12231114
1	0x3dbefc47	0.09325462
2	0xbd5d2ef8	-0.05399987
3	0xbdb44125	-0.08801488
4	0xbd424a6f	-0.047434267
5	0x3dd6d2e3	0.10489442
6	0xbd9596fb	-0.07304188
7	0x3dbb921c	0.091587275
8	0x3de8817a	0.11352821
9	0x3e21c49d	0.15797658
10	0x3dff955b	0.12479659
11	0xbd4d109c	-0.050064668
12	0x3ddcb931	0.1077751
13	0xbcccdc2f	-0.025007335
14	0x3d48fafb	0.04906748
15	0xbe63f7bf	-0.22262476
16	0xbdb19705	-0.08671383
17	0x3dbb7957	0.09154003
18	0xbda89de7	-0.082332425
19	0xbb59d9ce	-0.0033241394
20	0x3e1c1ef4	0.15246183
21	0x3e135163	0.14386515
22	0x3d82a9eb	0.063800655
23	0xbc550da2	-0.013003739
24	0xbd9eabb5	-0.07747594
25	0x3d4b1517	0.04958066
26	0x3dbe6ce4	0.09298113
27	0xbd0b0473	-0.03393979
28	0xbd691003	-0.056900036
29	0xbdb309cf	-0.08742105
30	0x3d2ef3c7	0.042712953
31	0x3d746d61	0.059674624
32	0xbded7d8c	-0.11596212
33	0x3e048fd1	0.12945487
34	0x3e006226	0.1253744
35	0x3dabbd90	0.083857656
36	0x3daac764	0.08338812
37	0xbd67a933	-0.056557845
38	0xbcba14c3	-0.022714978
39	0x3ea9c0ba	0.3315485
40	0x3d496a75	0.04917379
41	0xbbb8fa46	-0.0056450693
42	0xbe049d9d	-0.1295075
43	0x3db95f60	0.090513945
44	0xbe94c06b	-0.29053053
45	0x3d9f65c2	0.07783081
46	0xbe0371af	-0.12836336
47	0x3d5c219f	0.053743
48	0x3a9c41a5	0.0011921419
49	0x3d433829	0.04766098
50	0x3d918ba0	0.071067095
51	0x3dbbf58e	0.09177695
52	0xbe522976	-0.20523629
53	0xbd58da6f	-0.05294269
54	0x3d80d0e3	0.06289842
55	0x3de7a7ef	0.11311328
56	0xbd8692ce	-0.065709695
57	0x3e8fff97	0.28124687
58	0x3d65b7d2	0.056083508
59	0xbd9322ce	-0.07184373
60	0x3d56a3e7	0.052402403
61	0x3b021bb1	0.001985293
62	0xbd91fb83	-0.0712805
63	0xbeed0341	-0.46291545
64	0x3c886886	0.016651403
65	0xbcb39402	-0.021921162
66	0x3c0600bd	0.008178887
67	0xbd2c41b4	-0.042054847
68	0xbc8c56f0	-0.017131299
69	0xbbcd23ed	-0.006260386
70	0x3cedfbdd	0.029050762
71	0xbd760f4c	-0.060073182
72	0xbc629bf0	-0.013831124
73	0x3d6bb895	0.057549078
74	0x3bdc9eeb	0.0067328117
75	0x3d6589e3	0.056039702
76	0xbbb0a628	-0.005390901
77	0xbd2dd674	-0.042440847
78	0xbb994a74	-0.004678065
79	0xbd1c70fa	-0.03819368
80	0x3e222ffa	0.15838614
81	0x3d256576	0.040379964
82	0xbd805426	-0.0626605
83	0xbd4820b7	-0.048859324
84	0xbc997da8	-0.018736675
85	0xbdf552bc	-0.11978671
86	0xbc4e00c6	-0.012573427
87	0xbdc2e945	-0.09517149
88	0xbb73e133	-0.0037213087
89	0xbc61ff36	-0.013793757
90	0x3d2e3501	0.042531017
91	0xbd109e17	-0.035307016
92	0xbd62b402	-0.05534745
93	0xbc00e3df	-0.007866829
94	0x3c9828c9	0.018574135
95	0x3c074741	0.008256734
96	0x3d8f0046	0.06982474
97	0x3c87fed4	0.016601004
98	0x3d4cff36	0.050048076
99	0xbc68e9e6	-0.014215922
100	0x3d051a89	0.03249601
101	0x3d286a54	0.041117027
102	0xbe225bf9	-0.15855397
103	0xbd03363d	-0.032034148
104	0x3d3af57d	0.045644272
105	0xbca478e8	-0.020077184
106	0xbd2ee3b9	-0.042697642
107	0xbbca8763	-0.00618069
108	0xbd0321b8	-0.03201458
109	0x3d76da0f	0.06026655
110	0xbe3e8182	-0.18604091
111	0x3e4fa85e	0.2027907
112	0x3dadd243	0.0848737
113	0xbde5dd09	-0.112238
114	0x3d7b3a03	0.06133462
115	0xbdaa4762	-0.083143964
116	0xbe5087a8	-0.20364249
117	0xbe1693c8	-0.14704812
118	0x3e0994c2	0.13435653
119	0x3c6ba77c	0.014383193
120	0x3bf908dd	0.0075999335
121	0x3e744a57	0.23856483
122	0x3e449847	0.19198714
123	0xbee5e595	-0.4490172
124	0x3e0124b6	0.1261166
125	0x372fd3fb	1.0480168e-05
126	0x3c8e47fa	0.017368305
127	0x3c590b29	0.01324729
128	0x3dad76d7	0.084699325
129	0xbd2d0d35	-0.042248923
130	0x3db5d3ab	0.08878263
131	0x3ca5cc13	0.020238912
132	0xbc193b45	-0.00935251
133	0x3d812c58	0.06307286
134	0x3dcb481b	0.099258624
135	0xbdb01668	-0.08598024
136	0x3c89aef0	0.01680705
137	0x3c0d26d4	0.008615214
138	0x3d845b1f	0.064626925
139	0xbbe7bf6d	-0.0070723803
140	0xbde4df84	-0.11175445
141	0xbcd11fd1	-0.025527867
142	0xbdcbf5c6	-0.09958987
143	0x3d38b46b	0.045093935
144	0xbe04ae64	-0.1295715
145	0x3d2794b3	0.040913295
146	0xbdda769d	-0.10667155
147	0xbc83537f	-0.016031025
148	0x3d5c79fb	0.053827267
149	0xbc754dba	-0.014972145
150	0x3d062c95	0.03275736
151	0xbdb602a8	-0.088872254
152	0x3d3e015c	0.046388015
153	0x3d22aa18	0.039712995
154	0xbd218703	-0.039435398
155	0xbdf9e63b	-0.12202116
156	0xbce008a8	-0.027347878
157	0x3d4b01c3	0.049562227
158	0xbdfaeb4b	-0.1225191
159	0xbce0abd3	-0.027425682
160	0xbe0646c8	-0.13112938
161	0xbeab7f4d	-0.3349556
162	0xbdbf3ad2	-0.09337391
163	0xbe223b05	-0.15842827
164	0x3e718676	0.23586449
165	0x3c922fd6	0.017845076
166	0x3de54763	0.111952566
167	0xbdd786c5	-0.10523752
168	0x3cb6eb0e	0.02232888
169	0xbde4f4f7	-0.11179536
170	0x3e330bb9	0.1748494
171	0xbb8c4420	-0.004280582
172	0x3da3d535	0.079996504
173	0x3e57cdaa	0.21074548
174	0x3e3552ca	0.17707363
175	0xbe81fe7b	-0.25389466
176	0x3e7b8376	0.24561867
177	0x3e1b916a	0.1519219
178	0xbd9b9bcb	-0.075980745
179	0x3e4a1b2c	0.19736928
180	0x3e82fde3	0.25584325
181	0x3e4c5783	0.19955258
182	0x3d2e2c01	0.042522434
183	0x3eb4ab65	0.35287014
184	0x3e9f69a6	0.3113529
185	0x3dbda01a	0.092590526
186	0x3d55785c	0.052116737
187	0x3e8250af	0.25452182
188	0xbe3de0e8	-0.18542826
189	0x3e5d9dfc	0.21642298
190	0xbf09ab65	-0.5377715
191	0xbe8c48d8	-0.27399325
192	0x3e4786ad	0.19484968
193	0x3dbc2781	0.09187222
194	0xbd4d8db0	-0.05018395
195	0xbd067a3f	-0.032831427
196	0xbd461545	-0.048360128
197	0x3daf6e4f	0.085659616
198	0xbc76bb8d	-0.015059364
199	0x3c4fbb0d	0.012678874
200	0xbc813b8d	-0.015775466
201	0xbb36b549	-0.002787905
202	0x3dd00aef	0.101583354
203	0xbb079c28	-0.0020692442
204	0xbd30148d	-0.04298835
205	0xbd49b293	-0.049242567
206	0xbcf134d8	-0.029444143
207	0xbe2bf406	-0.16792306
208	0xbb7aef2c	-0.003828953
209	0xbd271d8d	-0.040799666
210	0x3c996c98	0.01872854
211	0xbdb5741e	-0.08860038
212	0x3d610e42	0.054945238
213	0xbd84c711	-0.064832814
214	0x3d154756	0.036444984
215	0xbdcb9f2f	-0.09942471
216	0xbc70b9e8	-0.014692761
217	0x3cde0935	0.027104
218	0x3c09a393	0.008400816
219	0x3c1400bd	0.009033379
220	0xbb857b33	-0.0040735244
221	0x3b0f350e	0.0021851691
222	0xbcc3e446	-0.02391256
223	0x3d01df31	0.031706993
224	0xbe156880	-0.14590645
225	0xbd92e4ed	-0.071725704
226	0x3dcf3813	0.10118117
227	0xbb93c6c8	-0.0045097806
228	0x3dd1ff3d	0.10253761
229	0x3d31ba7e	0.043390743
230	0x3d9fc831	0.07801855
231	0xbede2dd9	-0.43394354
232	0xbd0fa7a7	-0.035071995
233	0x3c148d79	0.009066933
234	0x3dc840c2	0.097779766
235	0x3e038ed2	0.1284745
236	0xbd93398a	-0.07188709
237	0x3e7dea47	0.24796401
238	0xbd690dbe	-0.05689787
239	0x3d8910a6	0.066926286
240	0x3c48aae9	0.012247779
241	0x3e01c7da	0.12673894
242	0x3e8fba8f	0.2807202
243	0x3d87580c	0.066085905
244	0xbd4239cc	-0.0474184
245	0xbd63888d	-0.055550147
246	0x3d1e20bc	0.038605437
247	0x3ea61e02	0.3244477
248	0x3e05da25	0.13071497
249	0x3d201e60	0.039091468
250	0x3df4c73d	0.11952064
251	0xbdc42081	-0.09576512
252	0xbe79eb70	-0.24406219
253	0x3e3929e6	0.18082389
254	0xbe754a33	-0.23954086
255	0xbd59303e	-0.053024523

dense.1.fn.net.0.bias f4 [64]
0	0xbd580de4	-0.052747622
1	0x3e6a1387	0.22859012
2	0xbf02e8c1	-0.51136404
3	0x3d74bf6d	0.05975287
4	0xbf51a19c	-0.8188722
5	0x3ddfa6d0	0.10920489
6	0x3d83fea8	0.06445056
7	0x3e8eff9a	0.27929384
8	0x3e6e0857	0.23245369
9	0x3e7c6ef6	0.24651703
10	0xbe05229f	-0.13001488
11	0xbceb53aa	-0.028726418
12	0x3e5c7227	0.2152792
13	0x3e3c1851	0.18368651
14	0x3e804be3	0.25057897
15	0x3da23d13	0.07921805
16	0x3e94d2fd	0.2906722
17	0x3d5a35d9	0.05327401
18	0x3e8e8a53	0.27839908
19	0x3e758784	0.23977476
20	0x3d764f74	0.060134366
21	0x3c0152d2	0.007893281
22	0xbd9ea86f	-0.0774697
23	0xbf271b7e	-0.65276325
24	0x3d41cbbd	0.04731344
25	0x3e366667	0.17812501
26	0x3e2b72b7	0.16742979
27	0x3e82975c	0.25506103
28	0xbdd6849a	-0.104745105
29	0x3e8efacb	0.27925715
30	0xbf68fe17	-0.9101271
31	0x3d9f1ad5	0.0776879
32	0xbe6eebad	-0.2333209
33	0x3d991d76	0.07476322
34	0xbea80cb3	-0.3282219
35	0x3e509b96	0.20371851
36	0x3d94c6d4	0.07264486
37	0x3e5ac93e	0.2136583
38	0x3e574a53	0.21024446
39	0xbd708a6b	-0.058725756
40	0x3d2e3cf4	0.0425386
41	0xba548786	-0.0008107353
42	0xbd947766	-0.07249336
43	0xbdb90a16	-0.09035127
44	0xbf5bf585	-0.8592151
45	0xbd2f2413	-0.042759012
46	0x3e72dc03	0.2371674
47	0x3cb9fa6c	0.022702418
48	0xbe9c1063	-0.30481252
49	0x3e354a42	0.17704108
50	0x3e6f29b9	0.2335576
51	0xbebfcd6c	-0.37461412
52	0x3dc86013	0.0978395
53	0x3d2e31d3	0.042527985
54	0xbf196df4	-0.599334
55	0xbeb03aa4	-0.3441974
56	0xbf0bda36	-0.5462984
57	0xbe2a8847	-0.16653548
58	0xbd27c1ac	-0.040956184
59	0x3e472516	0.19447741
60	0x3e7ff2c4	0.24994951
61	0xbd8eae79	-0.06966872
62	0xbe95ebc7	-0.29281446
63	0x3db273c3	0.08713486
