model/LRNet_weights/g1_c23.pth (torch, 167877 bytes, 15 tensors)

hidden_state f4 [2, 1, 32]
0	0x3f4f742c	0.8103664
1	0xbf1aaae7	-0.60417026
2	0xbfa9d179	-1.3267051
3	0x3e3bc528	0.18336928
4	0x4009aa4a	2.1510186
5	0x3f74d40f	0.95636076
6	0xbf509c5f	-0.81488603
7	0xbe38c5fd	-0.18044277
8	0x3f9925e3	1.1964687
9	0x3fce8fc6	1.6137626
10	0xbf1f4c86	-0.6222614
11	0x3910b727	0.0001380114
12	0xbee557ec	-0.44793642
13	0x3f5fe8b7	0.8746447
14	0x3f88ed80	1.0697479
15	0xbf18fc92	-0.5976039
16	0xbf73bce2	-0.9521009
17	0x3f9d8c13	1.2308372
18	0x3f8e626d	1.1123787
19	0xbfd1a523	-1.6378521
20	0xc0049adf	-2.0719526
21	0xbf75ef37	-0.9606814
22	0xbf0148fa	-0.5050198
23	0x3faee9cb	1.3665098
24	0x3facb9bb	1.349418
25	0xbf33caf4	-0.70231557
26	0x3e45dd29	0.19322647
27	0xbdc9ec9a	-0.09859581
28	0x3f7ac645	0.97958785
29	0x3ebdc235	0.3706223
30	0x3eafe128	0.34351468
31	0xbf0d5c31	-0.552188
32	0xbee6d11c	-0.45081413
33	0x3f7c53a7	0.98565143
34	0x3e95df55	0.2927195
35	0x3eb67cb8	0.35642028
36	0xc009cd24	-2.1531458
37	0xbf37db86	-0.7181934
38	0xbf958b23	-1.1683086
39	0xbf8ea11b	-1.1142915
40	0x3e7ffc85	0.24998672
41	0xbeb15c44	-0.34640706
42	0x3fb19012	1.3872092
43	0x3eed03e8	0.46292043
44	0x3f7a9033	0.9787628
45	0x3c987b76	0.018613558
46	0xbeee6eb4	-0.46568835
47	0xbe9b8b2d	-0.3037962
48	0x3ecd7b26	0.40133017
49	0x3f0606ae	0.5235394
50	0x3f8a5c89	1.080949
51	0x3f61b914	0.8817303
52	0xbea6e916	-0.32599705
53	0xbe0cfc51	-0.13768126
54	0xbea37833	-0.31927642
55	0x3f9a2288	1.2041788
56	0x3f341c22	0.7035543
57	0x3f763734	0.96177983
58	0xbe5ddc37	-0.21666037
59	0x3fb7a904	1.4348454
60	0xbebd6246	-0.3698904
61	0xbfa5879d	-1.2932011
62	0xbf9c27b6	-1.2199619
63	0x3f145d6a	0.5795504

gru.weight_ih_l0 f4 [96, 136]
0	0xbde5a1ab	-0.11212476
1	0x3de08df0	0.109645724
2	0xbda0e1bf	-0.07855558
3	0x3ebe79b5	0.3720223
4	0xbc647e9f	-0.013946204
5	0x3f241265	0.6409057
6	0xbd04ed7a	-0.032453038
7	0x3eeb92bd	0.4601039
8	0x3d059b56	0.032618843
9	0xbd3b6e10	-0.04575926
10	0xbd38d88e	-0.045128398
11	0x3d749f4c	0.05972223
12	0xbdb7919e	-0.08963321
13	0x3c57f2ba	0.013180429
14	0xb792df99	-1.7508677e-05
15	0x3c916aae	0.017751064
16	0xbec9a491	-0.39383367
17	0x3e1f4836	0.1555489
18	0x3de53976	0.111926004
19	0x3d9b9ec0	0.075986385
20	0x3e2486d1	0.16067053
21	0x3e4f9979	0.20273389
22	0x3d4b979a	0.049705125
23	0x3dd13d1f	0.10216736
24	0xbcaa6789	-0.020801323
25	0x3e507261	0.20356132
26	0xbe2478b5	-0.16061671
27	0x3e7705fb	0.24123375
28	0xbc831a4a	-0.016003747
29	0x3f5cd259	0.86258465
30	0xbdd59171	-0.10428131
31	0x3eda712a	0.42664462
32	0xbcc01d40	-0.023451447
33	0x3d972c88	0.073815405
34	0x3dc5d475	0.096596636
35	0x3e0be3c7	0.13661109
36	0x3e13ab9e	0.14420936
37	0x3c773a24	0.015089545
38	0x3dfc4bf7	0.12319177
39	0x3d58853d	0.05286144
40	0x3e809290	0.25111818
41	0x3ddc71dc	0.107639045
42	0x3e363304	0.17792898
43	0x3d83969e	0.06425212
44	0x3ed8044d	0.4219078
45	0xbdac8b9a	-0.084250644
46	0x3e4b812c	0.19873494
47	0xbddead84	-0.10872939
48	0x3d9637ae	0.07334839
49	0xbd3410bb	-0.043961268
50	0xbd3c0fe1	-0.04591358
51	0xbe02af12	-0.12762097
52	0xbe16254c	-0.14662665
53	0x3ddd9db6	0.108210966
54	0x3e58db2a	0.21177354
55	0xbdc4c088	-0.09607035
56	0x3e90a19a	0.28248292
57	0xbcdc6acd	-0.026906395
58	0x3ec827f7	0.3909299
59	0xbecf09c0	-0.40437126
60	0x3c7da13c	0.015480336
61	0xbe86d4d4	-0.2633425
62	0x3cbd7024	0.023124762
63	0x3f81fc72	1.0155165
64	0x3dd63b38	0.10460514
65	0x3f093223	0.5359213
66	0x3f061e91	0.5239039
67	0x3e6e66f5	0.23281462
68	0xbcfd8192	-0.030945573
69	0x3fb8bf96	1.4433467
70	0xbd2d0821	-0.04224408
71	0x3fe0eb27	1.7571763
72	0xbd834234	-0.064091116
73	0xbe45bff0	-0.193115
74	0xbd11cd70	-0.03559631
75	0x3e432bc7	0.19059668
76	0xbd74c7f3	-0.059761
77	0x3e8e84dd	0.27835742
78	0x3cf9be5f	0.030486284
79	0x3e1a6fb3	0.15081672
80	0xbe0fb03b	-0.1403207
81	0x3e273efc	0.1633262
82	0xbe2d4080	-0.16919136
83	0x3e00e737	0.12588201
84	0x3ee750b1	0.4517875
85	0xbb98339d	-0.0046448247
86	0x3eab37c2	0.33440977
87	0x3d218cc5	0.03944089
88	0x3d1d3d7f	0.038388725
89	0x3dda2d01	0.10653115
90	0x3d341988	0.04396966
91	0x3e84266d	0.25810567
92	0x3c807fe0	0.015685976
93	0xbd52440f	-0.051334437
94	0x3dd65c50	0.10466826
95	0xbcd914d0	-0.026499182
96	0xbdb58887	-0.08863931
97	0xbec5deb7	-0.3864648
98	0x3c4118a0	0.011785656
99	0xbe323ac8	-0.17405236
100	0xbe0243d0	-0.12721181
101	0xbe9a5634	-0.30143893
102	0xbe032218	-0.12805974
103	0xbed886ec	-0.42290437
104	0xbe0b9e6c	-0.13634652
105	0xbed1a292	-0.40944344
106	0x3ca263d7	0.019822998
107	0xbe226938	-0.1586045
108	0x3d1257f5	0.035728414
109	0x3d4568b0	0.04819554
110	0x3e0a4826	0.13504085
111	0x3db4b038	0.088226736
112	0xbec984f3	-0.39359245
113	0xbe698f80	-0.22808647
114	0xbf41f9ad	-0.757716
115	0xbea9f921	-0.33197883
116	0xbeee1bd0	-0.46505594
117	0xbea0e377	-0.31423542
118	0xbe71694c	-0.23575324
119	0xbf1919f2	-0.59805214
120	0xbe6a04e0	-0.22853422
121	0xbe6d63cf	-0.23182605
122	0xbe3c5019	-0.1838993
123	0x3cd54cef	0.026037661
124	0xbe1ec223	-0.15503745
125	0xbd329f9e	-0.043609254
126	0xbe46b41d	-0.19404645
127	0xbc95fc61	-0.01830882
128	0x3dc3e0e1	0.095643766
129	0xbe28bde8	-0.16478693
130	0xbf028b94	-0.5099423
131	0xbe6a06c4	-0.22854143
132	0xbf0c8c7c	-0.5490186
133	0xbd40c854	-0.047066048
134	0xbefde580	-0.49589157
135	0x3d25584c	0.04036741
136	0xbe8ae2d5	-0.27126184
137	0xbeb40638	-0.35160995
138	0xbe218c3c	-0.15776151
139	0xbf608c74	-0.87714314
140	0x3e0061e7	0.12537347
141	0xc0242961	-2.5650256
142	0x3cf5791c	0.029964976
143	0xbeeffb2b	-0.46871313
144	0xbe06662b	-0.13124911
145	0xbe11e4af	-0.14247392
146	0x3e5b8025	0.21435602
147	0x3b83045d	0.003998323
148	0x3d85a1a2	0.0652497
149	0xbdb815a3	-0.08988502
150	0x3e8817a6	0.26580542
151	0xbdc2993b	-0.09501883
152	0xbe93354f	-0.2875161
153	0xbe01c5a8	-0.12673056
154	0xbf12bc9b	-0.5731904
155	0x3dbc4bb0	0.09194124
156	0xbe9432e0	-0.28945065
157	0x3dc6db62	0.09709813
158	0xbd4f21c2	-0.050569303
159	0x3df1c1e7	0.11804562
160	0xbe037611	-0.12838008
161	0x3e770d9b	0.24126284
162	0xbe18e493	-0.14930944
163	0x3eb19629	0.34684876
164	0xbdfb4fc9	-0.12271077
165	0x3e9fd952	0.3122049
166	0xbd8f3329	-0.0699218
167	0xbda845a6	-0.082164094
168	0xbb0b7cf4	-0.0021284195
169	0xbe233f31	-0.15942074
170	0xbd7b319e	-0.061326616
171	0xbd998dbe	-0.07497738
172	0x3d29a23e	0.04141449
173	0xbdcd9191	-0.1003753
174	0x3e38ae59	0.18035258
175	0xbe037798	-0.1283859
176	0x3d67edc0	0.05662322
177	0xbe260b40	-0.16215229
178	0xbd8a2d32	-0.067469016
179	0xbdd0a5bb	-0.101878606
180	0x3eed35ae	0.46330017
181	0xbd294b0e	-0.041331343
182	0x3f21d5c7	0.63216823
183	0xbd745d62	-0.05965937
184	0x3e836294	0.25661147
185	0x3e030e0a	0.12798324
186	0x3e1cacbf	0.15300272
187	0x3d352726	0.044226788
188	0x3e2ca75c	0.16860718
189	0xbd3e1784	-0.046409145
190	0x3d92608e	0.071473226
191	0xbe4df248	-0.20111954
192	0xbd5f461d	-0.054510225
193	0xbe641221	-0.2227254
194	0x3dac7a3f	0.08421754
195	0xbe879321	-0.26479438
196	0xbe0e00c2	-0.13867477
197	0x3eb882dc	0.36037338
198	0xbeae8c20	-0.34091282
199	0xbef696a8	-0.48161817
200	0xbf08eba6	-0.5348457
201	0xbe0d7e37	-0.13817678
202	0x3d106528	0.03525272
203	0x3f0d4374	0.5518105
204	0xbdc113d7	-0.09427612
205	0x3e2241f7	0.15845476
206	0xbe0f6f57	-0.14007317
207	0x3de4e1e7	0.111759
208	0x3e3d0309	0.18458189
209	0xbef38bcb	-0.4756759
210	0x3b33ebd0	0.0027453788
211	0xbe645e20	-0.22301531
212	0x3e642bec	0.2228238
213	0xbdccecbf	-0.10006093
214	0xbe41a0c3	-0.18908982
215	0xbe0bbb01	-0.13645555
216	0x3e058390	0.13038468
217	0xbe8377ab	-0.25677237
218	0xbe933170	-0.28748655
219	0xbe57bee5	-0.21068914
220	0x3f5468ef	0.82972616
221	0xbeb19c6a	-0.34689647
222	0x3f13e8a6	0.5777687
223	0xbd957af7	-0.07298844
224	0x3ea3acbe	0.3196773
225	0x3d387c65	0.045040507
226	0x3eb4aa80	0.3528633
227	0x3d96ce82	0.07363607
228	0x3f07ffca	0.5312468
229	0x3dba80ec	0.09106621
230	0x3e87671c	0.26445854
231	0x3d3c9104	0.046036735
232	0x3d014c4a	0.031566896
233	0xbe33497a	-0.17508498
234	0x3e334540	0.17506886
235	0xbe4f4614	-0.20241576
236	0x3e6e70d8	0.23285234
237	0xbde56df0	-0.112026095
238	0x3d450447	0.048099782
239	0xbe9b5699	-0.30339506
240	0x3b9f05aa	0.00485297
241	0xbe494dbe	-0.19658563
242	0x3e7e0b7c	0.24809068
243	0xbec9e42d	-0.39431897
244	0x3e119132	0.14215544
245	0xbeb34efd	-0.350212
246	0xb9e76b3a	-0.00044139643
247	0x3dd58d80	0.104273796
248	0xbe6340e9	-0.2219273
249	0x3e7696f9	0.24081029
250	0xbe901004	-0.2813722
251	0x3dfa2ac3	0.122151874
252	0xbe1a34b9	-0.15059175
253	0xbd212370	-0.039340436
254	0x3d60e675	0.05490728
255	0xbe38d841	-0.18051244

gru.weight_hh_l0 f4 [96, 32]
0	0xbf237fea	-0.63867056
1	0xbd237f30	-0.039916217
2	0x3f116395	0.56792575
3	0xbe812504	-0.25223553
4	0xbeb1a0b4	-0.3469292
5	0xbec8d080	-0.39221573
6	0x3e86ac18	0.26303172
7	0x3e849b8a	0.25899917
8	0xbdf6d35e	-0.12052034
9	0xbee1e831	-0.4412246
10	0xbe018433	-0.12648086
11	0x3cebd996	0.028790276
12	0x3e2dcb83	0.16972165
13	0xbf5acf6c	-0.8547275
14	0x3e2abcca	0.1667358
15	0x3e8e8cc6	0.27841777
16	0xbde38712	-0.11109747
17	0xbdf62872	-0.12019433
18	0xbddfcf1e	-0.10928176
19	0x3e897693	0.26848277
20	0x3e699c28	0.22813475
21	0x3f86ae42	1.0521929
22	0xbe08235b	-0.13294737
23	0xbd9a87aa	-0.07545407
24	0x3e305c38	0.17222679
25	0xbed5ca28	-0.41755795
26	0xbec74352	-0.3891855
27	0xbf05e6a7	-0.5230507
28	0xbe56dc21	-0.2098241
29	0x3e00c5c8	0.12575448
30	0x3effae37	0.49937603
31	0x3f3ecd29	0.745318
32	0xbf7969bb	-0.97426957
33	0xbf86f27d	-1.0542752
34	0xbf29cc25	-0.66327125
35	0xbf80c331	-1.0059568
36	0xbf2461bf	-0.6421165
37	0x3faf1c18	1.3680449
38	0x3e6ac38b	0.22926156
39	0xbecc7316	-0.39931554
40	0x3f17a4e3	0.5923597
41	0xbf1a8f0b	-0.60374516
42	0x3f07ef0e	0.53099144
43	0xbe310f5c	-0.17291015
44	0xbea17d8a	-0.3154109
45	0xbf7d2326	-0.9888176
46	0xbebdbe7a	-0.37059385
47	0x3f0f7a2e	0.56045806
48	0xbf5b7894	-0.8573086
49	0x3dd4b50f	0.10386097
50	0xbe48b73d	-0.1960115
51	0xbea791ab	-0.32728323
52	0xbf160f72	-0.5861732
53	0x3eb6575f	0.35613534
54	0x3b49e405	0.0030806076
55	0x3f68f798	0.910028
56	0x3f4fd509	0.8118444
57	0xbe827922	-0.25483042
58	0xbe5c9bf6	-0.2154387
59	0xbef082c7	-0.46974775
60	0x3e214137	0.15747534
61	0xbe774806	-0.24148569
62	0x3f56f056	0.83960474
63	0x3efc1cda	0.49240762
64	0x3f853d4e	1.0409334
65	0xbc97b0b4	-0.018516876
66	0x3f251a9a	0.64493716
67	0xbfc1c9a6	-1.5139663
68	0xbf015b01	-0.50529486
69	0xbf1f5b5f	-0.62248796
70	0xbfa61858	-1.2976179
71	0xbea3bdf9	-0.31980875
72	0xbdf7eb23	-0.12105396
73	0xbe7dd690	-0.2478888
74	0xbedbd2db	-0.42934307
75	0x3e9d5afa	0.30733472
76	0x3f180486	0.593819
77	0x3eb72739	0.35772112
78	0x3ef8b4e3	0.48575506
79	0xbe407412	-0.18794277
80	0xbefcc77e	-0.4937095
81	0x3e2e877b	0.17043869
82	0xbf3c171f	-0.7347278
83	0xbeda4112	-0.4262777
84	0x3f55f3a5	0.835749
85	0x3f6261cf	0.88430494
86	0x3ec0aab9	0.3763025
87	0xbeb0fc4b	-0.34567484
88	0x3e266356	0.16248831
89	0xbec04a74	-0.37556803
90	0xbed5bef5	-0.4174725
91	0x3e45710d	0.19281407
92	0xbf80e1ca	-1.0068905
93	0x3e7564b4	0.23964196
94	0x3f6996d1	0.9124575
95	0x3e08f241	0.13373663
96	0x3ec0a79f	0.37627885
97	0x3ce169b9	0.027516233
98	0x3db1c09a	0.08679314
99	0x3f132fba	0.574947
100	0xbf85c73e	-1.0451429
101	0x3ef46b3f	0.47738072
102	0xbe9cae3e	-0.30601686
103	0x3de8ebe0	0.113731146
104	0xbe358e97	-0.17730175
105	0xbd9d764f	-0.07688581
106	0x3eaf07c0	0.341856
107	0xbcdf6080	-0.027267694
108	0x3f924285	1.142655
109	0x3ee47958	0.44623828
110	0xbf32958d	-0.69759446
111	0x3f8b6a92	1.0891898
112	0xbdbe775f	-0.09300112
113	0x3f26e911	0.6519938
114	0x3f12ff13	0.5742046
115	0x3f043a13	0.51651114
116	0x3fa3ed4a	1.280679
117	0x3f55bc07	0.8349003
118	0x3e77e8ed	0.24209948
119	0x3e8e247c	0.2776221
120	0xbf42621b	-0.7593095
121	0x3e200729	0.15627731
122	0x3dc6ba94	0.09703556
123	0xbc411da4	-0.011786852
124	0xbf93c265	-1.15437
125	0xbda60521	-0.08106447
126	0xbf09f596	-0.5389036
127	0x3f2bcbc6	0.6710781
128	0xbf1bf6c7	-0.6092343
129	0x3eb7dc18	0.35910106
130	0x3ea8e479	0.3298681
131	0xbe63431e	-0.22193572
132	0xbe89b110	-0.268929
133	0xbdd03ace	-0.10167466
134	0x3e158316	0.14600787
135	0x3d3a2c84	0.04545261
136	0xbf1c898d	-0.61147386
137	0xbf6195c7	-0.8811917
138	0x3d9d61ea	0.07684691
139	0xbdfc148d	-0.12308607
140	0xbcabe75c	-0.020984344
141	0xbf4c6b0b	-0.79850835
142	0x3f343309	0.70390373
143	0x3e043e5c	0.12914413
144	0xbf21d5a0	-0.6321659
145	0xbebe8e62	-0.37218004
146	0xbfbb09c4	-1.4612355
147	0x3e6245c6	0.22096929
148	0xbece8384	-0.40334713
149	0x3eeab3bb	0.45840248
150	0xbe071804	-0.13192755
151	0x3e599942	0.2124987
152	0x3e96f562	0.29484087
153	0xbdb327e5	-0.08747844
154	0xbecae7d9	-0.3963001
155	0xbdd39b65	-0.103323735
156	0x3dc294f2	0.09501065
157	0x3e5ec025	0.21752985
158	0x3ec40d57	0.38291427
159	0x3f67ae29	0.9050012
160	0xbecb4451	-0.3970056
161	0xbf5f3aac	-0.871989
162	0xbefbad5a	-0.49155694
163	0x3d66b733	0.056327056
164	0x3ffb03a0	1.9610481
165	0xbc4d7f20	-0.012542516
166	0x3f43bbfb	0.7645871
167	0x3f526a9e	0.82193935
168	0x3e45f26d	0.1933076
169	0xbf163691	-0.5867701
170	0xbeb7bfe9	-0.35888603
171	0xbfc3c3f4	-1.5294175
172	0x3f3265d7	0.69686645
173	0x3ef1adad	0.47202817
174	0xc019aa56	-2.4010215
175	0x3cf03cd0	0.029325873
176	0xbf898422	-1.0743449
177	0x3c24e7c9	0.0100650275
178	0xbef51d90	-0.47874117
179	0xbf33c26f	-0.7021856
180	0x3ef6af69	0.48180702
181	0xbb79339a	-0.0038025142
182	0x3d20833e	0.039187662
183	0x3f304ff8	0.6887202
184	0xbfadd63e	-1.3581007
185	0x3e111f92	0.141722
186	0x3fc024a2	1.501118
187	0x3e367102	0.17816547
188	0x3ddcb087	0.107758574
189	0x3eef021b	0.46681294
190	0xbe47d7c0	-0.19515896
191	0x3e3609bc	0.17777151
192	0xbf3bd7de	-0.7337626
193	0x3bdb48a1	0.0066920076
194	0x3d43396d	0.047662187
195	0xbe2da22d	-0.16956396
196	0xbe500be5	-0.20317037
197	0xbdfb23d7	-0.12262695
198	0x3cd8dc52	0.026472244
199	0x3dc421d2	0.09576763
200	0xbe0b84b3	-0.1362484
201	0xbe33ee83	-0.17571454
202	0xbc8ad7c1	-0.016948583
203	0x3da635ea	0.08115752
204	0x3e10815d	0.14111848
205	0x3c34f7a3	0.011045369
206	0x3d87b5ac	0.06626448
207	0xbb7f96f4	-0.0038999887
208	0xbe184f5f	-0.14874028
209	0xbda9456d	-0.08265195
210	0xbda0b7ea	-0.07847579
211	0x3e4bd1a2	0.19904187
212	0x3d95e5b7	0.07319205
213	0x3efb1f80	0.4904747
214	0x3aeae069	0.0017919663
215	0xbd6cf3cd	-0.057849694
216	0xbd9edcd7	-0.077569656
217	0xbd94e707	-0.072706275
218	0xbc99563e	-0.018717881
219	0xbdbf9e55	-0.09356371
220	0xbe23b914	-0.1598857
221	0x3d08a0ed	0.033356596
222	0x3dca10c3	0.09866478
223	0x3defe706	0.11713986
224	0x3e9e7b62	0.3095351
225	0xbf397976	-0.7245096
226	0x3f191aa6	0.5980629
227	0x3d562b00	0.0522871
228	0xbf69f36e	-0.9138707
229	0xbd1d52a4	-0.03840889
230	0xbe7909b0	-0.24320102
231	0x3f1cb93f	0.61220163
232	0x3f384939	0.7198673
233	0xbdba4c37	-0.09096568
234	0xbf53002a	-0.82422125
235	0x3d1a5366	0.03767719
236	0xbe979444	-0.29605305
237	0xbf4eeac0	-0.8082695
238	0x3edc5fd9	0.43041876
239	0x3f65e999	0.89809567
240	0xbce7f449	-0.028314726
241	0xbd2dc1a5	-0.042421002
242	0xbf21a42c	-0.6314113
243	0xbf0ae8ff	-0.54261774
244	0xbddba0d5	-0.10724036
245	0x3ee9cb3e	0.45662874
246	0xbefd21c2	-0.49439818
247	0xbf614376	-0.8799356
248	0x3dea6662	0.11445309
249	0xbdee930c	-0.11649141
250	0xbf1890cd	-0.5959595
251	0x3d89f039	0.06735272
252	0x3e861e36	0.26194924
253	0xbbb34510	-0.0054708794
254	0x3eb62307	0.355736
255	0x3dcfce15	0.10146729

gru.bias_ih_l0 f4 [96]
0	0x3dc70fbe	0.097197995
1	0xbdb02615	-0.086010136
2	0xbe08095a	-0.13284817
3	0xbdfdf6af	-0.12400567
4	0x3e3a06ef	0.18166707
5	0x3cd0c5b1	0.025484892
6	0xbf5d9855	-0.86560565
7	0x3d8c0192	0.06836237
8	0xbeb16402	-0.34646612
9	0xbd73a5db	-0.059484344
10	0x3d1adee5	0.037810225
11	0xbe9c64b3	-0.30545577
12	0x3cd7c5a0	0.026339352
13	0xbd810e65	-0.06301574
14	0x3e5546fd	0.20827861
15	0x3e8bb906	0.272896
16	0xbc60d542	-0.01372272
17	0xbe3e3871	-0.18576218
18	0x3cbb0ae7	0.022832347
19	0xbd76cd6a	-0.060254492
20	0x3e401ba3	0.18760543
21	0x3c8615ad	0.016367758
22	0x3de6480b	0.1124421
23	0xbe9318b7	-0.28729793
24	0xbf1dd512	-0.61653244
25	0x3d7811e1	0.060563926
26	0xbe7f9c1a	-0.24961892
27	0xbdfd2d4b	-0.123621546
28	0xbe84d630	-0.25944662
29	0xbddfc0ca	-0.109254435
30	0xbdd38f19	-0.10330028
31	0x3e716275	0.23572715
32	0x3e15b480	0.14619637
33	0x3ed271f6	0.4110257
34	0x3ec2a979	0.38019922
35	0x3d7e2d94	0.062055185
36	0x3de05416	0.10953538
37	0x3e0464b1	0.12929036
38	0xbb163fa4	-0.0022926116
39	0xbe709fa3	-0.23498397
40	0xbe9b74f8	-0.30362678
41	0xbd8636b5	-0.06553403
42	0xbd9a5f9b	-0.075377665
43	0xbe133e25	-0.14379175
44	0x3dbd8dc2	0.09255554
45	0x3dd91a72	0.10600747
46	0x3d791a4c	0.060816094
47	0xbe2dc59e	-0.16969916
48	0xbddcec6d	-0.10787282
49	0x3e9fb488	0.31192422
50	0x3e86dc4e	0.26339954
51	0x3e745fdc	0.23864692
52	0x3ef554f3	0.47916374
53	0x3e8c534a	0.27407295
54	0xbe8c9378	-0.2745626
55	0x3e7a5fd9	0.24450625
56	0x3e190b55	0.14945729
57	0x3e8746e3	0.2642127
58	0xbd457c6f	-0.048214372
59	0x3ebc4823	0.36773786
60	0x3e0c9f1e	0.13732573
61	0xbdab7378	-0.08371633
62	0xbda5b692	-0.08091463
63	0x3e2eafe1	0.1705928
64	0x3e1b20d0	0.15149236
65	0xbe9f8e47	-0.31163236
66	0x3d4176fb	0.04723261
67	0x3ca39642	0.01996911
68	0xbdb46cc3	-0.08809807
69	0x3e072e81	0.13201334
70	0xbe46bc8c	-0.19407862
71	0x3e96938e	0.2940945
72	0xbd1acf83	-0.037795555
73	0xbe2bd133	-0.16779022
74	0xbcc42540	-0.023943543
75	0x3d82c2e0	0.06384826
76	0x3dd1d82f	0.10246312
77	0xbd18d933	-0.037316512
78	0x3dbcc909	0.09218032
79	0xbe7b8aa7	-0.2456461
80	0xbe49a656	-0.19692358
81	0xbdec1b2d	-0.11528621
82	0xbdb126cb	-0.08649977
83	0xbc8817b8	-0.016612872
84	0xbe09b361	-0.13447334
85	0x3dd62081	0.104554184
86	0xbea0e063	-0.31421193
87	0x3dbe16ab	0.09281667
88	0xbd28d498	-0.04121837
89	0x3dc45d5c	0.095881194
90	0xbeb92195	-0.36158434
91	0xbe2c06e2	-0.167995
92	0xbd88a1ec	-0.06671509
93	0xbed278c5	-0.41107765
94	0x3df856de	0.121259436
95	0xbeb0f221	-0.3455973

gru.bias_hh_l0 f4 [96]
0	0xbc9ed218	-0.01938729
1	0xbde537c0	-0.11192274
2	0xbdf6e243	-0.12054875
3	0x3cda8cb5	0.026678422
4	0x3e0c906b	0.13726966
5	0xbdae9adc	-0.08525631
6	0xbf4cf7e2	-0.8006574
7	0x3d8b4a13	0.06801238
8	0xbe86436b	-0.2622331
9	0xbd75d39d	-0.060016263
10	0x3e0072f5	0.12543853
11	0xbe0b17d4	-0.13583308
12	0x3d601336	0.05470582
13	0x3e005900	0.12533951
14	0x3efc7e5d	0.49315158
15	0x3e428538	0.18996131
16	0x3c2278b7	0.009916476
17	0xbe3252c7	-0.1741439
18	0x3deb2117	0.11480921
19	0xbe397a07	-0.18112956
20	0x3da8dc96	0.082451984
21	0xbd96e5ea	-0.073680714
22	0xbd927452	-0.071510926
23	0xbe45ec95	-0.1932853
24	0xbf5e3bc0	-0.8680992
25	0x3c7619bb	0.015020783
26	0xbe2a57bb	-0.16635029
27	0xbe1a4fd1	-0.1506951
28	0xbdca91c6	-0.09891085
29	0xbed531c3	-0.41639528
30	0xbd4ca8d8	-0.04996571
31	0x3dee7673	0.11643686
32	0x3e9f2fce	0.3109116
33	0x3dcbcdc3	0.09951355
34	0x3f126663	0.5718748
35	0x3eac0a73	0.33601722
36	0x3e4dc4e4	0.20094639
37	0x3e685dce	0.22692034
38	0xbb866ea8	-0.0041025467
39	0xbdb217d8	-0.08695954
40	0xbefaa063	-0.4895049
41	0x3e21b303	0.15790944
42	0xbe6bbcdc	-0.23021263
43	0xbd979dfe	-0.074031815
44	0x3e0a1d83	0.1348782
45	0x3e2a351c	0.16621822
46	0xbdc58b00	-0.09645653
47	0xbe896557	-0.2683513
48	0xbca119b0	-0.019665569
49	0x3e8319ce	0.25605625
50	0x3e00cbe7	0.12577783
51	0x3cbd6a13	0.02312187
52	0x3ee914e4	0.4552375
53	0xbce5e0b5	-0.02806125
54	0x3cad82cc	0.021180533
55	0x3e547b08	0.20750058
56	0x3d2aebfe	0.041728966
57	0x3e58f724	0.21188027
58	0x3ca8f68b	0.020625373
59	0x3e9be5bf	0.3044872
60	0x3e2323c5	0.15931614
61	0x3e59f523	0.21284918
62	0xbe270d50	-0.16313672
63	0xbd8dc4a5	-0.069222726
64	0xbde0f85f	-0.10984873
65	0xbe67da30	-0.22641826
66	0x3e554584	0.208273
67	0x3e146a67	0.14493714
68	0xbe2337b0	-0.15939212
69	0xbe6ddff0	-0.23229957
70	0x3eadf23c	0.33973873
71	0xbd743e2d	-0.059629608
72	0xbdda7d5f	-0.10668444
73	0x3dc9ce56	0.098538086
74	0xbcac7e63	-0.02105636
75	0x3df893ca	0.121375635
76	0x3edc1f2a	0.42992526
77	0x3e3a770c	0.18209475
78	0xbc1592e7	-0.0091292625
79	0xbda6ab42	-0.081381336
80	0xbeb74a1f	-0.35798737
81	0x3e8e1d09	0.27756527
82	0xbe41cb67	-0.18925248
83	0x3db28254	0.08716264
84	0xbe751343	-0.23933129
85	0x3c20e730	0.009820744
86	0xbdf2ff0a	-0.11865051
87	0xbc776363	-0.015099379
88	0x3e0ff627	0.14058743
89	0xbe7aae49	-0.24480547
90	0xbebafbc6	-0.36520213
91	0x3e008bcc	0.12553328
92	0xbdf5b2e3	-0.119970106
93	0x3ee9a798	0.45635676
94	0x3f4acf85	0.792229
95	0xbe55cf01	-0.20879747

gru.weight_ih_l0_reverse f4 [96, 136]
0	0x3da1406b	0.07873615
1	0xbdca0157	-0.09863537
2	0x3d34e5b8	0.04416439
3	0xbe52e870	-0.2059648
4	0x3e84d228	0.25941586
5	0xbea50c0d	-0.32235757
6	0x3e1785c7	0.14797126
7	0x3db49c6a	0.08818896
8	0x3ea5b42e	0.3236403
9	0x3e901e04	0.281479
10	0x3ddc8af0	0.10768688
11	0x3d21aa05	0.039468784
12	0xbde074b1	-0.10959757
13	0x3db41687	0.08793359
14	0xbef2d85e	-0.474307
15	0x3e002923	0.12515692
16	0xbf3a4f45	-0.72777206
17	0x3de35974	0.11101046
18	0xbeb3dd23	-0.3512965
19	0x3d2c82ca	0.042116918
20	0xbe99d22c	-0.3004316
21	0x3e24c16d	0.16089411
22	0xbe7eb071	-0.24871995
23	0x3e8feb61	0.28109267
24	0xbdc6ff1b	-0.09716626
25	0x3e19423b	0.14966671
26	0xbe1330f2	-0.1437414
27	0xbdb24f6c	-0.08706555
28	0x3df1d59c	0.11808321
29	0xbea55f56	-0.32299298
30	0xbe57eecb	-0.21087186
31	0xbdee4373	-0.11633959
32	0xbc0d208f	-0.00861372
33	0xbe7dac84	-0.2477284
34	0xbd32efa6	-0.043685578
35	0xbdf4ed2b	-0.11959299
36	0x3ba6fd5e	0.0050961217
37	0xbe9098b8	-0.28241515
38	0xbde1b661	-0.11021114
39	0xbe0ba21d	-0.1363606
40	0xbe1f2051	-0.15539671
41	0xbd29f3ce	-0.041492276
42	0xbebce077	-0.36890003
43	0x3b92004d	0.0044556023
44	0x3eec3cc5	0.46140113
45	0x3dbea348	0.09308487
46	0x3e73e248	0.23816788
47	0xbb167398	-0.0022957083
48	0x3e788399	0.2426895
49	0x3e87a3f8	0.26492286
50	0xbe14d49d	-0.1453423
51	0x3e9d4962	0.3072005
52	0x3bd1cf49	0.006402884
53	0x3e8a4fe1	0.27014068
54	0x3e5cfd7b	0.2158107
55	0xbe75eb90	-0.24015641
56	0x3de1e340	0.110296726
57	0xbe4cb904	-0.19992453
58	0x3e37e78e	0.17959425
59	0xbe839e5e	-0.25706762
60	0xbd90837c	-0.07056329
61	0xbf273ffd	-0.65332013
62	0x3e315591	0.17317797
63	0xc00b2b52	-2.174519
64	0xbe5ce7c1	-0.21572782
65	0xbfec1690	-1.8444386
66	0xbead2173	-0.33814582
67	0xbfe9f70a	-1.8278515
68	0xbe98abc3	-0.29818544
69	0xc003bd17	-2.0584161
70	0xbdf221c6	-0.11822848
71	0xc0124b47	-2.2858446
72	0xbe079c72	-0.13243273
73	0x3d051694	0.032492235
74	0x3de98698	0.11402625
75	0xbeacf65f	-0.33781716
76	0xbdd70d1a	-0.10500546
77	0xbf244e7f	-0.64182276
78	0xbda979cb	-0.08275183
79	0xbeb7dbda	-0.3590992
80	0x3d1d720f	0.038438853
81	0xbe679302	-0.22614673
82	0x3e489f80	0.19592094
83	0xbe40383d	-0.18771453
84	0xbd0eb0ee	-0.034836702
85	0xbe2f2b89	-0.17106451
86	0xbd1ce661	-0.038305644
87	0xbde3985b	-0.11113044
88	0x3e2cb75a	0.16866818
89	0x3e1f7a0c	0.15573901
90	0x3e625569	0.22102894
91	0xbdd05f6b	-0.101744495
92	0x3e1b2ace	0.15153047
93	0xbdeb2adb	-0.114827834
94	0x3f013124	0.5046561
95	0x3cd5d6eb	0.026103457
96	0xbdaf4e5d	-0.085598685
97	0xbd10785d	-0.035271037
98	0x3d8f4b0b	0.06996735
99	0x3e0c6d1e	0.137135
100	0x3df57b61	0.11986423
101	0x3ea46e3f	0.3211536
102	0xbd8c57d2	-0.06852688
103	0x3d807f86	0.06274323
104	0xbe03d510	-0.12874246
105	0x3ca553c6	0.020181548
106	0xbcdc3749	-0.02688183
107	0x3e9427dd	0.28936663
108	0xbe19ee37	-0.15032278
109	0x3f07a5eb	0.52987546
110	0xbe04b62d	-0.1296012
111	0x3e5ce930	0.21573329
112	0xbdb8ac26	-0.0901721
113	0x3d904452	0.07044281
114	0xbe3003f7	-0.17189012
115	0x3e7e2762	0.24819711
116	0xbeb22ee9	-0.34801415
117	0xbbefe22e	-0.007320664
118	0xbdcba268	-0.09943086
119	0x3e9c9ae6	0.30586928
120	0xbdfe3bbc	-0.12413737
121	0x3edfdb6b	0.4372209
122	0xbe84470a	-0.25835449
123	0x3e8f0c8a	0.27939254
124	0x3d18fbff	0.037349697
125	0x3d9bee81	0.076138504
126	0x3e18104e	0.1484997
127	0x3cf1e558	0.029528305
128	0x3c38acde	0.0112716835
129	0x3e35bdd9	0.17748202
130	0xbedc0720	-0.42974186
131	0x3ec07ceb	0.37595305
132	0xbe512983	-0.20425992
133	0x3efd391d	0.49457636
134	0xbe2f579e	-0.17123267
135	0x3e79676d	0.2435586
136	0x3d5b959f	0.053609487
137	0xbe34cb30	-0.17655635
138	0xbe1d5eef	-0.15368246
139	0xbe44f64f	-0.19234584
140	0xbe770cb2	-0.24125937
141	0xbe04346b	-0.12910621
142	0xbd773d03	-0.06036092
143	0xbe7382f0	-0.23780417
144	0xbe460c3a	-0.19340602
145	0x3d51e154	0.05124028
146	0xbe6f9211	-0.23395564
147	0xbda087d7	-0.078384094
148	0xbe9d4489	-0.3071635
149	0xbd90b9ee	-0.07066713
150	0xbeb67370	-0.35634947
151	0xbdfe4c96	-0.12416951
152	0xbf6c1a22	-0.92227376
153	0xbddf6f5e	-0.109099135
154	0xbe86469a	-0.2622574
155	0x3d1f58e2	0.038903125
156	0x3d645f78	0.05575511
157	0x3e1ed350	0.15510297
158	0xbe0d95c5	-0.13826664
159	0xbce3cae3	-0.027806705
160	0xbb065d70	-0.002050247
161	0x3e58cb55	0.21171315
162	0x3dfe08ae	0.12403999
163	0x3e11be12	0.14232662
164	0x3e6cc785	0.23122986
165	0x3ebb1bbf	0.36544606
166	0xbc9906f7	-0.018680079
167	0x3e4d0efb	0.20025246
168	0xbd2216c8	-0.039572507
169	0xbd95a278	-0.07306379
170	0x3d12bbfa	0.0358238
171	0xbda3d828	-0.08000213
172	0xbe0b3427	-0.13594113
173	0x3bc55391	0.006021925
174	0x3aefd407	0.0018297442
175	0x3e4a708c	0.19769496
176	0x3c1e05de	0.0096449535
177	0xbc8c64a5	-0.017137835
178	0xbd8a2630	-0.06745565
179	0xbdd33560	-0.10312915
180	0x3e88c9a6	0.26716346
181	0xbe2f40f1	-0.17114617
182	0x3dea47d1	0.11439479
183	0xbea10812	-0.3145147
184	0xbc679b4b	-0.014136146
185	0xbe6ba439	-0.23011865
186	0xbccd80d3	-0.025085842
187	0x3dc5b1e3	0.0965307
188	0x3d1deb08	0.03855422
189	0xbc12bb81	-0.008955837
190	0x3eff2d83	0.4983941
191	0x3eb1328d	0.3460888
192	0xbca9689c	-0.020679764
193	0x3e894a8c	0.26814687
194	0xbe3cd445	-0.1844035
195	0x3ee2946b	0.4425386
196	0xbe9864e1	-0.29764464
197	0xb9de8ef5	-0.0004244965
198	0x3cb4b196	0.022057336
199	0x3ea9f14e	0.33191913
200	0xbe82c189	-0.2553828
201	0x3f63c132	0.8896667
202	0x3dc02225	0.093815126
203	0x3fd3c868	1.6545534
204	0xbd0d2594	-0.034459665
205	0x3f6334a1	0.8875218
206	0xbd4b4d18	-0.04963407
207	0x3eba7f21	0.36425117
208	0x3d4f347d	0.050587166
209	0xbeadcb16	-0.33944005
210	0x3d0f9b30	0.035060108
211	0xbe898120	-0.26856327
212	0x3e8bd684	0.273121
213	0xbe4c4f7e	-0.19952199
214	0x3dae2a59	0.08504171
215	0xbe12497b	-0.14285843
216	0x3e0cddfb	0.13756554
217	0xbdb0891d	-0.08619902
218	0x3e9fd51d	0.3121728
219	0xbe2bad8c	-0.16765422
220	0x3eafdf3e	0.34350008
221	0xbe499b5d	-0.19688173
222	0x3ecc9394	0.39956343
223	0xbe311253	-0.17292146
224	0x3e0fbf71	0.14037873
225	0xbe4e7404	-0.20161444
226	0xbe16115a	-0.14655057
227	0xbe917ad4	-0.28414023
228	0x3d91bf1a	0.07116528
229	0x3d578b90	0.05262333
230	0x3e5e938a	0.21735969
231	0xbd773fd3	-0.060363602
232	0x3e6540bb	0.22387974
233	0xbe0a82a0	-0.13526392
234	0x3e46f0b9	0.19427766
235	0xbe45e5de	-0.19325969
236	0xbe8b75b1	-0.2723823
237	0x3edaa0f2	0.42700917
238	0x3d8b2e43	0.06795933
239	0x3f4607ec	0.7735584
240	0x3e9795b1	0.29606393
241	0x3f476e8d	0.7790306
242	0xbc952c84	-0.018209703
243	0x3e76a122	0.24084905
244	0xbe6eb4d1	-0.23311163
245	0x3ea51ce9	0.3224862
246	0xbdd21062	-0.10257031
247	0xbea9b009	-0.33142117
248	0x3ec09f74	0.37621653
249	0xbeaa9d4f	-0.33323142
250	0x3b913fb0	0.004432641
251	0xbf11b35f	-0.56914324
252	0x3db75ded	0.08953462
253	0xbebf91f4	-0.3741604
254	0x3e8bb554	0.2728678
255	0xbe7b31ee	-0.24530765

gru.weight_hh_l0_reverse f4 [96, 32]
0	0xbf26c13a	-0.6513859
1	0xbd54b18d	-0.051927138
2	0x3ed84a4c	0.42244184
3	0x3f2eb0d0	0.68238544
4	0xbeba02c4	-0.36330235
5	0xbdefb824	-0.11705044
6	0x3d6e8c3f	0.058239218
7	0x3fcd0c28	1.6019335
8	0x3fc1a3a3	1.5128063
9	0xbf3fbb77	-0.74895424
10	0x3b99e496	0.004696439
11	0x3f431c0e	0.76214683
12	0x3f392580	0.72322845
13	0x3eaebe81	0.34129718
14	0x3f699d9c	0.9125612
15	0xbfe2e191	-1.7725087
16	0x3f049aba	0.51798594
17	0xbea58bc0	-0.32333183
18	0xbf220b00	-0.63298035
19	0xbef7fcf3	-0.48435172
20	0x402b0b0b	2.672549
21	0xbee49fff	-0.44653317
22	0x3f801e89	1.0009319
23	0x3e86def8	0.26341987
24	0xbf08fab9	-0.5350757
25	0x3fdd3820	1.7282753
26	0x3ec82eb3	0.3909813
27	0xbed4928c	-0.41518056
28	0x3ef80a63	0.48445424
29	0xbe6aaf84	-0.22918516
30	0xbda1b876	-0.07896511
31	0xbe58692b	-0.21133868
32	0x3c57ec5f	0.013178914
33	0x3f41c9a7	0.7569832
34	0x3eb67439	0.35635546
35	0x3f044f97	0.51683944
36	0xbe224eee	-0.15850422
37	0x3e80a11a	0.2512291
38	0x3edb48a5	0.4282886
39	0x3e20ddc8	0.15709603
40	0xbe1620cd	-0.1466095
41	0xbebb456a	-0.36576396
42	0xbde25b64	-0.11052588
43	0xbebc62ac	-0.3679403
44	0xbd241518	-0.04005918
45	0xbf1c1fd5	-0.6098607
46	0xbecd6db4	-0.4012276
47	0xbb5e4da5	-0.0033920791
48	0x3e2bdfb4	0.16784555
49	0x3f241785	0.6409839
50	0x3efd2e8a	0.4944957
51	0x3f11815e	0.56838024
52	0xbea98d09	-0.33115414
53	0xbf96d445	-1.178353
54	0xbe87cf16	-0.26525182
55	0x3f878132	1.0586302
56	0x3f6e51e7	0.93093723
57	0xbf224fc0	-0.6340294
58	0x3ea3b74d	0.31975785
59	0xbe012cbc	-0.12614721
60	0xbefcc1d7	-0.49366638
61	0x3face8aa	1.3508503
62	0xbeb060cd	-0.34448853
63	0xbe13b2d5	-0.14423688
64	0xbdcf24b4	-0.101144224
65	0x3e25c1a7	0.16187154
66	0x3e50e6f9	0.20400609
67	0x3c95fdd9	0.01830952
68	0x3d8409c6	0.06447177
69	0x3dc81e5d	0.09771416
70	0x3d150208	0.03637889
71	0x3e104127	0.14087354
72	0x3da4854e	0.08033238
73	0xba8c83de	-0.0010720452
74	0xbd60395c	-0.054742202
75	0xbf04010d	-0.51564103
76	0xbda4fa66	-0.08055572
77	0xbd3bb591	-0.045827452
78	0x3b0ffaa1	0.0021969455
79	0xbdf8e682	-0.12153341
80	0x3e97b43c	0.29629695
81	0xbbe986dd	-0.0071266727
82	0x3d65a5ed	0.056066442
83	0xbe03f745	-0.12887295
84	0xbe07c4bf	-0.13258646
85	0xbd082e6b	-0.033247393
86	0xbc908e5e	-0.017646011
87	0xbd874f43	-0.06606915
88	0x3d138793	0.036017966
89	0x3c92201c	0.017837577
90	0x3da3eae0	0.08003783
91	0xbe8d1a25	-0.2755901
92	0x3c34acef	0.011027559
93	0x3f8af8cf	1.085718
94	0x3d9847ec	0.07435593
95	0xbdfd8651	-0.123791344
96	0x3e022ea3	0.12713103
97	0x3e2a14de	0.16609523
98	0x3db15074	0.08657923
99	0xbf097bad	-0.5370434
100	0xbeb2f44e	-0.34952015
101	0x3e08b3c6	0.13349828
102	0x3e6f263c	0.23354429
103	0xbe85d5a5	-0.2613956
104	0x3efdb8f6	0.49555176
105	0x3f3a554d	0.7278641
106	0xbe2582f1	-0.16163231
107	0xbe34cfc9	-0.17657389
108	0x3f2e7de7	0.6816086
109	0x3f76643c	0.96246696
110	0x3f408986	0.75209844
111	0x3f051c17	0.51995987
112	0xbf773a43	-0.96573275
113	0x3ecb6e2c	0.39732492
114	0xbe3997b4	-0.18124276
115	0x3db67ce5	0.089105405
116	0x3e8f2d61	0.2796431
117	0xbef23677	-0.47307178
118	0xbf37bf92	-0.7177669
119	0x3e0112af	0.12604783
120	0x3f4782e7	0.77934116
121	0xbf931a7f	-1.1492461
122	0x3f765ae3	0.9623243
123	0xbe6a3298	-0.22870862
124	0x3fb48253	1.4102272
125	0x3e282419	0.1642002
126	0x3d2eaec2	0.04264713
127	0xbf3a1dc7	-0.72701687
128	0xbf7f2e5a	-0.996801
129	0xbed78a3d	-0.42097655
130	0x3f14327b	0.5788953
131	0x3eb0b5ef	0.34513804
132	0x3c8f1254	0.017464794
133	0x3ed2e3c8	0.41189408
134	0xbf7030d3	-0.938245
135	0x3f132c3d	0.5748938
136	0x3f8ce09b	1.1006044
137	0x3d854684	0.065075904
138	0xbee99c81	-0.45627216
139	0x3f4bad35	0.7956117
140	0xbf337c1d	-0.70111257
141	0xbf62941a	-0.88507235
142	0x3f607633	0.8768036
143	0xbfb6d9db	-1.4285234
144	0xbf670fdb	-0.9025857
145	0xbe6570f1	-0.22406365
146	0xbf7c33a6	-0.9851631
147	0x3eeda23a	0.46412832
148	0x3f66d1cc	0.90163875
149	0x3ee37573	0.44425544
150	0x3f1f3e63	0.6220457
151	0xbf3cf0ee	-0.7380513
152	0xbfc65483	-1.5494541
153	0x3f85504d	1.0415131
154	0xbf24e66b	-0.6441409
155	0x3c260887	0.010133869
156	0xbec02721	-0.37529853
157	0x3e09902f	0.13433908
158	0xbfe6f96b	-1.8044866
159	0xbfe4bce8	-1.787015
160	0x3e496a8f	0.19669555
161	0x3eb6fd56	0.35740155
162	0x3edc709a	0.43054658
163	0x3f53f749	0.827992
164	0xbd71ea4c	-0.059061334
165	0x3ef8dc91	0.4860578
166	0x3e967555	0.29386392
167	0x3ece6015	0.4030768
168	0xbe965f26	-0.29369467
169	0x3f145157	0.57936615
170	0x3e2cc5c8	0.16872323
171	0xbe66e9ad	-0.22550078
172	0x3f16ee05	0.5895694
173	0xbeaee077	-0.34155628
174	0xbdbbb695	-0.09165684
175	0xbde1d9d2	-0.11027874
176	0x3ea3e0f1	0.32007554
177	0x3e125af9	0.14292516
178	0x3d8ba176	0.068179056
179	0xbe748cb2	-0.23881796
180	0xbe365fe2	-0.17810014
181	0xbe965106	-0.2935869
182	0xbe403221	-0.18769123
183	0x3e95cc9f	0.29257676
184	0x3ea6c69f	0.3257341
185	0xbe15666d	-0.14589854
186	0x3f3fbe1c	0.7489946
187	0xbc97ed8f	-0.018545894
188	0x3f1c86bc	0.6114309
189	0x3e5439bb	0.20725147
190	0xbcb3a424	-0.021928854
191	0xbedfa807	-0.43682882
192	0xbf240259	-0.6406608
193	0x3ef1898a	0.47175246
194	0x3f7e707b	0.9939038
195	0xbdb6846b	-0.089119755
196	0xbf50a7f2	-0.81506264
197	0x3d614a0b	0.055002254
198	0xbe25b881	-0.16183664
199	0xbe9fccb4	-0.31210864
200	0x3e1f4a16	0.15555605
201	0xbeb135f6	-0.3461148
202	0x3eead21d	0.4586343
203	0x3e929420	0.28628635
204	0xbf079653	-0.5296375
205	0xbfab1627	-1.3366135
206	0x3eec5034	0.4615494
207	0x3daeb51c	0.085306376
208	0x3f0f1db5	0.55904704
209	0xbefc33ac	-0.49258173
210	0x3f82e0e6	1.0224884
211	0x3fe29014	1.7700219
212	0x3ecbb127	0.39783594
213	0x3f38967f	0.7210464
214	0x3ef9f537	0.48819897
215	0x3e641c0a	0.22276321
216	0xbf345c74	-0.7045357
217	0xbe706275	-0.23475058
218	0x3f8cf111	1.1011068
219	0x3e3ece32	0.18633345
220	0xbe380248	-0.1796962
221	0x3e8ebfd1	0.2788072
222	0x3dbaed4c	0.09127292
223	0x3e35748a	0.17720237
224	0x3e1904e7	0.14943276
225	0x3ed95618	0.42448497
226	0xbe85b607	-0.26115438
227	0x3f2daade	0.6783885
228	0xbe4ec17e	-0.20190999
229	0x3da8e090	0.08245957
230	0xbe5006d1	-0.203151
231	0xbf2f9dac	-0.68599963
232	0xbef7c117	-0.48389503
233	0xbdd28e47	-0.102810435
234	0xbd4217b3	-0.047385883
235	0x3f155e83	0.5834734
236	0x3c6ff020	0.014644653
237	0x3f3c9856	0.73669946
238	0x3fa25d95	1.2684809
239	0x3f855cf7	1.0418996
240	0x3f11738e	0.5681695
241	0x3f5dcf79	0.86644703
242	0xbe455409	-0.19270338
243	0xbe84175f	-0.2579908
244	0x3f2b206b	0.6684634
245	0xbfacd88c	-1.3503585
246	0x3d850161	0.06494404
247	0x3b4d3bbe	0.0031316127
248	0xbeee16ab	-0.4650167
249	0x3f5e3de0	0.86813164
250	0xbe30a233	-0.17249374
251	0x3d44df07	0.048064258
252	0xbf53ac21	-0.8268452
253	0xbe488984	-0.19583708
254	0x3ecd20f8	0.40064216
255	0xbe05e34f	-0.13074993

gru.bias_ih_l0_reverse f4 [96]
0	0xbe03e340	-0.12879658
1	0xbdfd6691	-0.123730786
2	0xbefa2a48	-0.48860383
3	0x3d95ac65	0.07308272
4	0xbe8b80a8	-0.27246594
5	0xbe79501a	-0.24346963
6	0xbeb1c044	-0.34717
7	0xbe3694b0	-0.17830157
8	0xbdf9d1dd	-0.12198231
9	0x3d88ddcf	0.06682932
10	0xbe844331	-0.25832513
11	0xbdc44678	-0.09583753
12	0xbe3ef3ef	-0.18647741
13	0xbe1c419d	-0.15259404
14	0x3d753924	0.059868947
15	0xbd9bb831	-0.07603491
16	0xbdc38f2d	-0.09548793
17	0x3d259a27	0.040430214
18	0x3e26e861	0.16299583
19	0xbc71b844	-0.014753405
20	0xbe62f36a	-0.22163168
21	0x3d4d057a	0.05005405
22	0xbe2f4e5c	-0.17119735
23	0x3e227033	0.15863113
24	0xbb9287a5	-0.0044717365
25	0xbe411620	-0.18856096
26	0x3e0a513f	0.13507555
27	0xbe489b15	-0.19590409
28	0xbe433f87	-0.19067203
29	0x3e30dc07	0.17271434
30	0x3de98b59	0.114035316
31	0xbe218531	-0.15773465
32	0x3cdfd113	0.027321374
33	0x3eab375e	0.3344068
34	0xbe035ffd	-0.12829585
35	0x3eeb4527	0.45951197
36	0x3e838c01	0.25692752
37	0x3e6a06bb	0.2285413
38	0xbe9200e9	-0.2851632
39	0x3d83f773	0.064436816
40	0xbe4fd486	-0.20295915
41	0xbe486a86	-0.19571885
42	0x3d808532	0.06275405
43	0x3ebe7a86	0.37202853
44	0xbe324a45	-0.17411144
45	0x3e2974db	0.16548483
46	0xbd640f14	-0.055678442
47	0xbe90ac06	-0.28256243
48	0x3e2cd3d8	0.16877687
49	0xbbc22523	-0.005924837
50	0xbe4a949a	-0.1978325
51	0xbdedd952	-0.11613716
52	0x3ca65eb2	0.020308826
53	0xbca97f71	-0.020690652
54	0xbe878ac3	-0.26473054
55	0xbe73f9a9	-0.23825707
56	0xbdb169dc	-0.08662769
57	0xbe10b7aa	-0.14132562
58	0xbe9e5f72	-0.30932194
59	0x3eeb11c4	0.45911992
60	0xbe70b03e	-0.23504731
61	0x3e9efe45	0.31053367
62	0x3d4ef543	0.05052687
63	0x3e81085b	0.25201687
64	0x3d8ba177	0.06817906
65	0x3d7a31c1	0.061082605
66	0x3e62561b	0.22103159
67	0xbd77cfff	-0.060501095
68	0x3b4b7588	0.0031045396
69	0x3d09b501	0.033619884
70	0xbedc73c5	-0.43057075
71	0xbedbc936	-0.4292695
72	0x3ccce533	0.025011634
73	0xbdbff1d3	-0.09372296
74	0xbe427d90	-0.18993211
75	0xbe0603c8	-0.1308738
76	0xbe8128c7	-0.25226423
77	0xbe7a63ef	-0.24452184
78	0x3e85aca0	0.26108265
79	0xbdb8080a	-0.08985908
80	0x3d8b860f	0.06812679
81	0xbce4ce89	-0.027930515
82	0x3e7d9b84	0.24766356
83	0x3dd22258	0.10260457
84	0x3dd90537	0.10596698
85	0x3e2fff30	0.1718719
86	0xbe5d9958	-0.21640527
87	0xbe420113	-0.18945722
88	0xbec3b363	-0.382228
89	0x3db4b897	0.0882427
90	0xbef29173	-0.47376594
91	0x3d31ac94	0.043377474
92	0xbe43e57a	-0.19130507
93	0xbdf156a1	-0.11784101
94	0xbd07abea	-0.033122934
95	0xbd5f0816	-0.05445107

gru.bias_hh_l0_reverse f4 [96]
0	0x3d9e4ace	0.077291116
1	0xbe3010a1	-0.17193843
2	0xbeaa9b39	-0.3332155
3	0x3d6c0432	0.05762119
4	0xbe997968	-0.29975438
5	0xbe4c9c8f	-0.19981597
6	0xbde005ff	-0.10938644
7	0x3ca822ec	0.020524465
8	0xbeb43a24	-0.35200608
9	0xbd7baca0	-0.061443925
10	0xbea7a752	-0.32744843
11	0xbcd28896	-0.025699895
12	0xbc599559	-0.013280236
13	0xbe89caeb	-0.26912627
14	0xbe27b387	-0.16377078
15	0xbcf589aa	-0.02997287
16	0xbcafd72a	-0.021464903
17	0xbc229422	-0.009923013
18	0x3d9c4210	0.07629788
19	0x3cc9e5bf	0.024645684
20	0xbebb4b4e	-0.3658089
21	0xbdf9c7fd	-0.12196348
22	0xbc0ea367	-0.00870595
23	0x3df46ecc	0.11935195
24	0xbc1fbc18	-0.009749435
25	0xbed2d1fb	-0.41175827
26	0x3e4f20ab	0.20227306
27	0xbe6cd18b	-0.2312681
28	0xbee7adc1	-0.4524975
29	0x3e188c95	0.14897378
30	0xbd4c6261	-0.04989851
31	0xbe2a7caa	-0.16649118
32	0x3df59462	0.119911924
33	0x3ebf9b07	0.37422964
34	0xbeacd139	-0.33753374
35	0x3f120120	0.57032967
36	0x3e246a38	0.16056144
37	0x3f0b2650	0.54355335
38	0xbed27c24	-0.41110337
39	0xbe4a8c54	-0.19780093
40	0xbd057c90	-0.032589495
41	0xbeafe5c0	-0.34354973
42	0xbd207082	-0.039169796
43	0x3f15bcc0	0.58491135
44	0xbe3d5423	-0.18489127
45	0x3e1f3b5f	0.15549992
46	0x3e0fc705	0.14040764
47	0xbea18436	-0.3154618
48	0x3e10d1a9	0.14142479
49	0x3dab65e6	0.08369045
50	0xbdf91828	-0.121628106
51	0xbd8c3ee4	-0.06847933
52	0xbdae3d9f	-0.08507847
53	0xbe5c848b	-0.21534936
54	0xbe2589f3	-0.16165905
55	0xbe91882a	-0.28424197
56	0xbd81eb3e	-0.06343697
57	0xbe36d675	-0.17855246
58	0xbdcc30ef	-0.09970271
59	0x3e564ba6	0.20927295
60	0x3c31ffb4	0.010864187
61	0x3f073804	0.5281985
62	0xbe1ec9a4	-0.15506607
63	0x3ea9cdf6	0.33164948
64	0x3e41d578	0.18929088
65	0xbe58f218	-0.21186101
66	0xbef5a879	-0.47980097
67	0x3d0c4d7e	0.03425359
68	0x3df59a58	0.11992329
69	0x3bdd9a88	0.0067628063
70	0x3f23a700	0.63926697
71	0x3d80d419	0.062904544
72	0xbea31a46	-0.31855983
73	0xbe8d4a56	-0.27595776
74	0xbdfc0002	-0.12304689
75	0xbd0d5e3b	-0.034513693
76	0x3db20a74	0.086934
77	0xbb21ab8c	-0.00246689
78	0xbdd484db	-0.10376903
79	0xbec24c02	-0.37948614
80	0xbe69b095	-0.22821267
81	0x3e7516a3	0.23934416
82	0x3f2e9f18	0.6821151
83	0x3e944d4a	0.28965217
84	0xbec655fd	-0.3873748
85	0x3ef6834b	0.48147044
86	0x3ea77bb2	0.3271156
87	0xbe23694b	-0.15958135
88	0xbe314c2f	-0.17314218
89	0x3e0da3ef	0.13832067
90	0xbe15feee	-0.14648029
91	0x3e2e3461	0.17012168
92	0x3e55e5a8	0.20888388
93	0xbe64b35c	-0.22334045
94	0xbeda49d4	-0.4263445
95	0x3e30a284	0.17249495

dense.1.fn.net.0.weight f4 [64, 64]
0	0xbd54be5b	-0.05193935
1	0xbd8783c9	-0.06616933
2	0x3d1b48ca	0.037911214
3	0x3da6a6d7	0.08137291
4	0x3c96a603	0.018389707
5	0x3d98031b	0.07422467
6	0x3c3e2578	0.011605613
7	0x3d2cea0e	0.0422154
8	0x3d0af185	0.033921737
9	0xba636e61	-0.00086758105
10	0x3cadad2e	0.021200743
11	0xbc000657	-0.007814012
12	0xbd642a2a	-0.055704273
13	0x3a170beb	0.0005761969
14	0x3d5a423d	0.053285826
15	0x3c182785	0.009286766
16	0xbc48f48c	-0.012265336
17	0xbd70af77	-0.058761086
18	0x3d8adbbd	0.06780193
19	0xbe1934db	-0.14961569
20	0x3d12af1c	0.03581153
21	0x3d23d3b6	0.039996825
22	0xbd8506d7	-0.06495445
23	0xbd125b5a	-0.03573165
24	0xbde48af2	-0.11159314
25	0xba6d11c6	-0.0009043481
26	0x3da81faf	0.08209168
27	0xbe10bd4f	-0.14134715
28	0xbcbe3a56	-0.023221176
29	0xbd8eba6e	-0.069691524
30	0x3d0e941a	0.03480921
31	0x3bfd76e7	0.0077351215
32	0x3d6e60c8	0.058197767
33	0x3d017c85	0.03161289
34	0x3f44ac1c	0.7682512
35	0x3ce4f963	0.027950948
36	0x3eb4de1d	0.3532571
37	0xbe325295	-0.17414315
38	0xbe84904c	-0.2589134
39	0x3d92038c	0.07129583
40	0xbd03cda7	-0.032178547
41	0xbeb57e2b	-0.3544782
42	0x3d52c93b	0.05146144
43	0x3deea49f	0.11652493
44	0xbe0046b4	-0.12526971
45	0x3ecfc214	0.40577757
46	0x3a87394a	0.0010316756
47	0x3f2829bc	0.6568868
48	0x3e441f0d	0.1915247
49	0xbaf671e8	-0.0018802257
50	0x3eaec687	0.3413584
51	0x3d8acc10	0.06777203
52	0x3ea6b123	0.3255702
53	0xbe08a03c	-0.13342375
54	0xbbb81722	-0.005617992
55	0xbd0444a4	-0.032292023
56	0xbc2b6543	-0.010461154
57	0xbd810853	-0.06300416
58	0xbcceee4d	-0.025260115
59	0xbde8080d	-0.113296606
60	0xbdee6056	-0.11639468
61	0xbe1a184a	-0.15048328
62	0xbe2fb2a2	-0.17157987
63	0x3dc9d742	0.0985551
64	0x3cfa839c	0.030580334
65	0x3d9fad1d	0.077966906
66	0x3da26d8c	0.07931051
67	0xbdc7ea36	-0.09761469
68	0xbe066c71	-0.13127305
69	0x3de32f82	0.11093046
70	0x3de25d6d	0.11052976
71	0x3bf88720	0.0075844675
72	0x3db526e8	0.088453114
73	0xbd2f1c28	-0.04275146
74	0x3c79e5af	0.015252515
75	0x3a56b9a7	0.00081911165
76	0x3d93fe5e	0.07226251
77	0x3d0504e4	0.032475367
78	0x3d7d9387	0.06190827
79	0xbd70c0cc	-0.058777615
80	0x3d639847	0.055565145
81	0xbdd8874a	-0.10572679
82	0x3b884fc5	0.0041599
83	0xbdd3ffca	-0.10351522
84	0xbd0e5a64	-0.034754172
85	0xbd656316	-0.0560027
86	0xbe05b120	-0.13055849
87	0x3d898286	0.067143485
88	0xbdf6b9d0	-0.1204716
89	0xbd24272a	-0.040076412
90	0x3e28e916	0.16495165
91	0xbde61811	-0.11235059
92	0x3bd08c04	0.0063643474
93	0xbdcb8406	-0.09937291
94	0xbd48ad0e	-0.048993163
95	0x3d896ff2	0.06710805
96	0xbcb0063b	-0.021487346
97	0x3d43207e	0.04763841
98	0x3e87f885	0.26556793
99	0xbe1d1e43	-0.15343575
100	0xbe2a9343	-0.16657738
101	0xbe4ec631	-0.20192792
102	0xbc7b3559	-0.015332543
103	0xbe0080b3	-0.12549095
104	0xbe808f96	-0.25109547
105	0x3ee52304	0.44753277
106	0x3cf4ae25	0.029868195
107	0x3d47f824	0.04882063
108	0x3e387e41	0.18016912
109	0xbda2a5ff	-0.079418175
110	0x3e0a254d	0.13490792
111	0xbd9472e7	-0.072484784
112	0xbdda834f	-0.106695764
113	0x3de9b411	0.11411298
114	0xbe1536ec	-0.14571732
115	0x3e0ad5e6	0.13558158
116	0x3e143583	0.14473538
117	0x3da3c053	0.07995667
118	0xbe7c0ad0	-0.246135
119	0xbcf920f6	-0.030411225
120	0x3da8e3e9	0.082465954
121	0xbd834e2b	-0.06411394
122	0x3e46dcc9	0.1942016
123	0xbe133d0c	-0.14378756
124	0x3c06fd17	0.008239052
125	0xbdc6d56d	-0.097086765
126	0xbd37daac	-0.044886276
127	0xbce18580	-0.027529478
128	0xb9c94385	-0.00038388013
129	0x3c3241e7	0.01087997
130	0xbba55273	-0.005045229
131	0x3c7df400	0.015500069
132	0x3c8080a5	0.015686342
133	0x3d80a4b0	0.06281412
134	0x3dd60249	0.104496546
135	0x3d606b94	0.054790094
136	0x3d8cfbbf	0.06883954
137	0xbcd4cb16	-0.025975745
138	0x3ce9e8e3	0.028553432
139	0xbd689fc7	-0.056793
140	0x3dcfa0bc	0.101380795
141	0xbb3909ae	-0.002823453
142	0xbb224cac	-0.0024764938
143	0xbd902c87	-0.07039743
144	0x3d75eb38	0.060038775
145	0xbca8b5ce	-0.020594504
146	0x3d43dfc2	0.047820814
147	0xbd39cd98	-0.045362085
148	0x3c6994f8	0.014256708
149	0x3cd399d6	0.02583019
150	0xbc37bb3e	-0.011214076
151	0xbc42bdbd	-0.011886057
152	0xbd442c91	-0.047894064
153	0x3cf0d4fe	0.029398438
154	0xbc69551c	-0.014241483
155	0xbcede784	-0.02904106
156	0xbd238926	-0.039925717
157	0xbd8377e7	-0.06419354
158	0xbd77ff8e	-0.06054645
159	0xbd768ae1	-0.06019104
160	0x3d8ea2db	0.06964656
161	0xbcc3e1ea	-0.023911435
162	0x3db3e64c	0.0878416
163	0xbd82473d	-0.06361244
164	0xbd91351e	-0.070902094
165	0x3ac9e84b	0.0015404312
166	0xbde42a6b	-0.11140903
167	0xbab1dde7	-0.001357016
168	0xbd939f54	-0.07208124
169	0x3df0d890	0.11760056
170	0x3d9bf947	0.07615905
171	0x3d4db83e	0.050224535
172	0xbc9e79a6	-0.019345116
173	0xbc6899aa	-0.014196793
174	0x3d9f9f4c	0.07794055
175	0xbda758fc	-0.08171269
176	0x3d812e34	0.06307641
177	0xbd93dd56	-0.07219951
178	0xbe90e9a5	-0.28303257
179	0xbd9a808a	-0.07544048
180	0x39a2c5e6	0.00031046494
181	0x3d30118a	0.042985477
182	0x3ce263e9	0.027635531
183	0x3e231aba	0.15928164
184	0x3cae11fe	0.021248814
185	0x3e96b2f9	0.2943342
186	0xbe46fd7b	-0.19432633
187	0xbddc7801	-0.107650764
188	0xbe13ee96	-0.14446482
189	0x3d2a2121	0.0415355
190	0xbd61b9f9	-0.055108998
191	0x3e41a694	0.18911201
192	0x3d2a114f	0.041520413
193	0x3d2ad3a0	0.041705728
194	0x3d7388ce	0.05945664
195	0x3bf97681	0.0076130037
196	0xba73f7f5	-0.0009306663
197	0x3e0a2f3b	0.1349458
198	0x3d8c1b59	0.06841154
199	0xbb21f997	-0.0024715418
200	0x3d1d4e48	0.038404733
201	0xbce45de1	-0.027876796
202	0xbd3ddf47	-0.046355512
203	0xbcf1cae3	-0.02951569
204	0x3c50d5a8	0.012746252
205	0xbd528af2	-0.05140204
206	0x3d1fd37f	0.039020058
207	0x3d46a9cb	0.04850177
208	0x3d295328	0.04133907
209	0xbc0b6b73	-0.008509505
210	0xbd1d9d70	-0.038480222
211	0xbb8a982f	-0.0042295675
212	0xbca122bc	-0.019669883
213	0xbcea7871	-0.028621884
214	0xbdb64444	-0.088997394
215	0xbdd85ea7	-0.105649285
216	0xbd559261	-0.05214155
217	0x3d95180b	0.072799765
218	0x3e023f76	0.12719521
219	0x3c7b75c0	0.015347898
220	0xbd7087a8	-0.058723122
221	0xbcfec9f5	-0.03110216
222	0xbb8780f7	-0.004135247
223	0xbdf66330	-0.12030637
224	0x3e100bde	0.14067027
225	0xbce85c0f	-0.02836421
226	0x3e857c98	0.2607162
227	0xbd80f3cf	-0.06296503
228	0xbc3c6552	-0.011498766
229	0xbd1164b5	-0.035496432
230	0xbe58ee3c	-0.21184629
231	0xbe047f43	-0.12939171
232	0xbdb1f2c3	-0.08688881
233	0x3e0209ed	0.12699099
234	0x3c5345eb	0.012895088
235	0x3c0f2afd	0.008738277
236	0x3c2db0b5	0.010601212
237	0x3da953cb	0.08267935
238	0x3e288358	0.16456354
239	0x3de88a82	0.11354543
240	0xbd0d9fdf	-0.034576293
241	0x3c445e9e	0.011985449
242	0xbdbb4b45	-0.09145216
243	0x3e0adef5	0.13561614
244	0x3e26348a	0.1623098
245	0x3d588917	0.052865114
246	0xbe366c06	-0.17814645
247	0xbccf6491	-0.025316508
248	0x3c6d86cc	0.01449747
249	0x3c3164b6	0.010827234
250	0xbd9df9e1	-0.07713676
251	0xbe1b3c0a	-0.15159622
252	0xbe2f2f0e	-0.17107794
253	0x3d915ce7	0.07097798
254	0x3d247491	0.04015023
255	0xbda1207c	-0.07867524

dense.1.fn.net.0.bias f4 [64]
0	0xbf741f04	-0.95359826
1	0x3d3e2b7e	0.046428196
2	0x3e6f710d	0.23382969
3	0x3e6f7aa8	0.23386633
4	0xbe924c0d	-0.28573647
5	0x3e7b8675	0.2456301
6	0xbeef3dca	-0.4672683
7	0x3e8258c4	0.25458348
8	0x3ea812c0	0.32826805
9	0x3e7440f0	0.23852897
10	0x3e91d13b	0.28479943
11	0x3dc02345	0.09381727
12	0x3dfbaeb9	0.12289185
13	0xbe813403	-0.25234994
14	0x3eab3d8a	0.33445388
15	0xbde4f2ed	-0.11179147
16	0x3ea09e20	0.3137064
17	0xbe82afaf	-0.2552466
18	0xbe791810	-0.24325585
19	0xbeb1d5bc	-0.3473338
20	0x3e4458d9	0.19174518
21	0x3db64e53	0.08901658
22	0x3e93e643	0.28886613
23	0x3e83f827	0.25775263
24	0x3e5059bf	0.20346735
25	0xbda28d77	-0.079371385
26	0xbd289c2d	-0.041164566
27	0xbf6c90f1	-0.92408663
28	0x3ebe5364	0.37172997
29	0xbf1e9d06	-0.6195835
30	0xbe242c1a	-0.16032448
31	0x3eb314e9	0.3497689
32	0xbf819c47	-1.0125817
33	0xbebaee6f	-0.36510035
34	0x3e97a7bb	0.29620156
35	0x3e42eebb	0.19036381
36	0x3eb833ba	0.35976964
37	0xbda090c9	-0.078401156
38	0xbd96f6cb	-0.07371291
39	0x3ea37ba9	0.31930283
40	0xbe0d1fd7	-0.13781677
41	0xbf1168a7	-0.5680031
42	0x3eaebee5	0.34130016
43	0x3ea6959f	0.32536027
44	0xbdcbf93e	-0.099596485
45	0x3acc3a41	0.0015581326
46	0x3eb6b8ec	0.3568796
47	0xbc8bc3a5	-0.017061064
48	0x3ea224ea	0.31668788
49	0x3e8f9b84	0.28048337
50	0x3eb49399	0.35268858
51	0x3bbe1750	0.005801119
52	0x3ea02d4f	0.31284568
53	0x3e940760	0.28911877
54	0xbe39bd90	-0.18138719
55	0x3ea71986	0.3263666
56	0x3e5cc9f2	0.21561411
57	0x3e48bacc	0.19602507
58	0x3e9c27c1	0.3049908
59	0x3e3bbe0b	0.18334214
60	0x3eb2ee78	0.34947562
61	0x3ea552de	0.32289785
62	0x3e977523	0.29581556
63	0xbe2cacc5	-0.16862781
