model/LRNet_weights/g2_c40.pth (torch, 167877 bytes, 15 tensors)

hidden_state f4 [2, 1, 32]
000000 68 b9 8a 3f c5 6a 28 bf 27 66 47 bf 1b a1 be be
       1.0837831 -0.6578792 -0.7789025 -0.3723229
000010 c1 d1 ad 3f 22 40 7f bf cd 52 67 be 77 13 7c 3f
       1.3579637 -0.99707234 -0.2259018 0.984672
000020 0d ee c4 bc 22 fe 0f 3f c5 7d a3 bf 7c 86 50 3e
       -0.024039293 0.5624715 -1.2772757 0.20363802
000030 a0 4e 26 be 22 ad 95 bf ca ac e0 3e a1 d5 1f 3f
       -0.1624093 -1.1693461 0.43881828 0.62435347
000040 03 93 f7 3e 68 bb 55 bf 27 75 2a 3f d6 0c bf bd
       0.4835435 -0.83489084 0.6658501 -0.0932862
000050 6b bb a3 bf 64 03 cf 3e a9 91 63 bf bb 34 50 bf
       -1.279157 0.40432274 -0.88894135 -0.8133046
000060 7a 17 36 bf 3b ca 56 bf ce 4a 0f bf a0 f8 3e 3f
       -0.7112957 -0.8390233 -0.5597352 0.7459812
000070 be bf 04 3f 22 64 56 3f 65 ba 7a 3f e0 f6 bc bf
       0.51855075 0.8374654 0.97940665 -1.476284
000080 b5 16 23 3f ac d3 aa 3f 9b 61 6a 3f 77 fb ac bf
       0.63706523 1.3345847 0.91555184 -1.3514241
000090 49 4b 85 3e 00 84 aa 3f 1c 6a ed 3f eb e4 91 3f
       0.26034 1.3321533 1.8548007 1.1397985
0000a0 93 46 80 bf 04 1f 23 3e 45 11 b0 3f c7 4d 1c bb
       -1.0021538 0.159298 1.375527 -0.002385007
0000b0 c5 61 a9 3f a8 84 f1 be 04 e3 44 be 33 0b ef 3f
       1.3232962 -0.4717152 -0.19227225 1.8675293
0000c0 e1 5a c6 bf d5 14 c7 bf 27 14 4b 3f 06 3c 0f bf
       -1.5496484 -1.5553232 0.79327625 -0.55950963
0000d0 37 81 50 be 02 44 a0 bd 38 9f d9 be 73 ea e7 be
       -0.20361792 -0.078254715 -0.42504287 -0.45296058
0000e0 43 99 0c 3f fc e3 71 be 1e 33 33 bf 7d 1f 2f bd
       0.5492136 -0.23622125 -0.69999874 -0.04275464
0000f0 d3 9c fe 3d a0 7f ed bf 9d 1c 59 3f 0c ab 84 bf
       0.124322556 -1.8554573 0.84809285 -1.0364699

gru.weight_ih_l0 f4 [96, 136]
000000 5b 84 2d bf 0c 43 0c bf 96 25 13 bf fb 0b 5f bf
       -0.67780083 -0.54789805 -0.57479227 -0.87127656
000010 db c8 2a bf 55 98 0a bf 1a eb 01 bf e1 c0 b7 be
       -0.6671273 -0.5413869 -0.5074936 -0.35889342
000020 8b 76 eb be 15 43 3b be 62 e8 1a bf 46 e4 04 bf
       -0.4598888 -0.18287309 -0.6051084 -0.5191082
000030 a1 5e 3d bf f4 5e 83 be ee f9 18 bf ad be 02 be
       -0.7397252 -0.2565838 -0.5975636 -0.1276805
000040 94 17 fe be 6f 1f c6 3e f7 f1 c4 be 43 aa 22 3f
       -0.49627364 0.38695857 -0.38465855 0.6354105
000050 b3 06 28 3d 2a e6 7d 3e 5d cc c3 3c aa 49 19 bc
       0.041022014 0.24794832 0.023901159 -0.009355942
000060 a8 45 ca 3d ec 88 00 be 56 80 83 3e 19 7a 81 be
       0.09876567 -0.12552232 0.2568385 -0.25288466
000070 9e b5 6d 3e c1 ea 9a be f4 02 86 3e b9 5d 05 be
       0.23213813 -0.30257228 0.26174128 -0.13024034
000080 47 09 94 3e 87 8b 9c 3a c0 a9 16 bf cf 1f 91 ba
       0.28913328 0.0011943438 -0.5885277 -0.0011072102
000090 b2 19 d7 be 56 53 aa be 6a 83 bc be b2 85 05 be
       -0.4201179 -0.33266705 -0.3681901 -0.13039282
0000a0 49 7e c8 be 83 1a ed 3a ca 82 3f be 54 8d 44 3d
       -0.39158848 0.0018089566 -0.18702236 0.047986344
0000b0 b3 16 46 be 56 87 c1 3e 7d 65 96 bd d9 09 09 3e
       -0.19344597 0.37798566 -0.07343576 0.13382663
0000c0 dc 6e 1f 3c 3c e5 2f 3e 2e f3 ae 3e 29 6d c1 3e
       0.009731021 0.1717729 0.34169906 0.37778595
0000d0 1a 6a 8b 3e d8 3b a9 3e 43 bb 96 be cc f5 a9 be
       0.27229387 0.3305347 -0.29439744 -0.3319534
0000e0 bd 0d 52 be 38 3c cb 3d a4 91 0c be f3 9d 59 3e
       -0.20513053 0.09923595 -0.13727432 0.21251659
0000f0 fb 0c e6 bd 5c 0f cd 3e d2 6b 11 be 35 84 f7 3e
       -0.112329446 0.4005078 -0.14201286 0.48343053
000100 94 e7 80 be e4 52 16 3f 61 7c 90 bd 4e de 0e 3f
       -0.2517668 0.5872023 -0.070549734 0.5580796
000110 1b 3b ee be 74 9e 84 3f 45 54 97 3d 56 77 32 3f
       -0.4652947 1.0360856 0.0738912 0.6971334
000120 2a 23 13 bf 27 a3 40 bf 77 71 01 bf 54 eb 3a bf
       -0.5747553 -0.7524895 -0.5056376 -0.7301533
000130 3b f7 e5 be 2c 25 0f bf ec 69 8b be f6 a3 5b be
       -0.44915184 -0.55916095 -0.2722925 -0.21449265
000140 6e fe a0 be fc ef 54 be 9a a7 d9 be a6 dd b7 be
       -0.31444114 -0.20794672 -0.42510682 -0.35911292
000150 0d 69 3a 3e 6f dc 8e be 34 c1 de 3e 71 52 ca bd
       0.18204136 -0.27902552 0.43506777 -0.09879006
000160 40 85 5d bd ae cc 7b be d1 f4 62 3e b0 49 93 bc
       -0.054082155 -0.24589798 0.22163703 -0.017979473
000170 02 1e 04 3e 1a fc f9 bd 55 9b 7b bd fb 9c 74 be
       0.12902072 -0.12206288 -0.061427433 -0.23888008
000180 8c 0a 2a be 19 0a 98 3d 52 5e 85 be 76 a2 1a 3f
       -0.16605586 0.07423801 -0.26048523 0.60404146
000190 8c fa 66 be 37 d2 6f 3f a7 66 73 be 99 7e 2f 3f
       -0.22556514 0.9368014 -0.23769628 0.6855255
0001a0 c0 5e 51 be 61 3e 0f 3f 01 e5 c8 3c 8f 51 1c 3f
       -0.204463 0.5595456 0.02452326 0.6106195
0001b0 4d 57 be be 4f fb 1d 3f 74 44 e4 bd 4f b6 3b be
       -0.3717598 0.6171159 -0.11145869 -0.18331264
0001c0 6f ab a6 be a3 e9 a8 be d3 bb 25 bf bd 9c b8 be
       -0.32552668 -0.3299075 -0.6473972 -0.36057082
0001d0 15 3d 48 be 27 94 82 bc dc 0e a5 be d3 9c 7f be
       -0.19554551 -0.015939785 -0.322379 -0.24962167
0001e0 92 d6 84 be a6 2d ef bc 07 27 e3 be 42 ad ed 3e
       -0.25944954 -0.029196572 -0.44365713 0.46421248
0001f0 53 6e b0 be 13 95 18 3f f3 2f 44 be f7 a3 d9 3e
       -0.3445917 0.5960247 -0.19158916 0.42507908
000200 e9 c1 0e be 41 49 ba 3e 06 72 6f be bc f0 1a bf
       -0.13941158 0.36384013 -0.2338334 -0.6052358
000210 d1 24 86 be d0 84 ce be f5 5c 0b bf 4c 07 49 3d
       -0.26199964 -0.40335703 -0.54438716 0.049079224
000220 13 c5 52 3e 92 31 d6 3d ff f3 ba 3c 30 9a b5 3d
       0.2058299 0.104586735 0.022821425 0.088672996
000230 8f 4a 0d bd 93 08 6d 3e c6 9a 44 3e 71 04 8f be
       -0.034494933 0.23147802 0.19199666 -0.27933076
000240 9a 60 8b 3e 47 60 56 bd 58 9f c3 bd 73 36 8d be
       0.2722214 -0.05233791 -0.09551877 -0.27580604
000250 88 4b ae 3d c2 6e ce bd 49 7d 71 bd de 33 81 be
       0.085105 -0.10079719 -0.05895737 -0.25234884
000260 cf 37 b1 be f7 c8 0f bf bc 66 1e bf 9b 59 9a 3d
       -0.3461289 -0.56166023 -0.6187551 0.07536622
000270 27 78 d4 bd 90 e9 d7 3d c0 b3 d5 bd 06 6b 3a 3e
       -0.1037448 0.105425954 -0.10434675 0.18204889
000280 3c 3e 3d be f0 b0 4e be fc 12 86 bd 02 62 3a 3e
       -0.18480772 -0.20184684 -0.0654659 0.1820145
000290 ba 93 8f be f4 7e 59 3e 9d df d7 be ed 0c 28 3e
       -0.28042394 0.21239835 -0.4216279 0.16411181
0002a0 ab 08 ed bc 9c 69 10 3e 32 78 03 be bb f3 68 3e
       -0.028934797 0.14102787 -0.1283882 0.22749226
0002b0 aa 53 4a bd 96 af ac be b8 94 b9 bd af 22 a1 3d
       -0.049396195 -0.3372771 -0.09061569 0.078679435
0002c0 5d d2 04 be a1 82 1c be 5a e5 dc be 87 17 01 be
       -0.12970872 -0.15284206 -0.4314373 -0.12606631
0002d0 c0 28 2e bd 46 bd fe be 83 ce 5f be 38 48 13 bf
       -0.04251933 -0.4975378 -0.21856122 -0.5753207
0002e0 49 b0 6f be 1e 33 d8 be 1e 3a ef bd e9 7d 0f 3d
       -0.23407091 -0.422265 -0.11681007 0.035032187
0002f0 42 8d b7 be 6b ba 60 3d 41 54 d2 bd c7 c9 60 be
       -0.3584996 0.054865282 -0.102699764 -0.21951972
000300 18 38 29 bd c8 3a c1 bd 05 e5 85 be ec 17 b0 bc
       -0.04131326 -0.0943504 -0.2615129 -0.021495782
000310 7d 17 c4 be 6f 67 6f 3d f9 a3 af bd 39 cf 10 be
       -0.3829917 0.05844825 -0.08576197 -0.14141549
000320 af 21 59 be 50 b1 af bd ad c2 93 be 08 e2 80 be
       -0.21204256 -0.085787416 -0.28859463 -0.25172448
000330 6f bc 61 be 1e 53 61 be 5e a3 10 be 19 33 a3 be
       -0.22044538 -0.22004363 -0.1412482 -0.31874922
000340 85 40 19 be ff ee 3b bd 18 33 d6 3c 9f f7 f4 3d
       -0.14966018 -0.04588222 0.02614741 0.119612925
000350 66 85 53 be 51 57 6f bd ba 3a 78 be ac 52 85 3e
       -0.20656356 -0.05843288 -0.24241152 0.26039636
000360 b7 a3 fe bd 06 db a0 3d 5f 70 36 3e b0 60 b5 3d
       -0.1243357 0.078542754 0.17816304 0.08856332
000370 96 c3 8c be 56 76 f4 bd b7 c8 8e be 04 e7 68 3e
       -0.2749297 -0.11936633 -0.27887508 0.22744375
000380 3c 86 92 bd de 6b 4c 3e 34 01 eb be 87 40 ff bd
       -0.071545094 0.19963023 -0.45899355 -0.124634795
000390 bb 3a b6 be d3 74 b3 bd 9c 0c e9 bd 5a 53 f5 bd
       -0.35591683 -0.08762517 -0.11379358 -0.11978789
0003a0 d7 38 5b bb 4b eb fd bd b1 fc 37 bc d2 5f 53 3e
       -0.0033450627 -0.12398394 -0.01122968 0.20642021
0003b0 37 be 69 be 4f 16 99 3d 63 81 73 3d 8a f5 ef bd
       -0.22826467 0.07474958 0.059449565 -0.11716755
0003c0 25 1a 8a be e0 e3 ff 3b 9f b7 f3 bd c8 4b 69 3d
       -0.26973072 0.0078091472 -0.11900257 0.056957036
0003d0 81 fb a9 be 60 66 86 be 82 a8 32 be 30 cb c0 3c
       -0.33199695 -0.2624998 -0.17447093 0.023534387
0003e0 82 9a bc bd 2c e2 1e be 97 2b a0 be aa c3 86 3e
       -0.092091575 -0.15515965 -0.31283256 0.26321155
0003f0 1a d6 89 be 50 79 fa bc 12 1e 95 be d0 82 2a be
       -0.2692116 -0.030575424 -0.29124504 -0.16651464

gru.weight_hh_l0 f4 [96, 32]
000000 63 29 f7 3c 83 dc 64 3e 8f cf d2 be c3 9b 10 3e
       0.030171102 0.22349744 -0.4117398 0.14121918
000010 19 be 45 bd f5 6e a9 3b 0d 69 db 3d 66 32 a8 3e
       -0.048276994 0.005170698 0.10713396 0.3285095
000020 ef 9f c8 bd 51 3d 8d bb e6 1c 49 3e 84 c5 60 be
       -0.0979613 -0.004310288 0.1963993 -0.21950346
000030 d7 d6 7a bd 08 c3 d1 ba 42 3c 6e be c3 8d 0b be
       -0.061240043 -0.0016003558 -0.23265174 -0.13628297
000040 3d 54 ac bd 5c a6 ca 3d c6 c7 50 bd 87 83 95 bd
       -0.08414505 0.09895012 -0.05097177 -0.073004775
000050 1c 2e 20 3e 0a 2d e1 3d b5 8e af 3b 85 6d 76 be
       0.1564259 0.10994919 0.005357588 -0.24065216
000060 ad be 07 be 00 61 81 3e a8 17 b6 bd 11 41 80 be
       -0.13256331 0.25269318 -0.08891231 -0.25049642
000070 f8 7b c6 bd c9 6e 4e 3e 1f a0 1d 3e 30 ef f0 3d
       -0.09691614 0.20159449 0.15393113 0.117643714
000080 b0 a1 b2 3d 32 78 4a 3e 8f ca 25 be 1e 5b 09 3e
       0.08722246 0.19772413 -0.16190551 0.13413665
000090 5a a7 9f bd 33 a0 12 3d 82 d2 26 3e be be 73 3e
       -0.07795592 0.03579731 0.1629124 0.23803231
0000a0 94 b6 b2 bd 12 50 4c bc 3d 3c 6d bd 54 a3 a1 3d
       -0.0872623 -0.012470262 -0.057918776 0.078924805
0000b0 6b 17 63 3e 22 41 35 3e 44 13 d7 bd 95 d1 8b 3d
       0.22176902 0.17700627 -0.105017215 0.06827084
0000c0 e6 fd 09 3c 40 c5 39 bd 8a cc 0e 3e f2 b8 a1 3e
       0.0084223505 -0.045354128 0.13945213 0.31586415
0000d0 10 2f 93 3d d8 b4 37 bd 73 4b d1 3d 04 96 5f 3d
       0.07186711 -0.0448502 0.10219469 0.054586425
0000e0 11 7e 70 3d 3d 94 23 bd 91 d0 89 bc 11 51 23 be
       0.058713976 -0.039936293 -0.016823085 -0.15948893
0000f0 12 21 71 bd aa 6d d2 3d 2d a9 0b bd 37 29 74 3d
       -0.05886943 0.10274823 -0.034096885 0.059609618
000100 51 8d f3 be 13 a4 d3 bd 47 d7 81 3d 0a 49 b0 bb
       -0.47568753 -0.10334029 0.06339889 -0.0053798007
000110 a0 40 40 3e 40 35 ba be 40 70 31 bf 7a 5e ad be
       0.18774652 -0.36368752 -0.69311905 -0.33861142
000120 3e 40 a0 3e 99 56 f1 bd b9 75 c4 bc 3e cb 03 3e
       0.31299013 -0.11784095 -0.023981916 0.128705
000130 f3 94 56 be bd ec 61 be e1 e7 9d 3e a1 c4 02 be
       -0.20955257 -0.22062965 0.30840972 -0.1277032
000140 6c 2c 81 be 63 82 be 3e 77 07 b2 3e ac f4 59 3e
       -0.25229204 0.37208852 0.3477132 0.21284741
000150 38 e2 89 bc eb 22 93 3e c0 46 8c be e9 ef e3 3e
       -0.016831502 0.28737578 -0.27397728 0.44518974
000160 27 be e6 3d 98 03 cf be ef bd 7e 3e 29 9e 24 3f
       0.112667374 -0.4043243 0.24877141 0.64303833
000170 2b 07 6b bd d4 22 f5 3b d4 69 c6 bd 6f 20 a5 be
       -0.057379883 0.0074809585 -0.09688154 -0.32251307
000180 f0 c8 de 3d 7f 93 19 be 91 e5 31 3c 93 79 38 be
       0.108781695 -0.14997672 0.010857956 -0.18015127
000190 60 c5 09 bc 06 49 2d 3e 3f 67 eb bd ed ee c7 3d
       -0.008408874 0.16922387 -0.11494302 0.09762368
0001a0 4e 2e c5 3d b5 3e 3b 3d 02 13 58 bd 26 22 d1 3d
       0.096279725 0.0457141 -0.052752502 0.102115914
0001b0 f0 b3 96 be 38 6e 63 be bd f9 e6 bc 51 2b ad 3c
       -0.29434156 -0.22210014 -0.028195256 0.021138819
0001c0 8c e8 0e 3e ee d0 3b 3e c1 49 c7 3d ed 91 1a 3d
       0.13955897 0.18341419 0.09730864 0.037736822
0001d0 51 8d 35 3e f4 7a 19 bd 00 b5 4c be 7f 8c 55 be
       0.17729689 -0.037470773 -0.19990921 -0.20854376
0001e0 be 24 cd bd e7 f8 6c be b6 f0 c3 bd 88 cb 44 3d
       -0.10016774 -0.23141824 -0.09567396 0.048045665
0001f0 67 25 19 3b 52 63 fa bd d0 2a 08 be 37 42 33 bd
       0.002336824 -0.12225975 -0.13297582 -0.04376432
000200 da 85 a5 bd 5a 3e df 3d 41 a5 aa 3c 61 56 9d 3c
       -0.08082171 0.109005645 0.020830752 0.019206228
000210 69 42 2d 3e 63 36 b0 3d 49 85 17 3d 60 79 02 3e
       0.16919865 0.086041234 0.036992345 0.12741613
000220 93 ed db bd d2 02 45 be f5 70 be bd 3f 07 0f bc
       -0.10738673 -0.19239357 -0.092988886 -0.008729755
000230 f2 12 bf bd 57 3d 09 be f1 8d 0d bd 41 a4 8f 3c
       -0.093297854 -0.13402306 -0.034559194 0.017534377
000240 73 15 f9 bd 42 da 3c 3e da a4 6b 3e 15 7a b1 bc
       -0.12162294 0.18442634 0.23012105 -0.021664659
000250 ef 34 fe 3d ec a4 ac 3d 0f df 57 bd 25 86 17 be
       0.1241244 0.08429894 -0.05270296 -0.14797266
000260 41 1c ff 3c aa 39 02 be 0a 62 1e be 65 df 4f 3e
       0.031141402 -0.1271731 -0.15467086 0.20300062
000270 d7 1e 91 3c 9f d3 29 be 73 25 af 3c d8 4f e3 3c
       0.0177149 -0.16584633 0.021380162 0.027748033
000280 65 ad c8 3d e8 9a 16 bc 82 76 d0 3d 57 41 17 3e
       0.097986974 -0.009192206 0.101788536 0.14771019
000290 58 e2 3c bd b8 b1 00 3f 79 b8 d5 3d df 4a 5b 3c
       -0.046114296 0.5027118 0.10435576 0.01338455
0002a0 ec 46 e4 be bf 95 43 3e c6 7b a3 bd 8d 59 aa 3d
       -0.4458536 0.19100092 -0.07982592 0.08317862
0002b0 8b 75 d2 be d8 73 8a bd 23 44 01 3d 99 21 b1 be
       -0.41105303 -0.06760377 0.03155912 -0.34595945
0002c0 f8 95 07 be 62 91 f1 3d a0 26 dd 3d a0 89 22 3e
       -0.13240802 0.11795308 0.10798383 0.15872812
0002d0 46 96 6a bc 36 1d 44 be d7 0d 2e be b9 67 b6 bc
       -0.014318055 -0.19151768 -0.16997467 -0.022266256
0002e0 b9 7c 82 3e 94 a2 3f 3e 43 e7 99 3d b6 3d 48 bd
       0.2548578 0.18714362 0.07514813 -0.048886977
0002f0 0e cc ee bc 05 09 90 3e 5a ca f8 bd f1 f6 c7 3c
       -0.029150035 0.2813188 -0.121479705 0.024409743
000300 eb 9e 40 be c2 9e dc bd 6b d8 84 3d 1c 94 a0 3c
       -0.18810622 -0.10772468 0.06486591 0.019601874
000310 0d c3 43 3e 89 7b ca 3d e1 1f 9a 3d 82 77 81 be
       0.19117375 0.09886844 0.07525612 -0.2528649
000320 47 40 88 bc 8c d3 c7 3d cb b0 e7 3d 49 b8 b2 bd
       -0.016632212 0.09757146 0.113130175 -0.08726556
000330 00 21 42 3e 90 99 c2 3d a1 5d d7 3c af ce c6 bd
       0.18957901 0.09501946 0.026289763 -0.097073905
000340 47 56 17 3c 60 1f ec bd d3 4c 51 3d f2 db 87 be
       0.009236879 -0.11529422 0.051098656 -0.26534992
000350 17 74 af 3c 29 64 d1 3d 20 fa bc 3d bf 40 4f 3e
       0.02141766 0.10224182 0.09227395 0.20239542
000360 04 cb 8e bd f8 09 e0 bd e8 9a 2c 3e 77 2f 3d 3e
       -0.06972316 -0.109394014 0.16855967 0.18475138
000370 c0 a9 a2 bd 8a e5 a8 bc a4 8d 45 be 2e 47 06 3d
       -0.079425335 -0.020617265 -0.19292313 0.032782726
000380 6f 2b 1b 3e a2 84 1b be 20 86 ec 3e 52 80 e5 bd
       0.15153287 -0.15187314 0.4619608 -0.11206116
000390 30 dc a3 3d ee e7 22 be d1 7d 0d bf cb 08 13 bf
       0.08000982 -0.15908787 -0.55270106 -0.5743529
0003a0 ea e8 dd 3e b6 be bb be fd b7 04 be 43 7a 78 3b
       0.43341762 -0.36668938 -0.12960811 0.003791467
0003b0 e7 a3 ca be 35 69 bb be 71 8b 8c bc 7a 1d 62 be
       -0.39578173 -0.36603704 -0.017156335 -0.22081557
0003c0 fb bf df bc ee fc de 3d 22 e6 06 3f 1c 02 26 be
       -0.027313223 0.10888086 0.52694905 -0.16211742
0003d0 61 92 14 be 14 43 7f 3d 6d b9 a1 be 43 d7 47 be
       -0.14508964 0.06231983 -0.3158678 -0.1951571
0003e0 c9 26 89 3c 4c 50 71 be d3 49 12 3e fe 2d 01 3f
       0.016742127 -0.23565787 0.14285974 0.50460804
0003f0 27 15 0b 3e c9 09 8f be a6 f6 98 be 9a 92 f3 be
       0.13582288 -0.27937153 -0.29875678 -0.47572786

gru.bias_ih_l0 f4 [96]
000000 d9 6f d6 3c 84 fa 61 be 68 70 55 3e 2f 62 f9 3d
       0.02617638 -0.2206822 0.20843661 0.1217693
000010 ef 20 94 3d da 84 9c 3d dd a5 29 bd 04 9c 0d be
       0.07232844 0.07642527 -0.041417945 -0.13829046
000020 2c 25 23 3e e7 65 ad 3d bf a7 0d bd 21 a5 48 be
       0.15932149 0.08466702 -0.034583803 -0.19594242
000030 db ca 83 3e 55 be e2 3d 0c 68 b7 bd 93 80 67 b9
       0.25740704 0.11071459 -0.08955392 -0.00022077774
000040 a6 8c 25 3d 06 24 30 3e f0 27 40 3d 39 e8 11 3e
       0.040417336 0.17201242 0.046913087 0.14248742
000050 15 ef 22 3c ef 76 26 3e 3c d1 7f 3d fb 2c 4b 3e
       0.009944697 0.16256307 0.0624554 0.19841377
000060 7f 2d 44 3e 35 d3 5b bc b2 30 18 3e d7 23 c6 bc
       0.1915798 -0.013417055 0.14862326 -0.024187012
000070 ba fe aa bc 61 55 bc bd 7c e1 8f 3c f1 99 68 3d
       -0.020873416 -0.09195972 0.017563574 0.056787435
000080 00 37 a1 be b3 ac 97 be 9d d6 8a 3e 40 3f 69 be
       -0.31487274 -0.29623947 0.27116862 -0.22778034
000090 05 c4 01 bf 2d b0 2e bf 49 d2 87 bd 8f 96 bd 3e
       -0.5068973 -0.6823757 -0.066319056 0.3702893
0000a0 27 d2 10 bf 1a 49 92 be 50 77 89 bd 54 e4 5b be
       -0.5657067 -0.28571397 -0.0671221 -0.21473819
0000b0 4a f0 22 bf ea 9d c7 be cc 30 2a 3e 90 9e c6 be
       -0.636479 -0.38987666 0.16620177 -0.3879285
0000c0 f6 0b 80 3e 91 29 33 bf 12 cc 1b bf 2a 19 65 3f
       0.25009125 -0.699853 -0.6085826 0.8949152
0000d0 ca fd d1 be e7 59 1a 3e 76 d2 e7 be 16 64 ec be
       -0.41013938 0.15073358 -0.45277756 -0.4617011
0000e0 66 24 38 bf 02 c3 ac be fa d7 0f be f9 28 42 be
       -0.7193054 -0.3374253 -0.14047232 -0.18960942
0000f0 ae 0d d5 3d 2f 30 be bc 19 7a f3 be ba cd e4 3d
       0.10403 -0.023216335 -0.4755409 0.11172052
000100 40 61 78 bc 95 ad 2a 3c 89 b0 1e 3d 23 19 5d bd
       -0.015159905 0.010417362 0.038742576 -0.05397905
000110 0c 76 ee 3b 9c 65 30 3d a6 47 03 3d 3b 19 8e bd
       0.007277256 0.043065652 0.03205075 -0.06938406
000120 72 fa 09 bc 41 88 79 3c ab 61 0c bd c5 a0 1d 3d
       -0.008421527 0.015230239 -0.03427283 0.0384834
000130 ff f0 f6 ba e8 85 69 3d b5 10 27 bc d9 a6 07 3c
       -0.0018840133 0.05701247 -0.010196854 0.008279526
000140 1e c0 d1 3c 5b 76 0d bd ac 39 4e 3d a9 d8 0a be
       0.025604304 -0.0345367 0.05034797 -0.13559212
000150 ec b1 16 3c 0c 24 b2 bd e6 de 81 bb b2 6e f4 3a
       0.009197693 -0.08698282 -0.003963339 0.0018648712
000160 04 66 f5 3a fc d7 4b 3d dc cc e6 3c ab d6 68 3d
       0.001872242 0.049766526 0.028173856 0.05684535
000170 75 fc dc bc bd b0 dd 39 02 52 7d 3d a4 2c 41 bd
       -0.02697585 0.00042284085 0.061845787 -0.047161713

gru.bias_hh_l0 f4 [96]
000000 3d 1a 42 bd f0 92 ef 3c e2 ab 92 bd 8e 7b c7 bd
       -0.047388304 0.02924487 -0.0716169 -0.09740363
000010 fd 38 fa 3d 1b dd c1 3d 65 83 12 3e 5b 47 bb bd
       0.12217901 0.09466001 0.14307936 -0.09144469
000020 f9 4d 89 3e b3 64 0c 3e b5 db f3 bd 8f 9b 00 3c
       0.268173 0.13710289 -0.1190714 0.007849588
000030 36 6f 3d 3d d9 1c a6 3d 3d a5 03 3d a3 65 8e bc
       0.046248637 0.08110971 0.032140005 -0.017382449
000040 3a f4 b6 bd 88 a2 6f 3e d8 3e b5 bd 2c 99 89 bb
       -0.08933301 0.23401845 -0.08849877 -0.0041991677
000050 d3 d0 1b bd e5 2b 5b bd 60 cb c1 3d 1c 0b 8f 3d
       -0.038040947 -0.053508658 0.09462619 0.06984541
000060 08 dd 04 3e 6f 29 6c 3d 07 85 30 3c f9 04 b1 bd
       0.12974942 0.0576567 0.010773904 -0.086435266
000070 91 f9 79 be fa 56 50 bd a5 da 84 bd 97 77 4c 3e
       -0.24411608 -0.050864197 -0.06487016 0.19967495
000080 4a 78 6a be 93 74 8a be 58 7e 77 3e 85 19 46 be
       -0.22897449 -0.27042064 0.2416929 -0.19345672
000090 ba 10 ed be 27 8d 19 bf 57 4a 10 be c0 7f a6 3e
       -0.46301824 -0.59981006 -0.14090858 0.3251934
0000a0 44 37 13 bf a1 be 85 be a7 09 ef bd ff 2d 15 be
       -0.57506204 -0.26122 -0.11671763 -0.14568327
0000b0 29 84 10 bf 1d c6 78 be 6c 57 72 3e af 5d cc be
       -0.5645166 -0.24294324 0.23666161 -0.39915225
0000c0 fc f2 9a 3e 84 09 bc be 40 2d e4 be a8 f3 48 3f
       0.30263507 -0.3672601 -0.44565773 0.7849679
0000d0 4f 34 82 be 38 a1 0e bd 9a c1 a4 be 0b 33 ea be
       -0.25430533 -0.03482172 -0.32178956 -0.45742068
0000e0 9e 1b ed be f1 49 8b be ff 33 2c bd fb ff d0 3c
       -0.46310133 -0.2720485 -0.042041775 0.025512686
0000f0 bf 96 49 bc 5d 96 3e 3e 58 f3 47 be 85 c1 aa bd
       -0.012304007 0.18612047 -0.19526422 -0.08337692
000100 51 4a 78 3d 0c 2c 56 bd 72 41 f0 bd fc fb 92 3c
       0.06061775 -0.0522881 -0.11731233 0.017942421
000110 b7 19 b4 3b 1f c2 a9 bd 7f 45 35 bd ed 58 70 3d
       0.0054962295 -0.08288979 -0.04425573 0.058678556
000120 e1 19 30 3a d9 f8 ec 3c 0a 9c 84 3b 21 2a 1a 3d
       0.00067177234 0.028927254 0.0040469216 0.037637834
000130 7f a5 cc 3c 7c 70 45 bd bd b3 77 3d aa 5f 10 3c
       0.024981258 -0.048202977 0.060474146 0.008811871
000140 2e 68 ee bc a1 7d 11 3d 27 61 a0 bd 7d d5 20 3e
       -0.029102411 0.0355202 -0.0783103 0.1570644
000150 55 b4 15 bd 77 1d e3 3d 0d 39 c3 b9 be bc 01 3d
       -0.03654893 0.11089604 -0.00037235804 0.03167414
000160 d5 69 f5 bc 1b 91 52 bd 62 57 66 bd 6f dd db bd
       -0.029957691 -0.051407915 -0.05623568 -0.107355945
000170 4b e7 84 bd ff 44 91 bd 2a c0 9d bd 94 5c 52 3d
       -0.06489428 -0.07093238 -0.07702668 0.05135782

gru.weight_ih_l0_reverse f4 [96, 136]
000000 96 46 b8 3d b8 e7 ac 3e 34 78 b0 3d 4b f1 91 3e
       0.08997838 0.33770537 0.08616677 0.28504404
000010 2f bd ba 3e 3f 34 87 3e 7f d6 b8 3e d2 9c cd 3e
       0.3647246 0.26407048 0.36101148 0.40158707
000020 51 bb fa 3e 69 26 81 3e 3b c7 d7 3e 7b cf 58 3e
       0.48971036 0.25224617 0.42144188 0.21172898
000030 39 8c 16 3f 63 7b 85 3d ad 4f ac 3e 93 de 0f 3f
       0.5880771 0.06517675 0.33654538 0.56198996
000040 f3 fc 37 3e 89 3e 66 3e 95 06 da 3d bb 1a 2a 3e
       0.17967586 0.22484793 0.10645787 0.1661176
000050 fb 9f d6 ba e2 06 03 3e 18 e6 96 3e 6b b1 6b be
       -0.0016374582 0.12795594 0.29472423 -0.23016898
000060 fc 41 7d 3e 65 6b a0 be 39 af d0 3d 96 7d 7a 3d
       0.24732202 -0.31331936 0.10189671 0.061154924
000070 c9 65 65 3c cb 1c e2 bd 68 fb a3 3d a2 2d 18 3d
       0.014001318 -0.11040648 0.08006936 0.037152894
000080 48 fb 55 3d 9e 9c 82 3d 60 56 e0 bd 43 9c 02 3f
       0.052241594 0.063775286 -0.10953975 0.51019686
000090 43 df 15 bd b7 97 dc 3e 82 13 02 be 16 be 60 3e
       -0.036589872 0.430845 -0.12702754 0.21947512
0000a0 af 43 59 bd 9d 59 be be 12 44 08 3c 10 28 6d bd
       -0.053043064 -0.37177745 0.0083170105 -0.057899535
0000b0 cd f0 9a be 4d e9 87 be 7b 43 83 be 9e 3d f6 be
       -0.3026184 -0.26545182 -0.2563742 -0.48093885
0000c0 e7 f1 b1 be 5f 6e 79 3c 37 61 f8 bd 93 24 a4 be
       -0.3475487 0.015224068 -0.12127917 -0.32059154
0000d0 cb 9b b8 bd a5 b9 4f 3c 5a e4 53 be ef e1 2c 3d
       -0.0901409 0.012678538 -0.20692578 0.042207655
0000e0 d8 bf b4 3e 79 45 c0 3e de f6 8f 39 c8 f1 9c 3d
       0.35302615 0.37553003 0.00027459016 0.076633036
0000f0 61 87 5d be de b0 22 bd fa bc bf 3c 78 50 f7 be
       -0.21633674 -0.039719455 0.02340554 -0.4830358
000100 2d af b2 bb 3e 44 25 be 9b 75 0f 3e 55 33 91 be
       -0.0054530115 -0.16139314 0.14009707 -0.28359476
000110 e3 a0 7f 3d 54 8d d6 be ba 66 9e 3d b7 c2 e9 be
       0.062409293 -0.419047 0.07734437 -0.45656368
000120 9f 0d d1 be 0d fd 30 3e 4b f8 fa 3d ca ca a5 3e
       -0.40830705 0.17284031 0.122543894 0.32381278
000130 da a8 7f bd aa b0 a3 3e 7c e3 ed bd d1 d5 30 3e
       -0.06241689 0.3197072 -0.11615655 0.17269064
000140 aa d3 86 3d ae 36 4a 3e 15 ba 30 bd 00 2a ce 3e
       0.065833405 0.19747421 -0.04314621 0.40266418
000150 c4 a7 80 be b8 d5 d8 bd 37 8e 91 be a2 0c 9d bd
       -0.25127995 -0.105876386 -0.28428814 -0.07668425
000160 90 51 a0 bd c7 f5 07 be 89 86 a1 3d af f4 93 3e
       -0.07828057 -0.1327735 0.07886989 0.28897616
000170 74 00 87 b8 3c 9a 03 3d 9e ef ac 3c 10 33 28 3e
       -6.437386e-05 0.03212951 0.021110352 0.16425729
000180 87 f2 3a 3e 05 2d a9 be 55 43 24 be 62 df 41 be
       0.1825658 -0.3304216 -0.1604131 -0.1893287
000190 21 26 04 3e 45 1a 6c be 4f 3e 80 3e 0b 04 f9 be
       0.1290517 -0.23056896 0.25047538 -0.48635897
0001a0 98 65 6c 3e 5a ac b6 be 8f 91 83 3d b4 a9 91 be
       0.2308563 -0.3567837 0.064242475 -0.28449786
0001b0 c0 74 1b be 0b ef b9 be fd e3 16 be 9b cb d0 3d
       -0.15181255 -0.36315188 -0.14735408 0.10195085
0001c0 c9 63 e7 bd 56 7c e4 3d 0f 48 ec 3d 3a 54 1e 3e
       -0.112983294 0.11156528 0.115371816 0.15461817
0001d0 16 10 d0 3d 36 3a 38 3e db b1 cd 3e 99 a2 19 bc
       0.10159318 0.17990956 0.40174755 -0.009377145
0001e0 7e 1f 97 3e 84 68 b5 be 11 12 b0 3c 7b 57 d5 be
       0.29516214 -0.35431302 0.02149299 -0.41668305
0001f0 0b 9a 03 3e 93 1f 5c be 50 4f df 3d 9e 63 9c be
       0.12851731 -0.2149642 0.109037995 -0.30544752
000200 cf 2d 2a be 27 37 82 be f4 26 fd 3d f2 c0 04 3f
       -0.16619037 -0.25432703 0.12360945 0.5185691
000210 ce 4d 5c 3e a1 ef dc 3d 5f 34 ad 3b 62 2a 90 3e
       0.21514055 0.10787893 0.005285784 0.28157336
000220 2f 3e 1e 3f 61 f0 b0 3e e2 53 e6 3e df f0 a9 bd
       0.61813635 0.34558395 0.44985873 -0.08297896
000230 91 ba 5e 3f 87 27 54 bd 7d d6 81 3f 0d 17 58 bc
       0.8700343 -0.05179551 1.0143582 -0.0131890895
000240 cd e4 18 3f e1 35 bc be 94 cb 06 3f 09 ec 08 be
       0.5972412 -0.36759856 0.52654386 -0.1337129
000250 17 67 72 3e 56 fb 1f bf c4 9f 8a 3e e6 23 67 be
       0.23672138 -0.62492883 0.27075016 -0.22572288
000260 90 18 fd 3e 50 b0 3d bf 9a be c0 3e 43 4e 75 bf
       0.49432802 -0.74097157 0.37645417 -0.9582254
000270 03 c7 69 3d 6e db 65 bf 34 bd 05 be 0d 7f 67 bf
       0.057074558 -0.8978795 -0.13060457 -0.9042824
000280 b3 b2 c8 be 32 b2 58 bf 51 70 ff be b9 b1 59 bf
       -0.39198837 -0.84646904 -0.49890378 -0.8503681
000290 a8 60 84 bf db 21 bb be d8 ff 43 bf 9f 05 0e 3e
       -1.0341997 -0.36549267 -0.7656226 0.13869332
0002a0 5f ff 69 bf 93 aa 98 3e 40 1a 8d 3c 51 40 f4 3d
       -0.9140529 0.29817638 0.017224431 0.1192633
0002b0 49 b5 45 bd 32 45 8e 3e 93 3f 4e 3e b1 7c 8e 3e
       -0.04826859 0.27787167 0.20141439 0.27829507
0002c0 1a 1f 1a 3d 64 74 f8 be 4e 6c 1a 3e a0 9e 17 bf
       0.037627317 -0.485263 0.15080377 -0.5922642
0002d0 ae c8 2a be f2 2c 66 bf 84 7c 9f be 86 2b b2 be
       -0.16678116 -0.8991233 -0.31149685 -0.3479883
0002e0 8f c0 25 be 15 2a f0 3e 67 cf dc bd 61 bb 1b 3f
       -0.16186737 0.46907106 -0.10781746 0.6083279
0002f0 10 05 08 bf f0 ef 1e 3f 91 fb 8e 3d f6 5a 17 bf
       -0.53132725 0.62084866 0.06981576 -0.5912317
000300 c0 5e 83 3e 2a e0 f1 3c 24 b3 9f 3d d5 6b e1 3d
       0.25658226 0.029525835 0.0779784 0.110068955
000310 ce 64 f4 3e 80 03 c7 3e c6 18 94 3e 9c f4 0f 3e
       0.47733158 0.38869858 0.2892515 0.14058155
000320 8b 38 66 3e 98 7d ac bd dd bb 76 3d e0 cd db 3e
       0.22482507 -0.084223926 0.060237754 0.42930508
000330 2e 59 06 3e ba 06 d3 3e bc bd 20 3e a0 ab bb 3e
       0.13119957 0.4121607 0.15697378 0.36654377
000340 f8 36 34 bf 31 49 99 bf 41 6a c8 be 7a 00 89 bf
       -0.70396376 -1.1975461 -0.39143565 -1.070327
000350 3d 13 b9 3d f4 33 80 bf 21 6a a6 be 66 e0 6d bf
       0.090368725 -1.0015855 -0.32502845 -0.9292053
000360 61 ce 32 3e c3 4d 8f bf 45 80 af be 3e 9c 84 bf
       0.1746154 -1.1195606 -0.3427755 -1.0360181
000370 2c 13 6c bd 14 c4 58 bf d3 55 9b bc 13 6d 7f bf
       -0.05763547 -0.8467419 -0.018961823 -0.9977581
000380 57 7a 28 3e 65 39 80 bf 2d 03 6c 3e 2d 03 4f bf
       0.16452919 -1.0017515 0.23048086 -0.8086422
000390 12 eb 26 3d d7 b1 59 bf 2f 50 33 be 88 8e 7f bf
       0.040751524 -0.8503699 -0.17511056 -0.9982686
0003a0 40 6b b0 3e f0 cb a4 bd 0c f8 cd 3e 7d de 44 3e
       0.34456825 -0.080467105 0.40228307 0.19225498
0003b0 d7 b9 9a be 8a a9 9d 3e dc 1f fc 3d e9 c0 d0 3d
       -0.3021991 0.3079341 0.12310764 0.10193045
0003c0 42 3e 8e 3e 22 78 6f 3e c2 28 b7 bd e6 2d ac 3e
       0.27781874 0.23385671 -0.08943321 0.33628768
0003d0 c9 53 d7 3b b4 0a 82 be 0f b1 18 3e 36 03 08 bf
       0.0065712673 -0.2539879 0.14911292 -0.531299
0003e0 5b 51 e1 3d fa e2 1e bf b6 96 f4 3d f1 94 39 bf
       0.110018454 -0.6206509 0.11942808 -0.7249289
0003f0 e2 50 09 3e 0d d1 e9 be 5e 50 17 be 36 22 e2 be
       0.1340976 -0.45667306 -0.14776751 -0.44166726

gru.weight_hh_l0_reverse f4 [96, 32]
000000 1c 6d 10 be 6e c3 2d be f6 92 48 be c7 3c 35 be
       -0.14104122 -0.16969082 -0.19587311 -0.17698966
000010 87 5f 1d be 8c 75 2c 3e 71 35 ec be fc 45 19 bd
       -0.15368472 0.16841716 -0.46134523 -0.037420258
000020 d9 12 27 be f2 5c 42 be 5d 66 1d bf 8b 26 df 3e
       -0.16315784 -0.18980768 -0.6148432 0.43584093
000030 42 8b 34 bf d9 61 c9 3e 24 c5 02 3f bf 88 aa 3e
       -0.7052499 0.39332464 0.5108206 0.33307454
000040 43 e3 10 3e f2 ea 2c be 1f 17 1f bf 11 38 dc 3e
       0.14149193 -0.168865 -0.62144655 0.43011525
000050 bc b4 41 be 6d f9 5b 3e 3f f0 54 be c4 86 c1 be
       -0.18916601 0.21481867 -0.20794772 -0.3779813
000060 03 68 30 bf bc bf 31 3e bd ac cb 3e a7 cf b6 3e
       -0.6890871 0.17358297 0.39780226 0.357053
000070 3c 67 23 3e d7 d5 8d be 38 b8 c4 3c b2 83 d3 3c
       0.1595735 -0.2770221 0.024013624 0.025819633
000080 e0 ba ac bd 81 2c 4f 3d 76 d3 c3 bd e5 d3 68 3d
       -0.08434081 0.05057955 -0.09561817 0.056842703
000090 56 89 3d be f5 98 0e be 36 5f d2 bd be a0 3e be
       -0.18509421 -0.13925536 -0.10272066 -0.18616006
0000a0 cc dc 06 3e d0 31 8d be e7 7e 2a be c8 71 78 3e
       0.13170165 -0.27577066 -0.16649972 0.24262154
0000b0 49 8b 87 3c 57 68 07 3e bb 3f bf 3d 65 d0 e8 3d
       0.016545909 0.13223396 0.093383275 0.11367873
0000c0 01 5a b8 3d 32 d8 38 3d 89 a2 a7 be 49 cc 35 3e
       0.09001542 0.045128055 -0.32741192 0.1775371
0000d0 37 ca 88 be 17 b8 09 be 01 c5 6e bd 7c c6 5d bd
       -0.26716778 -0.13449131 -0.058293346 -0.054144368
0000e0 c7 ef 82 bb 0c 0a 23 3f 31 46 d0 3d 00 d9 02 3f
       -0.003995869 0.63687205 0.10169638 0.51112366
0000f0 b5 ce 8c 3d 50 39 63 3a fb 83 d8 bb 2c ca 53 bd
       0.06875364 0.0008667903 -0.00660753 -0.051706478
000100 46 5a 53 3e ce 7e 81 3e 37 85 82 be 22 3e 50 be
       0.20639905 0.25292057 -0.2549226 -0.20336202
000110 2f 3a f0 be c4 39 08 3c bd 2f 47 bd a3 6e 16 3d
       -0.4691939 0.008314554 -0.04862951 0.036726605
000120 cf 1d e1 3e 73 66 ba bf 37 0f 8e be b0 8f 5d 3f
       0.43968055 -1.4562515 -0.27745983 0.86547375
000130 a7 fc fd be 79 ed bf 3d 17 c1 e0 3e 67 73 58 be
       -0.4960682 0.09371466 0.43897316 -0.21137773
000140 f6 77 9b be 24 79 5a 3d 62 7a aa 3c c2 0e ef be
       -0.3036496 0.053338185 0.02081031 -0.46690947
000150 9b 5e 4a 3f e2 de 78 bf 45 c6 ae be 33 39 7a 3f
       0.79050606 -0.9721509 -0.34135643 0.9774353
000160 cd 11 ae be a2 4a db 3d a3 ed 29 3f 47 8d fd 3e
       -0.33997956 0.107075945 0.6637823 0.4952185
000170 00 6e 56 3f eb 08 c2 be 08 02 50 3e 92 a9 d4 3e
       0.83761597 -0.3789743 0.20313275 0.41535622
000180 99 b1 f1 3d 82 e6 89 bc 3f 30 84 3e 34 0f 4c 3e
       0.11801452 -0.016833548 0.2581806 0.19927675
000190 47 25 47 3e 03 bd 37 be 53 9d 82 be 04 80 f9 bd
       0.19447814 -0.17943196 -0.25510654 -0.1218262
0001a0 59 03 e1 be d0 4d 9e 3e 96 0e 08 bf 48 8b c3 bd
       -0.43947867 0.3091874 -0.53147256 -0.0954805
0001b0 cb 5f 1d 3c bf 0e 1c 3e a4 69 37 be 86 f3 89 3e
       0.009605358 0.1524 -0.17911392 0.26943606
0001c0 47 00 e7 3e 56 5a df bd 4c 32 ef be 00 1d 4e 3f
       0.451174 -0.10905902 -0.4671806 0.80513
0001d0 28 6b 00 3d a7 70 d2 3e ef 65 40 3d 74 a7 f3 be
       0.031352192 0.41101572 0.04697221 -0.47588694
0001e0 02 f2 0d bf d4 8e 07 3f 66 d2 0d bf 58 bd 16 3e
       -0.554474 0.52952313 -0.5539917 0.14720666
0001f0 c5 bb 95 be c1 ef 88 3e 36 cd 7f 3d e2 31 28 3d
       -0.2924482 0.26745418 0.062451564 0.041063197
000200 9a 2c c3 be 95 a9 61 3e 43 8f e4 be 3f 77 ae be
       -0.38119966 0.22037347 -0.4464055 -0.34075353
000210 28 8e 6d be 90 7d 95 bd 47 84 3f 3c 20 a2 cf bd
       -0.2319876 -0.0729934 0.011689252 -0.10138345
000220 1a 09 6f 3e 23 9d 94 be 5c ca de be 08 63 8f be
       0.23343316 -0.29026136 -0.43513763 -0.28005242
000230 b2 c4 d7 be 8d 62 31 be 0f 63 b1 3d e2 61 53 be
       -0.42142254 -0.1732275 0.08661472 -0.20642808
000240 c4 b9 a4 3e 0c 7a 36 be 28 7d 60 3e 9e 4d 50 3f
       0.32172978 -0.17819995 0.21922743 0.81368434
000250 b8 f5 3b be 79 22 d9 bd b8 ad a9 be 11 d7 d5 3e
       -0.18355453 -0.10602278 -0.3314035 0.41765645
000260 ea 9c 62 be 22 12 4d bd ce c5 e9 3e a7 ee 0e bd
       -0.2213017 -0.05006612 0.45658726 -0.034895565
000270 8c 60 94 be 45 5b ba bd 04 b9 03 be f4 8e b3 3e
       -0.2897991 -0.090994395 -0.12863547 0.35070002
000280 f6 c0 60 bd b0 56 57 be 1e 12 1e 3e 59 af 87 3e
       -0.054871522 -0.21029162 0.15436599 0.26500967
000290 52 2c a7 be 74 bc 14 be 57 a9 30 be 75 17 b8 be
       -0.32651 -0.14525014 -0.17252098 -0.35955396
0002a0 09 08 03 be 9d 48 d9 bc 81 f5 09 be 7f f1 32 3e
       -0.12796034 -0.026523883 -0.13472559 0.17474936
0002b0 70 b0 33 3e ff 23 8c be 02 71 82 3e b5 60 47 bd
       0.17547774 -0.27371213 0.25476843 -0.04867621
0002c0 72 a7 bf 3e 2d e4 3c 3e ae 59 de bc da c3 0c 3d
       0.37432438 0.18446417 -0.027142372 0.034366466
0002d0 ab 95 74 3e 76 6e 7d bd b6 65 8f 3e bf 29 1f be
       0.23885219 -0.061872922 0.28007287 -0.15543269
0002e0 e0 0e 47 be 4e 7e b6 3e e0 31 e2 3a 3a 74 4d bd
       -0.19439268 0.35643238 0.0017257296 -0.05015967
0002f0 7a b9 19 3f ae 9c 04 3d c5 c6 80 be 2b ef 50 3e
       0.6004864 0.032375984 -0.2515165 0.20403735
000300 10 6f 99 be 80 ec ea bd 18 b0 f4 bd 8a 81 65 bd
       -0.29967546 -0.1147089 -0.1194765 -0.05603174
000310 8f c4 d5 be 38 84 1c 3e b5 ba d8 bd 05 bc 73 be
       -0.41751525 0.15284812 -0.105824865 -0.23802193
000320 00 50 8e 3e 29 0a 76 be a9 32 05 be 53 20 7f 3c
       0.2779541 -0.24027313 -0.13007607 0.015571672
000330 fd 06 48 bf 3b 98 b5 be 49 ed 5f 3d 2d 39 a7 3c
       -0.78135663 -0.35467705 0.054669652 0.020413006
000340 31 41 88 3e a8 7a 1a 3e 6b 1e 8b bc be 4b d1 3d
       0.26612237 0.15085852 -0.016982278 0.10219525
000350 60 8e f5 bd 7a 46 8c 3e 28 04 d8 bd 4e ac 83 be
       -0.119900465 0.2739752 -0.10547668 -0.25717396
000360 88 c8 30 be 2d 02 72 3d ea 0c cb 3e 92 a7 dc 3e
       -0.17263997 0.059084106 0.3965829 0.43096596
000370 b3 ab bc bd 02 5d 9b 3c 6c ad ad be f4 78 6b 3e
       -0.092124365 0.018965248 -0.33921373 0.22995359
000380 0a 97 f8 3d 59 33 1d be 6f 4b 69 bd aa 48 0c be
       0.121381834 -0.15351619 -0.056956705 -0.13699594
000390 a5 23 14 3d 22 df 79 be 4c a6 cb bd b9 9c f1 bc
       0.036166806 -0.24401525 -0.09943828 -0.029493676
0003a0 0e f1 a4 bd 98 d8 11 bf 9c 15 a2 be 9b 81 d8 3e
       -0.0805379 -0.5697112 -0.31657112 0.4228638
0003b0 c1 92 39 be 23 0d d8 3e 9c 97 f1 bd 52 a2 4f 3e
       -0.18122388 0.42197523 -0.11796495 0.20276764
0003c0 99 3d ee 3d 7c 1d 92 bc 6e 4f 28 bf 4a 19 bb 3d
       0.116328426 -0.017836325 -0.657462 0.09135683
0003d0 61 34 50 3e db 92 97 be 9c ac 81 bd 5e 18 71 3e
       0.20332481 -0.2960423 -0.06331751 0.23544452
0003e0 9a 7d 5d be 2f ca 20 3f 34 f2 02 3f 49 27 62 bc
       -0.21629944 0.6280851 0.5115082 -0.013803312
0003f0 59 b7 d1 3e 45 aa 1a be 7a f0 c9 bd 9c b6 9d be
       0.40960196 -0.15104015 -0.098603204 -0.30803382

gru.bias_ih_l0_reverse f4 [96]
000000 da 6e d0 3d a2 b8 43 3e 1d 1c 4a be c9 e3 58 3e
       0.10177393 0.191134 -0.19737287 0.21180643
000010 f9 8c c9 3e d0 8e ad 3e 80 37 22 3e 81 23 10 3e
       0.39365366 0.3389802 0.15841484 0.14076044
000020 c2 3a 33 3e ea e7 5c 3e d7 d6 f3 bc 75 dc 01 3e
       0.17502883 0.21572843 -0.02976553 0.12681754
000030 d8 ff ca bd 65 d0 0c 3e 3c 77 ea 3d fe ce 75 3e
       -0.099120796 0.13751371 0.114485234 0.24004743
000040 61 be 50 bb 4f 88 ef bd 11 ec fe 3d 89 b3 e8 3c
       -0.0031851756 -0.11695921 0.1244737 0.028405922
000050 04 c5 74 3d 47 e0 0f 3e 51 11 de bd 74 58 f7 3c
       0.0597582 0.14050399 -0.108431466 0.030193545
000060 4a 97 6e 3e e1 6f 11 3e cd 5b 0e 3e c8 a5 0b 3e
       0.232999 0.14202835 0.13902207 0.1363746
000070 e3 c5 39 3e 0f a0 2d 3e 78 2e 2a 3e 64 71 9b 3d
       0.18141894 0.16955589 0.16619289 0.07589987
000080 97 50 13 bf 70 0a 2b be 97 82 e5 be 29 28 07 bf
       -0.57544845 -0.167032 -0.44826195 -0.52795655
000090 cc ad df bd ba ce 19 3e 4d 52 a6 bd 63 ae 37 be
       -0.10921821 0.15020266 -0.081211664 -0.17937617
0000a0 25 a2 09 bf 78 b9 26 3d a6 66 1a be 48 9f 84 bf
       -0.5376304 0.04070422 -0.1507822 -1.0361109
0000b0 a3 e3 d8 3e ba 45 1a bf ae 45 b0 bc c4 6e 21 bf
       0.42361173 -0.60262644 -0.0215176 -0.6305964
0000c0 a1 0b a7 be a9 a4 02 bd 39 76 aa be 6e 60 40 be
       -0.3262606 -0.031895313 -0.33293322 -0.18786785
0000d0 77 08 27 bf ab 19 8e 3e 4d 8f 36 be 7e 05 b1 be
       -0.6524729 0.27753958 -0.17828102 -0.34574503
0000e0 bc a8 47 be 26 ac 92 3d 26 da 1e 3e b7 b8 46 be
       -0.19497961 0.07161741 0.15512905 -0.194064
0000f0 9c 27 90 bf 65 70 bc be 98 58 ab 3d 28 ca 5d bd
       -1.1262088 -0.368045 0.08366507 -0.05414787
000100 3f 69 c5 3d 5d a2 8e 3c 42 5d b8 bd 8a a1 87 bd
       0.09639215 0.017411405 -0.090021625 -0.06622608
000110 1d 7c 3a bd 8b 8f 98 3d d8 f2 a5 3d 36 fe 6a bd
       -0.04552852 0.07449254 0.081029594 -0.05737134
000120 31 e2 84 bd c4 43 95 3d 60 e7 90 bc 2e c6 e5 bd
       -0.06488455 0.07288316 -0.017688453 -0.112194404
000130 c9 78 9f bd ad 69 c4 bd ee 60 23 3d 4c a4 68 3b
       -0.0778671 -0.095904686 0.03988736 0.003549832
000140 15 d8 ff bb bf ba 5e bd 4b 0e 0a 3d 7e 15 bd 3d
       -0.0078077414 -0.054377314 0.033705037 0.09232615
000150 b3 02 45 bd 2e ce 21 bc d0 a7 84 3d b3 0c 8a bd
       -0.048098277 -0.009875817 0.0647732 -0.067407034
000160 a7 7d 8a 3c 81 dd 48 3c 1b 48 86 bc 6d 04 ae 3d
       0.016905619 0.012259842 -0.016391804 0.08496938
000170 10 72 92 bd fa a0 54 bc 79 9b 97 ba 0b 13 0d 3e
       -0.07150662 -0.012977833 -0.001156672 0.13776796

gru.bias_hh_l0_reverse f4 [96]
000000 d7 57 6e 3d 19 ec 3f 3e 19 51 02 be d4 75 1d 3e
       0.05818924 0.18742408 -0.12726249 0.15376979
000010 35 96 e5 3d 3b 62 6b 3e 0c 31 11 3e 4b 8b 88 3c
       0.1121029 0.2298669 0.14178866 0.016667983
000020 5d ec 94 3e b0 0d 95 bd 82 c6 fc 3d 98 e5 ae bd
       0.2908658 -0.07278001 0.1234255 -0.08539885
000030 d2 73 b2 3a d1 b6 e5 3d 55 f4 02 3e f3 ee 68 3c
       0.0013614839 0.1121651 0.12788518 0.014217126
000040 b5 d4 46 be 47 66 0d 3e 49 ee 85 3e 44 d7 8c 3d
       -0.19417079 0.13808547 0.2615836 0.06876996
000050 23 6c b3 bd 63 51 07 3d 35 54 15 be 4a 58 5d 3e
       -0.0876086 0.0330366 -0.14582904 0.21615711
000060 2e 4b ad bd 63 f5 ed 3c 9f 22 4c 3e 2c 72 a8 3d
       -0.08461605 0.029047674 0.19935082 0.082249016
000070 27 03 cb bd 4b 6a 9e 3e 36 53 f1 bc d8 45 00 3e
       -0.09912711 0.3094047 -0.029458623 0.12526643
000080 47 0c 0c bf d1 f6 e9 3d aa 37 8d be b5 7d a1 be
       -0.54706234 0.114240296 -0.2758153 -0.3154122
000090 71 a0 08 be 52 3b 7f 3e 30 c4 3d be 8c 17 11 3d
       -0.13342454 0.24924973 -0.18531871 0.035422847
0000a0 3f 4a b9 be 46 c7 1b bb 0a 71 6e bd 4e 11 84 bf
       -0.36189458 -0.00237699 -0.05821327 -1.0317781
0000b0 80 8e d8 3e 95 a7 05 bf e4 f8 1a be b2 ca 13 bf
       0.4229622 -0.52208835 -0.15134007 -0.57731164
0000c0 4f 54 90 bd 33 8e bb 3c 06 d0 da bd f4 f4 84 bd
       -0.070473306 0.022894954 -0.106842086 -0.064920336
0000d0 11 b0 62 bf 87 db 3f 3e 71 56 9a be 20 1c d9 be
       -0.88549906 0.18736087 -0.30144075 -0.4240427
0000e0 b8 f7 08 be 75 bc 86 3d b3 6f b7 3e d2 7b 61 be
       -0.13375747 0.06578914 0.35827407 -0.2201989
0000f0 35 c3 80 bf 2e 8e ce be ea 5d ff 3d 1c 80 1a be
       -1.0059572 -0.4034285 0.124690846 -0.15087932
000100 00 72 2b be 51 74 16 3d d0 34 98 bc de f2 1c 3e
       -0.16742706 0.03673202 -0.01857987 0.15327021
000110 07 2e 9a 3c 44 4d fd bc f5 cb 9b bd 83 51 6f 3c
       0.018820776 -0.030920632 -0.07607261 0.014606836
000120 8c 8e 08 3e 10 2f 18 be 47 e1 a0 bc 4c d4 51 3e
       0.13335627 -0.14861703 -0.01963867 0.20491141
000130 dd d8 07 3e b0 03 cc 3d e0 7d ce bb 2e a0 37 bc
       0.1326632 0.09961641 -0.0063016266 -0.011207623
000140 22 7f 8e 3d 68 c6 d9 3d f1 17 49 bc f9 ef 18 be
       0.069578424 0.10633546 -0.0122737745 -0.14935292
000150 77 d7 31 3d 8b 9f d6 3c 83 d4 ac bd 4e 88 b4 3d
       0.043418374 0.026199123 -0.08438971 0.088150606
000160 81 d6 a0 bd fa 4b 98 bc 98 05 35 3d 8f 47 1b bd
       -0.078534134 -0.018590916 0.044194788 -0.03791004
000170 e2 56 0a 3e 69 0c 36 3c 10 7c 97 bd 73 b9 df bd
       0.13509706 0.011111357 -0.0739671 -0.109240435

dense.1.fn.net.0.weight f4 [64, 64]
000000 f8 11 4b 3d 72 f7 72 3e 6e 4e 01 3d 2c c4 36 bd
       0.049577683 0.23727205 0.031568937 -0.044620678
000010 ed ae 21 3e 17 8d 55 3d 7a ee 11 3d 75 66 5a bd
       0.15789385 0.052136507 0.03562782 -0.053320367
000020 07 5e 59 3e b5 5c 28 bd b1 2f 42 bb 53 49 2a 3d
       0.21227275 -0.041104037 -0.0029630477 0.041573834
000030 94 3b 04 3e fb a0 87 3d e3 15 be bd 57 20 0c be
       0.12913352 0.066225015 -0.09281518 -0.13684212
000040 69 c0 11 3d e3 f4 39 bd 25 a9 00 3d 02 55 38 bd
       0.035583887 -0.045399558 0.03141131 -0.045002945
000050 88 93 85 3d bb 0b 88 bc 6b 6e 34 3d 24 d6 35 3d
       0.0652228 -0.016607156 0.044050615 0.044393674
000060 00 4f a3 bd f8 6f b3 3b 49 41 ea 3d 73 7a df bd
       -0.079740524 0.005475994 0.114382334 -0.10912027
000070 41 39 b2 bc 55 5c 23 3d 4b 96 c4 3d 9e 63 92 bd
       -0.021755816 0.039882977 0.095989786 -0.07147907
000080 e0 9c a2 bd ba ff c3 bd 8a 3d d3 bc c6 9e 80 bc
       -0.07940078 -0.0957026 -0.02578618 -0.01570071
000090 89 54 93 bd ce 66 21 3d 8b 6f de bd 6c 03 82 3d
       -0.07193858 0.039404683 -0.10861119 0.06348309
0000a0 6d e6 d9 bd 21 d0 c1 bd 9f 87 0b bd fc 65 d2 3d
       -0.10639653 -0.094635256 -0.034064885 0.10273358
0000b0 5f 3e bd bd ed 3b 87 3d a7 a4 b9 39 3b 02 97 3d
       -0.09240412 0.06603227 0.00035408625 0.07373472
0000c0 1a 0d 56 3d 03 02 f3 bd a3 49 29 bd b3 3a e1 3d
       0.05225859 -0.11865618 -0.04132999 0.10997524
0000d0 3f 35 57 bd c1 e4 c8 3d ce 4e 43 3e 07 c7 1a bd
       -0.052541014 0.09809256 0.1907303 -0.037787464
0000e0 57 77 91 bd be 71 51 bd a2 7e ef 3d 74 bf 65 bd
       -0.071028404 -0.051133864 0.11694075 -0.056090787
0000f0 f0 52 02 bd 52 3d 58 bd 18 6e 2e 3e de 7f 01 be
       -0.031817377 -0.052792855 0.17034185 -0.12646434
000100 62 87 dd 3d b4 2b 96 bd cc 28 df 3d df 3e 54 bd
       0.10816838 -0.073325545 0.10896453 -0.05181777
000110 f5 da 80 bd 6d 9f 1a 3c c6 8a 44 bd 4e 91 b1 3b
       -0.06291763 0.009437424 -0.047983907 0.005418933
000120 2c 42 43 3e 48 47 38 3c fd f0 da bd c5 41 27 3c
       0.19068211 0.0112474635 -0.10690496 0.010208552
000130 9b 7d 3b be ad ce ec bd 78 4b 93 3d da c6 0a bd
       -0.18309633 -0.11562858 0.07192129 -0.033881046
000140 e0 26 4f bb 03 1e 6f 3e 85 72 15 be 95 78 25 bd
       -0.0031608865 0.23351292 -0.14594467 -0.0403982
000150 6c b3 fc bc 0d 03 99 3d ee 2e ba 3c 4a da 0e bd
       -0.030847274 0.07471285 0.022727456 -0.034876145
000160 9b 20 46 be 1d e5 87 bd ca ec 58 3d e0 0d df 3d
       -0.19348375 -0.06635497 0.052960195 0.10891318
000170 3e 59 bc bd 96 62 3a bd 78 7a b1 3a 2d d9 e2 bd
       -0.09196709 -0.045504175 0.0013540527 -0.11076579
000180 82 eb ef 3d 9c 40 5f bc f2 8a a8 3c 6f 2c 00 be
       0.117148414 -0.013626244 0.020574067 -0.1251695
000190 81 34 1c 3d 87 39 da bd 2e c9 ca 3d ec 7a a1 bd
       0.03813601 -0.10655504 0.09901653 -0.078847736
0001a0 68 17 c7 3d b0 ff 97 3d f6 f0 16 bc a6 13 8f 3a
       0.09721261 0.074218154 -0.009212723 0.001091589
0001b0 84 1b 5f 3d 09 8c 0b bd 93 e8 9f bd 4b e4 8d be
       0.0544696 -0.034069095 -0.07808032 -0.27713236
0001c0 f9 32 bf bc 46 46 ea 3d b2 09 31 3d 93 c2 ce bd
       -0.023339735 0.11439185 0.043222137 -0.10095706
0001d0 8c c6 a9 3c 83 a8 65 bd 31 ce 94 bd 56 6c 62 3d
       0.020724557 -0.05606891 -0.072658904 0.0552791
0001e0 33 b1 04 3c 0d 8c a8 bd 37 3c c3 bd 01 c9 ac 3c
       0.008098888 -0.082298376 -0.095329694 0.02109194
0001f0 8b fe 25 bd 0a 93 43 bd 76 cb e3 bd bb a6 ad bc
       -0.040525954 -0.04774765 -0.111227915 -0.021197667
000200 44 b6 69 3c e7 83 8b 3d aa 8a bf bc 2a 94 ca bc
       0.014264647 0.06812268 -0.02338155 -0.024728853
000210 9a fe f5 bd 76 44 68 bd 63 ef 98 bd 54 cf 02 3e
       -0.12011452 -0.056705914 -0.074675344 0.12774402
000220 2f 80 77 bd 54 48 a4 bc 83 da d4 3d c7 c9 c8 3c
       -0.06042498 -0.02005402 0.1039324 0.024510277
000230 92 d9 79 be bc 24 83 3c f6 ee 23 bc 2f 16 89 3c
       -0.24399403 0.016008727 -0.010005703 0.01673421
000240 ee bd 75 bd 00 fb 50 3e d3 78 4d be 27 d3 84 bd
       -0.059995584 0.20408249 -0.20065622 -0.064855866
000250 1a b9 e5 3d 5e 3b 2e 3d 91 36 ca 3d 0a f1 34 be
       0.11216946 0.042537086 0.09873689 -0.17670074
000260 50 ad 51 bd ed 2c b6 bd b6 16 91 bd 62 1c 8a 3d
       -0.051190674 -0.08895288 -0.0708441 0.06743695
000270 2b 0d 67 3b 8b 66 32 3d ba cf 93 be 98 58 78 bc
       0.0035255651 0.043554824 -0.2886942 -0.015157841
000280 67 b9 ff 3c 24 80 84 3c b8 ef 80 bb db bf ee 3d
       0.031216336 0.016174383 -0.0039348267 0.11657687
000290 cb 92 04 3d 13 a2 b9 3c 58 73 84 3d 52 e3 a4 bd
       0.032366555 0.02266029 0.064673126 -0.080511704
0002a0 ce 3d a3 bd f9 fb 08 3e 8b a6 34 3e 4b 9b 13 3d
       -0.07970773 0.1337737 0.17641656 0.03603677
0002b0 6f ce 60 3e 14 81 74 bd bb 55 4f bd ef e6 6c bd
       0.21953748 -0.05969341 -0.05061887 -0.057837423
0002c0 90 f0 0b bd 84 4b c5 3d 1e bb d2 bc 9c 62 02 be
       -0.034164965 0.09633544 -0.02572399 -0.12732929
0002d0 45 14 29 3d ec 60 67 3d 71 bd 75 3d 14 bb 7e 3d
       0.041279096 0.056488916 0.05999512 0.06219013
0002e0 13 c6 d1 bb d2 3b ef 3d ad 10 02 be c6 6d 10 bd
       -0.006401786 0.11681332 -0.12701674 -0.035260938
0002f0 78 16 dc bd 4f 5f 41 3d db 33 c8 bd da fb c5 3d
       -0.10746473 0.047210034 -0.09775516 0.096671775
000300 db 94 39 3d 6b 93 af 3c ad 6d 1c 3e 99 5c c6 3c
       0.045307975 0.021432599 0.15276213 0.024214076
000310 db fc 46 bd 4f 5a 46 be 69 ab 33 be ad b5 41 bd
       -0.048580986 -0.19370387 -0.17545857 -0.0472924
000320 9b 19 f5 3d 66 71 4c be f7 20 2e bd 38 b0 0e 3d
       0.119677745 -0.19965133 -0.042511906 0.034836024
000330 92 ac 40 3d 4a 13 37 be 84 7f 6d 3d 76 5d d0 bd
       0.047039576 -0.17878452 0.057982937 -0.10174076
000340 a7 94 69 bd ba fc 62 3e 64 20 de bd fd f7 85 bc
       -0.05702653 0.2216672 -0.10846022 -0.016353602
000350 fa 15 9c bd 51 aa e7 3d 62 b3 00 bc 27 48 ee bb
       -0.07621379 0.11311782 -0.007855268 -0.007271785
000360 e3 39 12 be dc d2 b8 be 2e 1a 16 3e 44 69 b6 3d
       -0.14279895 -0.36098373 0.14658424 0.089067966
000370 b9 fb d2 3d fe d5 f9 bd b8 74 c2 bc e2 5c d6 bd
       0.103019185 -0.12199019 -0.023737296 -0.10466935
000380 03 b6 22 3c 9c 2f 0d bc 42 c2 49 bd e2 15 6c 3d
       0.00993109 -0.008617308 -0.049257524 0.057638057
000390 85 cf e6 3c f7 e8 dd 3a 41 ba a5 3d 80 a2 6a 3c
       0.028175125 0.0016930391 0.08092166 0.01432097
0003a0 c3 fd a9 3c 28 6c 04 3d e0 7c e3 3d ef 8f 31 3d
       0.020750886 0.03232971 0.111078024 0.043350156
0003b0 b2 27 9e 3d 6d 92 03 be cd d2 bf bd 49 10 e4 bd
       0.07722415 -0.12848826 -0.09366379 -0.11135919
0003c0 95 d6 ab bd a2 cc 11 3d 3f 56 dc 3c 3f 42 ae bd
       -0.08390538 0.035595544 0.026896594 -0.08508729
0003d0 0b 5f 4f 3d aa 8b 49 3d 26 5e c6 ba 31 ed 95 3c
       0.05062775 0.04920546 -0.001513426 0.018301578
0003e0 7f 9f 99 3d 5f 22 14 bd f2 b9 42 be 93 aa f7 bc
       0.075011246 -0.03616559 -0.19016245 -0.030232703
0003f0 44 05 8b 3b 4f cc b2 3c f5 2c 2a be ef 40 69 3d
       0.004242571 0.021825938 -0.16618712 0.05694669

dense.1.fn.net.0.bias f4 [64]
000000 81 8f e8 3b 6c b4 94 3d f9 38 a6 3d 22 10 b8 3d
       0.007097185 0.07260975 0.081163354 0.08987452
000010 fb e0 3a 3d bf 02 2c 3d af 41 dd bc 62 a6 ad 3d
       0.045624714 0.041994806 -0.02700886 0.08479001
000020 9b 15 a7 bb 5e b2 88 3d 65 3c 13 be 93 b7 b5 3d
       -0.005099011 0.06674646 -0.14378507 0.08872905
000030 0d 3f 8f 3d 07 13 e1 3d 01 e8 4c 3d 0f 40 88 3d
       0.06994448 0.10989957 0.050025944 0.06652843
000040 70 98 0d 3d 5f 06 a2 3d 67 b2 35 3d 76 16 ba bd
       0.034569204 0.079113714 0.04435959 -0.09086315
000050 e8 bd 16 bc 44 85 06 bd 54 47 10 3d 0e 36 78 3b
       -0.009200551 -0.032841936 0.035224274 0.0037874016
000060 52 66 0b 3d f5 bd 9b 3d 6a 52 7d 3d 79 98 1c 3d
       0.034033127 0.07604591 0.061846174 0.038231347
000070 67 86 da bd 25 e4 24 bd f5 52 2d 3d b3 70 95 bc
       -0.106701665 -0.040256638 0.042315442 -0.018242216
000080 b2 5f 63 be b0 8b 2b be 57 52 19 3d 0a 04 4f 3d
       -0.22204474 -0.16752505 0.03743204 0.05054096
000090 9d a8 9f 3d 89 9c 85 be 48 22 8e bc 2b a3 fc bc
       0.07795832 -0.2609599 -0.017350331 -0.030839523
0000a0 24 d1 83 3c da 8b ff bb c1 98 c5 3d 29 d3 84 3d
       0.016090937 -0.007798654 0.09648276 0.06485588
0000b0 06 dc 24 bd 47 1c 80 3d e8 b0 09 3d 4e 97 e7 3d
       -0.040248893 0.062553935 0.033615977 0.11308156
0000c0 e5 f5 fb bc f6 56 3f be 2c b9 d3 3d 4e 15 81 3d
       -0.0307569 -0.18685517 0.10338053 0.06302892
0000d0 59 60 55 bd a6 59 c0 bc cc 1e 8a 3c c6 f0 8a 3d
       -0.052093837 -0.023480248 0.016860388 0.06784205
0000e0 4c e8 df 3b c5 a0 e7 3c 03 56 cb 3d 91 3e 50 bd
       0.006833112 0.028274903 0.09928515 -0.050840918
0000f0 60 a6 9c 3d 16 7c 89 3d ef 46 19 3d f5 df 71 be
       0.07648921 0.06713121 0.037421163 -0.23620589
