model/LRNet_weights/g2_c23.pth (torch, 167877 bytes, 15 tensors)

hidden_state f4 [2, 1, 32]
-0.99219584 -0.99503005 1.743797 -0.50034875 0.2370897 1.2350013 -0.14154808 -0.15471959
-0.3826211 0.02929599 -0.29692644 -1.5602783 1.2556885 -0.27808154 -1.3767761 0.005309732
0.6240801 0.74433917 0.0737189 -0.35424942 1.4324293 0.66875184 -0.9757461 -0.16520403
-0.1696443 0.07515195 -0.94288856 0.08720395 -0.57566696 1.1626353 0.032898203 0.3454013
1.723142 -0.09705503 -0.09268457 -0.041721966 -0.82437414 -1.2961284 -0.2686069 0.8232109
-0.52891517 0.51340175 -1.1910799 0.41400003 0.7906542 0.08268769 0.27956697 0.60655737
-0.39516097 0.5926834 -0.45328578 -0.747674 -2.3172045 0.38803095 -0.046475668 1.6723493
-0.44606334 0.11928863 1.1494421 -0.826134 0.9730367 1.80891 -0.28123924 0.16515619
00000000: 8c00 7ebf 4aba 7ebf bd34 df3f db16 00bf
00000010: a4c7 723e 8614 9e3f fbf1 10be d06e 1ebe
00000020: eae6 c3be 25fe ef3c be06 98be 33b7 c7bf
00000030: 67ba a03f b460 8ebe 333a b0bf 43fd ad3b
00000040: b7c3 1f3f 038d 3e3f eff9 963d 2e60 b5be
00000050: d859 b73f 5233 2b3f 7fca 79bf 3f2b 29be
00000060: 3cb7 2dbe 44e9 993d 2561 71bf fc97 b23d
00000070: e95e 13bf 3cd1 943f 44c0 063d 70d8 b03e
00000080: eb8f dc3f cac4 c6bd 68d1 bdbd a7e4 2abd
00000090: 2f0a 53bf 89e7 a5bf d886 89be f3bd 523f
000000a0: fc66 07bf 4c6e 033f 4e75 98bf d0f7 d33e
000000b0: 5068 4a3f 2a58 a93d 6723 8f3e 5847 1b3f
000000c0: 8a52 cabe 19ba 173f 1315 e8be 9067 3fbf
000000d0: 144d 14c0 feab c63e 455d 3ebd 8b0f d63f
000000e0: 6a62 e4be 994d f43d eb20 933f 857d 53bf
000000f0: ef18 793f 5d8a e73f 97fe 8fbe b41e 293e

gru.weight_ih_l0 f4 [96, 136]
0.8394327 -0.8088143 0.82064265 -1.1572943 0.008463077 -0.78593343 1.1532573 -2.1088207
1.2727171 -0.13492829 -0.554607 -1.8861725 -1.275811 -2.7527764 -0.9427955 -1.2780507
-0.70770055 0.29709795 0.7074491 0.49328738 -0.50929636 1.4950238 0.34750262 0.47480404
0.6120382 0.65436476 1.4247121 -0.41698924 0.7421803 0.9969611 0.3418171 0.7317874
1.6433097 0.22052877 -0.3678901 1.0317098 -0.15211478 1.9569739 -0.45685485 0.8590587
-0.24360886 1.6902744 0.16255641 1.6020172 0.65749884 -0.15363094 1.2325546 1.441027
0.6022282 0.9025506 1.7829188 0.7395765 0.21276447 0.68685883 0.38827595 -2.1548262
0.46435708 1.7919817 0.6466936 0.34451175 0.4108543 -0.32550323 0.17082885 0.070255235
0.7161257 0.64342725 0.24597968 0.91887414 0.7604028 0.0048772856 -0.008453574 -0.5131152
-1.2223237 -0.8232278 0.24688862 -1.0202588 0.31021816 -1.1956757 0.7780032 -0.19587314
0.15796724 0.66328573 -0.7425092 0.0650805 0.3733476 -0.58018607 -0.24180613 -0.9588607
1.0160178 -1.9477613 0.9334664 -0.76787734 0.8310837 -1.0756364 0.6847896 -0.2683895
1.0924108 2.3944395 0.22656886 -0.2830084 0.35413834 -0.9322432 0.4756897 -0.88628113
0.35772347 -1.0343051 0.29847538 -0.18429798 -0.3442764 1.9877045 0.34716722 0.37289432
0.121740066 0.68384254 -0.49087217 -0.06598981 -0.44268787 0.13037233 0.002282505 0.47300622
1.1854583 1.047745 -0.35664502 0.019821143 0.4273851 0.3762027 0.033937965 -0.3291448
-0.18111953 2.4138224 1.0122664 -1.5461589 -0.12703374 -0.91150564 -0.46620727 -1.4831384
0.2867556 -0.37491867 0.49620965 -0.61843145 1.5098833 -0.8644474 0.38384876 -1.4781426
0.8258884 -0.6307446 1.4130356 0.37562135 0.8429089 -1.0513924 1.3437908 0.42822388
0.66948134 0.35464925 0.39281324 -0.9570045 0.4143667 -1.284107 1.161529 -1.8771852
1.8705157 -1.9329594 1.1865313 -1.13572 0.21316603 -1.3208841 0.4731384 -0.36594364
-0.41377455 -1.5876969 -0.07568999 0.8586541 -1.3530543 1.1744627 -1.3349737 0.35570893
-0.75259656 -0.30472234 -0.77826303 -0.27464506 -0.79252076 -0.12026601 -1.0241051 -1.3568324
-0.94863486 -0.55825645 0.121889494 0.69231087 -0.6960792 0.43008918 -1.2431812 -1.6141651
-1.1018145 -1.5066612 -0.9183287 -1.360149 -0.81735116 0.022947209 -0.97239405 -0.37352178
-0.32102826 0.40309605 -1.0097461 -0.25457743 -0.7979811 -0.90680957 -0.76731867 -0.8366212
-0.35976377 0.9924721 -0.366397 0.3988959 -0.7366765 0.74074477 -0.45498952 0.6058512
-0.47414827 -0.72256416 -0.123907015 0.21093166 -0.9109722 -0.21137507 -1.7919351 -0.5076696
-0.8197486 -0.14979376 -1.0540141 -0.4309295 -2.1741142 0.13198914 -1.5040725 -0.48740664
-0.027200507 0.026608987 -0.13763916 0.38881737 -0.3475303 0.37577674 -0.7748401 0.2826428
-0.30751017 0.3838517 0.3665554 0.8469563 1.1426508 -0.33102122 0.35238022 -1.3218343
0.17402618 -0.27507505 0.44200224 0.011681469 0.5100146 -0.13837467 -0.4963311 -0.40531704
00000000: 10e5 563f 740e 4fbf a315 523f 3822 94bf
00000010: b8a8 0a3c ef32 49bf ef9d 933f ebf6 06c0
00000020: 65e8 a23f a42a 0abe b9fa 0dbf 1a6e f1bf
00000030: c64d a3bf 7d2d 30c0 0c5b 71bf 2a97 a3bf
00000040: dd2b 35bf 391d 983e 621b 353f 2a90 fc3e
00000050: 3f61 02bf f15c bf3f ddeb b13e 8419 f33e
00000060: 89ae 1c3f 7384 273f f75c b63f 9d7f d5be
00000070: 87ff 3d3f d838 7f3f a702 af3e 6b56 3b3f
00000080: f957 d23f 4bd2 613e 175c bcbe 110f 843f
00000090: fac3 1bbe 1f7e fa3f e1e8 e9be 45eb 5b3f
000000a0: 9a74 79be e95a d83f 3075 263e e60e cd3f
000000b0: d851 283f 6e51 1dbe 59c4 9d3f 9373 b83f
000000c0: a12b 1a3f 8e0d 673f af36 e43f e354 3d3f
000000d0: eede 593e fbd5 2f3f 1bcc c63e ace8 09c0
000000e0: 36c0 ed3e a85f e53f b68d 253f d863 b03e
000000f0: 7f5b d23e 5ca8 a6be c2ed 2e3e fae1 8f3d
00000100: 0454 373f a6b7 243f 19e2 7b3e 563b 6b3f
00000110: c2a9 423f a3d1 9f3b dc80 0abc 855b 03bf
00000120: 1a75 9cbf 0fbf 52bf 5fd0 7c3e d797 82bf
00000130: ead4 9e3e e70b 99bf 382b 473f f892 48be
00000140: 2ac2 213e 18cd 293f 1515 3ebf ed48 853d
00000150: 6b27 bf3e 1387 14bf 079c 77be e577 75bf
00000160: df0c 823f 3e50 f9bf a7f7 6e3f 9c93 44bf
00000170: e7c1 543f 74ae 89bf 5f4e 2f3f 596a 89be
00000180: 1ed4 8b3f 7f3e 1940 ab01 683e 7ae6 90be
00000190: 9f51 b53e 7ea7 6ebf 9a8d f33e 52e3 62bf
000001a0: 8827 b73e 1c64 84bf c4d1 983e 9cb8 3cbe
000001b0: ff44 b0be 1a6d fe3f e7bf b13e 01ec be3e
000001c0: db52 f93d 4e10 2f3f 9953 fbbe aa25 87bd
000001d0: fca7 e2be 5380 053e 1496 153b df2d f23e
000001e0: 19bd 973f 821c 863f 2d9a b6be f35f a23c
000001f0: 38d2 da3e a49d c03e 8902 0b3d ab85 a8be
00000200: 6677 39be 117c 1a40 f291 813f 89e8 c5bf
00000210: 2215 02be 6f58 69bf b8b2 eebe 7bd7 bdbf
00000220: a1d1 923e 57f5 bfbe 310f fe3e 8651 1ebf
00000230: db43 c13f 6d4c 5dbf d387 c43e c733 bdbf
00000240: 6c6d 533f 7a78 21bf 5ade b43f 7151 c03e
00000250: e1c8 573f 0794 86bf 5601 ac3f 2940 db3e
00000260: 2163 2b3f 9694 b53e d11e c93e 3ffe 74bf
00000270: df27 d43e 9e5d a4bf fbac 943f 9b47 f0bf
00000280: 0f6d ef3f 376b f7bf 42e0 973f 465f 91bf
00000290: 3248 5a3e bb12 a9bf 323f f23e f75c bbbe
000002a0: 42da d3be a739 cbbf 5a03 9bbd c1d0 5b3f
000002b0: e230 adbf cb54 963f 6be0 aabf 7b1f b63e
000002c0: 2baa 40bf 9104 9cbe 3f3c 47bf 479e 8cbe
000002d0: a4e2 4abf 074e f6bd e015 83bf afac adbf
000002e0: bcd9 72bf e5e9 0ebf 33a1 f93d 493b 313f
000002f0: 3f32 32bf a634 dc3e 9020 9fbf f69c cebf
00000300: 4208 8dbf 46da c0bf 9717 6bbf 5d19 aebf
00000310: ed3d 51bf c9fb bb3c d1ee 78bf 3f3e bfbe
00000320: d15d a4be 9b62 ce3e 5c3f 81bf f957 82be
00000330: 7d48 4cbf ac24 68bf ff6e 44bf cf2c 56bf
00000340: f532 b8be a712 7e3f 6398 bbbe 153c cc3e
00000350: d596 3cbf 73a1 3d3f 63f4 e8be 1019 1b3f
00000360: 90c3 f2be f7f9 38bf f6c2 fdbd 78fe 573e
00000370: 7935 69bf b572 58be 215e e5bf a3f6 01bf
00000380: 0bdb 51bf 8963 19be efe9 86bf cba2 dcbe
00000390: b024 0bc0 2928 073e 7385 c0bf 5d8d f9be
000003a0: 99d3 debc 17fb d93c 48f1 0cbe 1213 c73e
000003b0: 7eef b1be cf65 c03e ec5b 46bf 8fb6 903e
000003c0: f971 9dbe 3688 c43e 26ad bb3e 21d2 583f
000003d0: 6242 923f 9d7b a9be 2e6b b43e de31 a9bf
000003e0: eb33 323e a3d6 8cbe 1e4e e23e a263 3f3c
000003f0: 5190 023f 17b2 0dbe 1c1f febe b785 cfbe

gru.weight_hh_l0 f4 [96, 32]
-0.1228395 -0.8049422 -0.2998133 -0.13198353 -0.21717635 0.011327297 0.85406375 -0.4596506
0.12399321 -0.3608845 -0.43971318 1.0305145 -0.109091386 0.55137414 0.01938097 0.22452235
-0.546175 -0.68526244 -0.1717885 -0.8373954 -0.3368651 -0.59064734 0.20735203 -0.07665174
-0.015784036 -0.37418407 -0.011016897 -0.7536907 0.21964765 0.1278604 -0.8047217 -0.21132493
0.62099755 0.19251835 -0.7359405 0.34390566 -0.10557669 -0.37459177 0.48495537 0.08243777
0.85371155 -0.16870594 -0.83702797 0.66855866 -0.45321792 -0.5528313 -0.35652146 0.19854914
0.5394545 -0.47905412 -0.069513865 -0.186177 -0.38505888 -0.5818903 -0.46764562 0.054890785
0.21858115 0.6609876 -0.36542192 -0.22635414 -0.3414961 -0.21415418 0.3135874 -0.62447566
0.15759182 -0.35247773 0.34848157 0.18886842 0.24646565 0.5017191 -0.04196695 0.15513518
-0.08087148 0.16834152 -0.07087813 -0.09862115 -0.1793544 0.2871672 0.22810367 0.09413409
-0.040199853 -0.021777213 0.5428418 0.063319504 -0.69421726 -0.1629695 -0.28344005 0.5282772
0.5077972 0.68789095 0.23578934 -0.43825153 0.23022927 -0.011887675 -0.018461028 -0.77933407
-0.2533665 -0.5497814 0.11064593 0.4703642 -0.14656818 -0.10412924 -0.28904513 -0.6701082
-0.13203156 -0.22761093 -0.34036148 -0.38004762 0.052642994 -0.07342718 -0.08556908 -0.37124547
-0.49715957 -0.16315086 -0.36435872 -0.695241 0.4310209 -0.08016749 0.467326 0.11381189
0.54057777 0.65836185 -0.66972226 -0.62645465 -0.34742826 0.013642092 -0.6110227 -0.058808096
-0.40865934 -0.09696173 -0.101963244 -0.23276246 0.16372086 -0.5103536 -0.076499745 0.36370847
0.24216728 0.34375063 -0.051035047 0.119102 -0.07740215 -0.44863206 0.056973383 -0.8150571
0.40195015 -0.37856656 -0.04459173 0.029339857 -0.5321646 -0.5561381 0.8185619 0.16720963
0.40533605 0.08301743 0.442478 -0.70528 -0.10094677 -0.5857342 -0.42502272 -0.3879785
0.45123303 0.0025743074 0.09652922 -0.26982063 -0.059082832 0.2550092 0.09420214 0.55929154
-0.027587887 0.44869354 0.08902358 0.05331703 0.06459664 -0.36180577 0.22161688 0.30537623
-0.27084965 -0.07120671 0.045369685 -0.4931692 -0.050140914 0.7323902 -0.10101466 0.20982993
0.007616984 -0.29953584 0.6466931 -0.9082994 -1.2571036 0.4486641 -0.15271361 -0.19970389
0.032877643 0.68108803 -0.00059401174 -0.02219887 -0.112314165 0.19500417 0.54424644 -0.5060136
-0.018704582 -0.006695396 0.36924487 0.50671965 -0.056170397 0.3973236 0.09172434 1.1154797
-0.2348814 -0.08701245 -0.24372631 -0.44094273 0.091241755 -0.14617638 0.096334286 0.9497225
0.15302569 1.177835 -0.26613772 -0.96823245 0.13420169 -0.4905882 0.044173624 -0.54353744
-0.1541228 -0.35716003 0.11187794 0.04111171 -0.8196532 -0.37162375 0.8178036 0.45539147
-0.039421294 -0.35288918 -0.14286052 0.40849757 0.0354651 -0.23711802 0.15721175 -0.10445428
-0.63184273 0.0013018523 -0.7964064 -0.110449985 0.6395747 -0.51803845 0.09692456 0.42088872
0.37730506 0.5039295 -0.82565516 -1.188615 -0.17923996 -0.75548124 0.48886025 -0.97499657
00000000: 4793 fbbd b110 4ebf 2181 99be b126 07be
00000010: 7a63 5ebe 2196 393c eca3 5a3f 5357 ebbe
00000020: 27f0 fd3d dac5 b8be 1622 e1be e6e7 833f
00000030: 4e6b dfbd db26 0d3f d7c4 9e3c 30e9 653e
00000040: 20d2 0bbf 5c6d 2fbf 53e9 2fbe 8c5f 56bf
00000050: 9579 acbe aa34 17bf 1754 543e 96fb 9cbd
00000060: 864d 81bc 0e95 bfbe 3780 34bc e0f1 40bf
00000070: 50eb 603e d6ed 023e 3e02 4ebf 9065 58be
00000080: b2f9 1e3f 8823 453e 9966 3cbf 6714 b03e
00000090: 9738 d8bd 7eca bfbe 124c f83e 22d5 a83d
000000a0: d78c 5a3f 40c1 2cbe 7747 56bf a926 2b3f
000000b0: 2e0c e8be 5a86 0dbf fb89 b6be 7750 4b3e
000000c0: b119 0a3f 9546 f5be 495d 8ebd 2fa5 3ebe
000000d0: 7026 c5be c3f6 14bf 3f6f efbe 29d5 603d
000000e0: bdd3 5f3e 7c36 293f 9518 bbbe 61c9 67be
000000f0: 94d8 aebe 3c4b 5bbe 878e a03e a3dd 1fbf
00000100: c05f 213e f677 b4be 2d6c b23e b966 413e
00000110: 7e61 7c3e aa70 003f 89e5 2bbd c2db 1e3e
00000120: f29f a5bd b861 2c3e 8e28 91bd e3f9 c9bd
00000130: aea8 37be 9407 933e 0294 693e 60c9 c03d
00000140: 9aa8 24bd 2066 b2bc aef7 0a3f a8ad 813d
00000150: 39b8 31bf 7ae1 26be 0e1f 91be 2d3d 073f
00000160: fffe 013f 9f19 303f c372 713e 8162 e0be
00000170: 39c1 6b3e 86c4 42bc 953b 97bc 7082 47bf
00000180: 41b9 81be 79be 0cbf 559a e23d 94d3 f03e
00000190: f815 16be b641 d5bd b9fd 93be 368c 2bbf
000001a0: 4833 07be d712 69be dc43 aebe 9a95 c2be
000001b0: 2ea0 573d fd60 96bd d83e afbd e313 bebe
000001c0: b38b febe 0511 27be 3a8d babe 50fb 31bf
000001d0: c5ae dc3e da2e a4bd 5a45 ef3e 3516 e93d
000001e0: 4e63 0a3f 678a 283f eb72 2bbf 555f 20bf
000001f0: 1ee2 b1be 1583 5f3c fc6b 1cbf c2e0 70bd
00000200: cc3b d1be df93 c6bd 1bd2 d0bd 4859 6ebe
00000210: 71a6 273e 89a6 02bf e6ab 9cbd ff37 ba3e
00000220: b3fa 773e 1500 b03e 200a 51bd c0eb f33d
00000230: 0585 9ebd 1ab3 e5be ec5c 693d 95a7 50bf
00000240: 69cc cd3e 7ad3 c1be d1a5 36bd 245a f03c
00000250: f03b 08bf 115f 0ebf 468d 513f 0039 2b3e
00000260: 3588 cf3e 0b05 aa3d 7a8c e23e 3b8d 34bf
00000270: 2ebd cebd adf2 15bf 949c d9be 1ea5 c6be
00000280: 0408 e73e b6b5 283b 1db1 c53d ee25 8abe
00000290: d700 72bd 9190 823e 0ded c03d bb2d 0f3f
000002a0: feff e1bc 29bb e53e ff51 b63d f562 5a3d
000002b0: 3e4b 843d 9b3e b9be 89ef 623e 465a 9c3e
000002c0: ceac 8abe d3d4 91bd 90d5 393d ac80 fcbe
000002d0: 8f60 4dbd ed7d 3b3f c6e0 cebd a8dd 563e
000002e0: e597 f93b c35c 99be ae8d 253f 4f86 68bf
000002f0: c5e8 a0bf 4db7 e53e f560 1cbe 2d7f 4cbe
00000300: b5aa 063d c95b 2e3f 74b7 1bba 68da b5bc
00000310: f804 e6bd 2caf 473e bc53 0b3f 1b8a 01bf
00000320: 5a3a 99bc 0d65 dbbb aa0d bd3e 61b8 013f
00000330: ee12 66bd 006e cb3e f9d9 bb3d 0ac8 8e3f
00000340: c084 70be 9533 b2bd 6493 79be 3fc3 e1be
00000350: f5dc ba3d 43af 15be e94a c53d 0421 733f
00000360: c4b2 1c3e 4cc3 963f 3443 88be 15de 77bf
00000370: 2b6c 093e 602e fbbe 67ef 343d 4525 0bbf
00000380: 5ed2 1dbe aedd b6be 4320 e53d c164 283d
00000390: cbd4 51bf 7845 bebe 945b 513f 1229 e93e
000003a0: 3978 21bd e4ad b4be 074a 12be 9826 d13e
000003b0: da43 113d 11cf 72be 1efc 203e 20ec d5bd
000003c0: 72c0 21bf eaa2 aa3a 4ae1 4bbf 9a33 e2bd
000003d0: 2bbb 233f 2b9e 04bf 6280 c63d ba7e d73e
000003e0: 212e c13e 8601 013f 235e 53bf 8924 98bf
000003f0: ae8a 37be 3867 41bf e44b fa3e 6099 79bf

gru.bias_ih_l0 f4 [96]
0.10581862 -0.15830332 0.20362994 0.21093933 0.29416478 0.09104517 0.07984201 -0.35028106
-0.019428618 -0.108809076 0.5116519 -0.10539482 0.021202687 0.2586099 -0.049962636 0.38800895
0.21766412 -0.052235186 0.07767426 0.14978872 0.06401586 0.059772365 0.051474333 0.25598916
0.1110533 0.190885 0.17452615 0.0032839298 0.38988134 -0.29115424 -0.06574156 -0.120054476
-0.127546 -0.22338617 -0.09624887 -0.49186876 -0.21271081 -0.3208432 0.009961338 0.62573135
-0.16573323 0.1687191 -0.34888363 0.41344625 -0.7116603 -0.35284063 -0.17627877 -1.64283
-0.52651227 -0.8014577 0.34733903 -0.44295213 0.5619996 0.47672406 -0.12804754 -0.038575213
-0.26157206 0.15613914 0.47758508 -0.070317 -0.28364575 -0.036517527 0.28372702 -0.16351418
-0.005885791 0.018127674 0.050552085 0.09657538 0.14456318 -0.05374016 -0.07011338 -0.046087112
0.00013034964 0.023795746 -0.03196865 -0.065127835 0.023472052 -0.03794074 -0.059563342 0.076560296
0.031352833 0.04546557 0.08052093 -0.0008175093 0.07530474 -0.09405508 -0.03223579 0.050803732
0.063608676 0.08733002 0.05271302 0.09412188 -0.010317254 -0.058253303 0.03594005 -0.051308185
00000000: 6fb7 d83d 441a 22be 5e84 503e 7b00 583e
00000010: c49c 963e e475 ba3d 3584 a33d 0a58 b3be
00000020: c428 9fbc 4bd7 debd 9efb 023f 3dd9 d7bd
00000030: 42b1 ad3c 8468 843e 9fa5 4cbd 1ca9 c63e
00000040: 58e3 5e3e 90f4 55bd af13 9f3d 3762 193e
00000050: bf1a 833d ded3 743d c0d6 523d 0311 833e
00000060: ea6f e33d 5c77 433e fcb6 323e 3337 573b
00000070: 879e c73e 2b12 95be 83a3 86bd 1fdf f5bd
00000080: 6b9b 02be 58bf 64be 211e c5bd 39d6 fbbe
00000090: ddd0 59be 8f45 a4be e134 233c ee2f 203f
000000a0: f9b5 29be b3c4 2c3e e0a0 b2be 3aaf d33e
000000b0: 5f2f 36bf 87a7 b4be 6c82 34be 4148 d2bf
000000c0: 82c9 06bf 552c 4dbf 6cd6 b13e 9fca e2be
000000d0: 35df 0f3f 2d15 f43e e51e 03be 0b01 1ebd
000000e0: c6ec 85be f0e2 1f3e 0886 f43e 5c02 90bd
000000f0: 043a 91be 6793 15bd ab44 913e 4370 27be
00000100: 98dd c0bb 7d80 943c b40f 4f3d 50c9 c53d
00000110: 5f08 143e a41e 5cbd 9b97 8fbd d7c5 3cbd
00000120: 77ae 0839 4cef c23c 8ff1 02bd be61 85bd
00000130: 7648 c03c c067 1bbd b1f8 73bd a5cb 9c3d
00000140: d46b 003d 1b3a 3a3d 28e8 a43d 1f4e 56ba
00000150: 5f39 9a3d f39f c0bd ad09 04bd 9317 503d
00000160: 4445 823d 15da b23d 9ce9 573d f9c2 c03d
00000170: b309 29bc 049b 6ebd e035 133d 8828 52bd

gru.bias_hh_l0 f4 [96]
-0.098728634 -0.016193751 -0.09829564 0.3616167 0.06903594 -0.05095376 0.20485428 -0.20483816
-0.038217057 -0.059964307 0.5275486 -0.19449049 0.025673794 0.21847291 -0.19219099 0.30548498
-0.099894635 0.052649647 -0.011145738 0.07885164 0.14325911 0.34732947 0.20927724 0.23729876
0.16148683 0.1685595 0.052874524 0.17004667 0.24373257 -0.25665224 0.12429768 -0.006912384
0.026132114 -0.11598038 -0.25529242 -0.27724904 -0.22243802 -0.35866648 0.22048865 0.5752704
-0.03927897 0.09385898 -0.34427154 0.606408 -0.8876211 -0.42166582 -0.29570818 -1.6633526
-0.65025324 -0.72256476 0.15578386 -0.52966136 0.6255414 0.50048953 -0.20480342 -0.15121599
-0.41468865 0.07591257 0.56297493 -0.006591225 -0.58322334 -0.004489674 0.32405967 0.056925528
0.0016155796 -0.008852526 -0.10289625 -0.1441341 -0.22443482 0.14489521 0.09299138 -0.029774604
-0.05715614 -0.07666703 -0.017580375 0.07533507 0.008795253 0.04223142 0.11765351 -0.095663324
-0.03230491 -0.11965507 -0.06712708 0.01680779 -0.13824019 0.11567893 0.07371537 -0.046571042
-0.14818719 -0.14281352 -0.118995585 -0.1229307 0.04785306 0.051710933 -0.048771102 -0.015253554
00000000: 3d32 cabd c2a8 84bc 394f c9bd d325 b93e
00000010: b762 8d3d e4b4 50bd 52c5 513e 18c1 51be
00000020: 7d89 1cbd 229d 75bd 6d0d 073f 8428 47be
00000030: d951 d23c 5db7 5f3e b7cd 44be 8768 9c3e
00000040: 8f95 ccbd 28a7 573d 9d9c 36bc f87c a13d
00000050: 84b2 123e 2bd5 b13e c64c 563e 72fe 723e
00000060: ce5c 253e dd9a 2c3e f592 583d b720 2e3e
00000070: 0895 793e ec67 83be c88f fe3d 4881 e2bb
00000080: 0413 d63c 1f87 edbd b0b5 82be 96f3 8dbe
00000090: cbc6 63be 22a3 b7be c7c7 613e ec44 133f
000000a0: fce2 20bd 2339 c03d 5c44 b0be 8e3d 1b3f
000000b0: 233b 63bf 95e4 d7be 1067 97be bde8 d4bf
000000c0: ff76 26bf 01fa 38bf ce85 1f3e e397 07bf
000000d0: 7b23 203f 1520 003f fdb7 51be 5dd8 1abe
000000e0: 1252 d4be 0d78 9b3d 201f 103f 34fb d7bb
000000f0: 204e 15bf 1d1e 93bb 26eb a53e be2a 693d
00000100: dbc1 d33a 2f0a 11bc 45bb d2bd e497 13be
00000110: 3ed2 65be 695f 143e 4472 be3d dfe9 f3bc
00000120: 8f1c 6abd 9b03 9dbd b804 90bc 4649 9a3d
00000130: f719 103c dafa 2c3d 53f4 f03d 22eb c3bd
00000140: 2752 04bd b80d f5bd ec79 89bd 7eb0 893c
00000150: d68e 0dbe 13e9 ec3d 15f8 963d 47c1 3ebd
00000160: 62be 17be b53d 12be f5b3 f3bd 17c3 fbbd
00000170: 9201 443d d8ce 533d 35c4 47bd 0bea 79bc

gru.weight_ih_l0_reverse f4 [96, 136]
-0.26122737 0.66063994 0.10184594 -0.08882917 -1.4199134 0.90797234 -0.32760936 0.9363478
0.42627066 0.42085478 0.053820204 0.53940654 -0.9863058 0.028437424 0.20429733 1.0988889
0.75947964 1.4172932 -0.35748228 0.8555032 -0.06644174 1.0507104 -0.25973606 2.4258807
-0.083989486 0.9789793 0.54757726 1.5008603 0.4502611 0.5912261 1.8115208 1.1307914
1.4298027 0.31750125 -0.8646932 -0.2535047 -1.1151404 -0.19362713 -0.9145858 -0.73634344
-1.4169804 -0.38265952 -1.6083759 -0.67357785 0.80995035 -0.24992071 1.1119652 -1.1077893
0.040693328 -0.35349843 1.0940522 0.059667293 -0.12854856 -0.26567113 0.061625592 0.88136643
-0.42569414 0.12624273 -1.0768983 0.38818544 -0.68693084 1.3012314 -1.4620329 0.55000013
-1.569102 0.0926227 0.3331009 0.15741542 0.5950797 0.14321211 0.2580208 0.84827423
0.15127957 -0.19168848 -0.08942551 0.13264136 -0.45866305 0.166175 0.3307992 0.13900948
1.0168333 0.13716793 0.47984865 -0.061080467 0.94444984 -0.17808169 -0.18424612 0.869771
1.0762781 0.53094727 0.21856728 -0.06384115 -0.27029243 0.38461408 -0.5393186 0.1405793
0.14538082 -0.039756827 -1.552599 0.41678572 -1.6838782 0.3158824 -0.57972777 0.058923084
0.7758879 0.5877175 1.0010289 0.64259076 1.4270173 0.39878502 1.5942793 0.20158954
1.7910353 -0.27483425 0.95291364 0.66466284 -1.3867813 0.33259895 -0.57553875 -0.24605751
-0.17641671 0.10941287 -0.0749369 0.11558108 -1.3435738 0.27160946 1.7669688 0.16186473
1.5068413 -0.29293108 1.8137887 -0.2812964 0.41241065 -0.7083069 -0.50293446 -0.9341765
2.7978196 -0.95087475 1.0904442 -0.7632994 2.1220698 -0.27146822 0.93874294 0.74893403
0.40085885 0.19014211 -0.10667141 0.29899928 -0.6281107 0.8401041 -0.26194707 1.6024581
-0.18318933 1.6615168 0.23642445 0.022150343 -0.5915584 0.7681276 -0.23709065 0.7742259
0.88606566 -0.9469529 0.3927582 0.24839307 1.010738 -0.35328385 1.1200858 1.7937679
0.20067197 1.1998197 -0.8703769 0.34777275 -0.06749201 0.752312 0.35544816 2.0468779
0.23933643 3.1601186 0.88133264 2.1873372 -1.8063879 -0.44951478 -1.341879 -0.34711438
-0.80233586 -0.8732131 -0.6821845 -0.21791868 -0.3953547 -0.45677155 -0.38732043 -1.5054055
-0.03947493 -0.7749264 0.07555906 -0.20413758 0.80816936 -1.0102915 0.34989408 0.36016208
0.18094283 0.51558256 0.4126495 -0.25321615 0.46967667 0.04663178 0.7603632 -0.5646138
-0.14819932 -0.5832049 -0.47336933 -2.0194473 0.3385239 -2.263343 -0.1299487 -1.825755
0.75515187 -1.0649757 0.25148654 -1.5123868 -0.27356967 -2.734083 -0.8394793 -3.154269
0.76140904 -2.7186189 0.19603649 -2.4784558 0.12940271 -2.4464364 -0.7827757 -2.1206257
0.023536071 0.3297084 0.32556525 0.11180028 0.43628737 -0.16776064 0.09539137 0.3296619
0.084724575 0.0605043 0.28253955 -0.4125213 0.028857466 -0.84921193 0.5866122 -0.10728562
0.33724046 0.20235 -0.00037282443 0.9891466 -0.43365845 0.7013763 0.12238415 0.9981571
00000000: 98bf 85be b31f 293f 9b94 d03d 11ec b5bd
00000010: b9bf b5bf e070 683f 6abc a7be 7db4 6f3f
00000020: 2640 da3e 477a d73e 9372 5c3d 8c16 0a3f
00000030: 897e 7cbf 9af5 e83c 5233 513e 64a8 8c3f
00000040: 426d 423f dd69 b53f eb07 b7be 4202 5b3f
00000050: 9b12 88bd ae7d 863f 20fc 84be a141 1b40
00000060: ae02 acbd 639e 7a3f 062e 0c3f 311c c03f
00000070: 9f88 e63e 985a 173f eadf e73f c6bd 903f
00000080: c603 b73f 868f a23e 895c 5dbf 5ecb 81be
00000090: ecbc 8ebf 3146 46be 4c22 6abf 0181 3cbf
000000a0: 9d5f b5bf f3eb c3be 43df cdbf 996f 2cbf
000000b0: e858 4f3f 37eb 7fbe e054 8e3f 0acc 8dbf
000000c0: 0cae 263d bffd b4be e709 8c3f b165 743d
000000d0: 3ca2 03be 0c06 88be 1e6b 7c3d 3ba1 613f
000000e0: 95f4 d9be c645 013e ced7 89bf 3ec0 c63e
000000f0: b3da 2fbf c08e a63f e523 bbbf cfcc 0c3f
00000100: 56d8 c8bf f8b0 bd3d 338c aa3e 8231 213e
00000110: 2557 183f 32a6 123e 4d1b 843e 8028 593f
00000120: 08e9 1a3e fc49 44be b924 b7bd 23d3 073e
00000130: e2d5 eabe c729 2a3e 835e a93e 8058 0e3e
00000140: 9827 823f c075 0c3e b9ae f53e 832f 7abd
00000150: 77c7 713f 0c5b 36be 04ab 3cbe 50a9 5e3f
00000160: 7bc3 893f 29ec 073f 1ad0 5f3e 26bf 82bd
00000170: c563 8abe 23ec c43e c910 0abf 05f4 0f3e
00000180: b6de 143e 0ed8 22bd 90bb c6bf f064 d53e
00000190: 5289 d7bf 57bb a13e 0a69 14bf 5559 713d
000001a0: 97a0 463f a774 163f b721 803f d480 243f
000001b0: 81a8 b63f 8d2d cc3e 5811 cc3f 7d6d 4e3e
000001c0: a540 e53f 13b7 8cbe 26f2 733f 5827 2a3f
000001d0: 0d82 b1bf 694a aa3e 8256 13bf 80f6 7bbe
000001e0: 95a6 34be db13 e03d 8478 99bd c6b5 ec3d
000001f0: 3afa abbf 6510 8b3e 092c e23f debf 253e
00000200: 2de0 c03f 10fb 95be 3a2a e83f 1506 90be
00000210: 7d27 d33e 9a53 35bf 50c0 00bf 3126 6fbf
00000220: 7a0f 3340 876c 73bf ad93 8b3f 9767 43bf
00000230: fecf 0740 e2fd 8abe 7551 703f 24ba 3f3f
00000240: 5f3d cd3e 9db4 423e 8a76 dabd 6f16 993e
00000250: ddcb 20bf 1011 573f ed1d 86be 591d cd3f
00000260: fc95 3bbe 95ac d43f 4019 723e a374 b53c
00000270: 5f70 17bf 03a4 443f e4c7 72be ab33 463f
00000280: 33d5 623f 816b 72bf 9a17 c93e c15a 7e3e
00000290: dd5f 813f 9fe1 b4be f95e 8f3f 309a e53f
000002a0: f47c 4d3e b193 993f 05d1 5ebf 450f b23e
000002b0: 4039 8abd 8597 403f 4dfd b53e 0c00 0340
000002c0: 9c14 753e 623f 4a40 049f 613f 55fd 0b40
000002d0: b837 e7bf cd26 e6be b1c2 abbf fab8 b1be
000002e0: e265 4dbf e58a 5fbf a5a3 2ebf 1326 5fbe
000002f0: ee6b cabe f6dd e9be dd4e c6be 21b1 c0bf
00000300: 77b0 21bd 9461 46bf b5be 9a3d 7109 51be
00000310: 30e4 4e3f 3b51 81bf 5125 b33e 2a67 b83e
00000320: 1449 393e 38fd 033f cc46 d33e 8ca5 81be
00000330: 7679 f03e f700 3f3d 2aa7 423f 888a 10bf
00000340: 90c1 17be eb4c 15bf 775d f2be a03e 01c0
00000350: 0153 ad3e 9dda 10c0 4611 05be 57b2 e9bf
00000360: a251 413f 2051 88bf d8c2 803e e495 c1bf
00000370: 5311 8cbe 37fb 2ec0 1ee8 56bf 8bdf 49c0
00000380: b4eb 423f dafd 2dc0 cabd 483e 059f 1ec0
00000390: 2582 043e 6a92 1cc0 fd63 48bf 55b8 07c0
000003a0: b8ce c03c 8acf a83e 7db0 a63e 8cf7 e43d
000003b0: 0f61 df3e 72c9 2bbe 8d5c c33d 72c9 a83e
000003c0: 1484 ad3d 5bd3 773d 06a9 903e fe35 d3be
000003d0: 7e66 ec3c f465 59bf 382c 163f 90b8 dbbd
000003e0: c8aa ac3e d734 4f3e a677 c3b9 b638 7d3f
000003f0: 7b08 debe 668d 333f 8ba4 fa3d 3987 7f3f

gru.weight_hh_l0_reverse f4 [96, 32]
0.015856588 -0.4586041 -0.8981189 -1.1092986 0.31501135 -0.100690864 -0.19161521 -0.015877012
0.07937437 0.010391466 -0.15025936 0.15877163 0.48431027 -0.10519236 0.07007002 -0.36871696
0.003916481 -0.14810094 0.6881676 0.029316327 0.28415325 0.5721073 -0.51094306 -0.11663643
-0.022019152 0.8164592 -0.20026797 0.23826058 -0.11648799 0.12560558 0.023647273 -0.530905
-0.00852399 0.28460518 0.47223592 0.32449088 0.28157923 0.6479134 0.2863599 -0.8317897
-0.27864563 0.40570223 0.04880245 -0.10203993 -0.421695 -0.2680782 0.5695983 -0.7262933
0.09886099 0.3008539 0.13842994 -0.046004754 0.43899134 0.3293854 -0.9688737 -0.6427531
0.39398447 -0.48037726 -0.2215618 -0.28021735 -0.5344939 0.13382176 0.08182059 1.4056823
0.15038632 -0.40092275 -0.102274105 -0.2596706 -0.0016083007 -0.08856407 0.29596624 -0.8296721
-0.17932715 -0.4688862 0.6672857 0.18504186 0.1677681 -0.40348455 0.383467 -0.09850452
0.20505928 0.7910558 0.17107837 0.09565562 0.01589848 0.06820364 -0.66004735 -0.39466843
0.20481908 -0.33359966 -0.41284284 0.5526932 -1.0407224 -0.108096465 -1.0480058 -0.04929675
-0.056816723 1.0513712 0.74177253 0.07321997 -0.16114415 -0.068859085 -0.0900711 -0.3460589
-0.1415231 0.26492646 -0.24670935 -0.34426984 -0.011841172 -0.45846352 0.17826429 -1.1858512
0.20687878 0.32264018 0.07845418 -0.22703277 0.2645618 0.5915147 -0.19625136 0.06777092
0.378434 -1.4670022 -0.40769717 0.2556596 -0.030142523 -0.03215231 0.5759701 1.8723416
-0.066938356 0.46535942 0.5545706 0.17492847 -0.3937833 -0.06104752 -0.15230444 -0.069131196
0.3923904 -0.5931145 0.2861523 0.08536868 -0.5272994 -0.887856 -0.1793823 -0.28458333
-0.1363755 -0.075439535 0.20887122 0.36554858 -0.0017847151 -0.024105283 0.4680468 -0.20866276
0.30118096 -0.8746082 -0.35539404 0.07614269 -0.2940037 -0.07305073 0.07512459 -0.6041269
-0.46377409 0.9684771 -1.2403162 0.035615873 -0.18942688 -0.032250177 -0.055083785 -0.51510036
0.5570192 -0.7968042 0.92030954 -0.365092 0.58167034 -0.44031596 -0.34011182 0.18730572
0.11809477 -0.52627474 0.1317607 0.7126879 -0.12593842 0.7160962 0.062275846 -0.49188954
0.18491545 -0.32524917 0.55609924 0.62066764 -0.5467203 -0.84926903 -0.41484377 0.99476606
0.5736676 0.6161963 -1.0033455 0.1404953 0.58120686 -0.17251022 -0.092743285 -0.2850091
-0.37301922 -0.29681677 0.30412292 0.2597784 -0.31171077 0.060794283 0.23040454 0.5830511
0.39895344 -0.011265278 0.8578111 0.3825711 0.16555974 0.3352176 -0.54233587 0.16157721
-0.1272533 -0.2722484 0.79023015 0.36614522 -0.4901769 0.7004754 0.39745912 -0.22761178
-0.22594209 -0.3079571 0.17961554 0.005346841 -0.1365322 0.22190027 -0.20757459 -0.744095
0.1533024 0.121227235 0.13378316 0.28083718 0.18031852 0.18135835 -0.3937453 -0.31384438
-0.06653361 0.27682677 -0.31394556 0.39769763 0.2067024 -0.46323624 -0.22764035 0.39383972
0.17436184 0.7461517 -0.06966579 -0.36463103 -0.064662926 -0.5030493 0.76695687 1.4061481
00000000: ade5 813c 28ce eabe 1feb 65bf 7ffd 8dbf
00000010: 2b49 a13e 0337 cebd c736 44be 8210 82bc
00000020: 088f a23d f840 2a3c 97dd 19be 0895 223e
00000030: 84f7 f73e 186f d7bd df80 8f3d 78c8 bcbe
00000040: d355 803b c6a7 17be c02b 303f cb28 f03c
00000050: 897c 913e a075 123f 2acd 02bf 15df eebd
00000060: 8261 b4bc 7803 513f 0c13 4dbe 95fa 733e
00000070: 4191 eebd c09e 003e edb7 c13c 64e9 07bf
00000080: 35a8 0bbc c5b7 913e e8c8 f13e ab23 a63e
00000090: 272b 903e a7dd 253f c49d 923e 2bf0 54bf
000000a0: a4aa 8ebe 34b8 cf3e 14e5 473d 50fa d0bd
000000b0: 68e8 d7be 8c41 89be 32d1 113f 5cee 39bf
000000c0: a177 ca3d 8609 9a3e 94c0 0d3e 7b6f 3cbd
000000d0: 79c3 e03e 34a5 a83e 1b08 78bf 788b 24bf
000000e0: 55b8 c93e 02f4 f5be 19e1 62be a678 8fbe
000000f0: 98d4 08bf 9208 093e 8e91 a73d 66ed b33f
00000100: dffe 193e bf45 cdbe 1675 d1bd 8bf3 84be
00000110: 9ecd d2ba 1461 b5bd e388 973e 6465 54bf
00000120: 89a1 37be da11 f0be 3cd3 2a3f 9d7b 3d3e
00000130: 67cb 2b3e 8795 cebe c955 c43e bdbc c9bd
00000140: 0ffb 513e a282 4a3f 2b2f 2f3e 18e7 c33d
00000150: 873d 823c 5aae 8b3d ddf8 28bf fb11 cabe
00000160: 18bc 513e 93cd aabe 2360 d3be 4d7d 0d3f
00000170: 6436 85bf ae61 ddbd 0e25 86bf 64eb 49bd
00000180: a7b8 68bd 5593 863f cee4 3d3f 5af4 953d
00000190: f902 25be fe05 8dbd 3277 b8bd a22e b1be
000001a0: 6eeb 10be 71a4 873e 60a1 7cbe 2344 b0be
000001b0: 7a01 42bc bbbb eabe ea8a 363e f9c9 97bf
000001c0: 08d8 533e 1831 a53e 96ac a03d 477b 68be
000001d0: a574 873e 826d 173f 1ef6 48be 7bcb 8a3d
000001e0: 1ac2 c13e bac6 bbbf afbd d0be d1e5 823e
000001f0: 74ed f6bc 24b2 03bd c772 133f e4a8 ef3f
00000200: fa16 89bd 9743 ee3e 57f8 0d3f 7320 333e
00000210: f79d c9be f70c 7abd b2f5 1bbe a894 8dbd
00000220: 65e7 c83e 5ad6 17bf 8e82 923e c6d5 ae3d
00000230: 18fd 06bf 884a 63bf feaf 37be e8b4 91be
00000240: 05a6 0bbe 0b80 9abd 56e2 553e 2f29 bb3e
00000250: 1aed e9ba 7178 c5bc d5a3 ef3e b1ab 55be
00000260: 6434 9a3e 53e6 5fbf 35f6 b5be b3f0 9b3d
00000270: a787 96be 9f9b 95bd ecda 993d 0fa8 1abf
00000280: cc73 edbe 1dee 773f aec2 9ebf f3e1 113d
00000290: 1ff9 41be c318 04bd 899f 61bd 9edd 03bf
000002a0: cf98 0e3f 5cfb 4bbf 6899 6b3f 57ed babe
000002b0: 59e8 143f 1871 e1be 2323 aebe 12cd 3f3e
000002c0: acdb f13d f1b9 06bf 47ec 063e b772 363f
000002d0: 00f6 00be 1552 373f f514 7f3d f2d8 fbbe
000002e0: 7a5a 3d3e 0f87 a6be 855c 0e3f 13e4 1e3f
000002f0: ddf5 0bbf b269 59bf 6766 d4be fda8 7e3f
00000300: e1db 123f 0abf 1d3f a06d 80bf 00de 0f3e
00000310: f9c9 143f 85a6 30be 31f0 bdbd b6ec 91be
00000320: 60fc bebe 5ef8 97be 00b6 9b3e ad01 853e
00000330: 8e98 9fbe 6d03 793d 2bef 6b3e d642 153f
00000340: a043 cc3e 0092 38bc 8299 5b3f 5ce0 c33e
00000350: 7e88 293e a4a1 ab3e 86d6 0abf 7f74 253e
00000360: b04e 02be 2464 8bbe 864c 4a3f 6377 bb3e
00000370: 77f8 fabe 5b52 333f c37f cb3e 1013 69be
00000380: 5d5d 67be 8eac 9dbe 23ed 373e 8e34 af3b
00000390: 19cf 0bbe d339 633e 6f8e 54be 037d 3ebf
000003a0: 4efb 1c3e fc45 f83d 74fe 083e e4c9 8f3e
000003b0: 6ba5 383e 01b6 393e fc98 c9be 36b0 a0be
000003c0: c642 88bd 3dbc 8d3e 79bd a0be 069f cb3e
000003d0: cba9 533e 4d2d edbe 8d1a 69be 5ca5 c93e
000003e0: e98b 323e cc03 3f3f f0ac 8ebd ebb0 babe
000003f0: ff6d 84bd d7c7 00bf 4957 443f a9fc b33f

gru.bias_ih_l0_reverse f4 [96]
0.19693553 -0.21086323 0.13641699 -0.23364139 0.047265984 -0.11654324 -0.13321102 -0.065707274
-0.0393431 0.08115367 0.039956275 -0.027438149 0.12994386 0.13925977 0.21613427 -0.0140653895
-0.13060702 -0.3820638 0.23772098 -0.069738805 -0.11897067 0.05691653 0.13790032 -0.18505009
0.23846683 0.085176826 -0.07346373 0.13838783 -0.3524309 0.15879935 0.5986023 -0.15209997
-1.1204617 0.04711081 0.3437275 -0.59896713 -1.0828694 -0.19342643 0.11886097 -0.2773956
-1.3479825 -0.25125477 0.045301598 -0.8610093 0.23242614 0.63392276 -0.41787055 0.004392685
0.24651627 0.057148766 -0.47530842 0.24945568 0.18555284 -1.0105677 -1.4945915 -0.43120703
-0.49151516 0.78272885 0.36308834 0.15482558 -0.17711632 -0.5156731 -1.025747 -0.19887538
0.049908288 -0.023818657 0.067260236 -0.024357716 -0.17522033 0.027263276 0.017863661 -0.03251427
0.09145355 -0.06908562 0.030362722 0.08176933 0.08976145 -0.030624386 0.099383414 0.04494647
0.006036618 0.0051838043 -0.011187386 0.11318265 0.0051015313 0.1163702 0.019313728 -0.02298536
-0.020426119 0.11099862 -0.037927717 0.005519274 -0.038248632 0.07002857 -0.03213119 0.086138874
00000000: 78a9 493e 88ec 57be e5b0 0b3e b03f 6fbe
00000010: fa99 413d 39ae eebd 7868 08be 8991 86bd
00000020: 3b26 21bd e533 a63d 31a9 233d f8c5 e0bc
00000030: 0110 053e 1d9a 0e3e 4d52 5d3e 8572 66bc
00000040: d9bd 05be de9d c3be 216d 733e 38d3 8ebd
00000050: e5a6 f3bd 4f21 693d be35 0d3e c57d 3dbe
00000060: a630 743e 3071 ae3d 2774 96bd 8ab5 0d3e
00000070: d371 b4be 4c9c 223e 003e 193f 18c0 1bbe
00000080: 4a6b 8fbf 44f7 403d 0dfd af3e e955 19bf
00000090: 779b 8abf 9411 46be 616d f33d cc06 8ebe
000000a0: b18a acbf 77a4 80be 2b8e 393d 1b6b 5cbf
000000b0: 1e01 6e3e c348 223f 21f3 d5be 83f0 8f3b
000000c0: c36e 7c3e d314 6a3d a05b f3be 4f71 7f3e
000000d0: 9001 3e3e 485a 81bf c64e bfbf 2bc7 dcbe
000000e0: e0a7 fbbe eb60 483f b7e6 b93e 998a 1e3e
000000f0: fb5d 35be 2703 04bf ad4b 83bf fda5 4bbe
00000100: a26c 4c3d 581f c3bc bcbf 893d d589 c7bc
00000110: f56c 33be 3c57 df3c d056 923c af2d 05bd
00000120: 004c bb3d c37c 8dbd 3ebb f83c ae76 a73d
00000130: dad4 b73d fedf fabc 8889 cb3d ca19 383d
00000140: d2ce c53b e7dc a93b 4c4b 37bc 4ecc e73d
00000150: bf2a a73b 8053 ee3d d337 9e3c cb4b bcbc
00000160: ad54 a7bc 3f53 e33d 185a 1bbd 07db b43b
00000170: 99aa 1cbd 246b 8f3d ff9b 03bd 9469 b03d

gru.bias_hh_l0_reverse f4 [96]
0.050407227 -0.08556036 0.3013146 -0.030117309 0.21022786 0.119384535 0.07831399 0.019295352
0.09935244 0.10534407 -0.17820597 0.11466313 0.069427446 0.08338229 0.30963418 -0.11873296
-0.3068314 -0.16738698 0.043454222 0.084550135 -0.15856959 0.26128885 -0.09906233 -0.38328326
0.014927896 -0.03324092 0.007171853 0.13970415 -0.36534768 0.028818183 0.38759306 -0.039127275
-1.4173646 0.07710904 0.3224073 -0.54435915 -1.2057655 -0.18114194 -0.01843821 -0.27391955
-1.1593484 -0.21073598 -0.023317905 -1.0218024 0.13151668 0.62753665 -0.48753783 0.24694152
0.36206758 -0.016289331 -0.35229638 0.1597886 0.122525886 -0.84294486 -1.2132834 -0.20985763
-0.26870072 0.52355766 0.12534298 0.070274435 -0.09466489 -0.47475222 -1.1056882 -0.40499187
-0.021084316 0.08328404 -0.14007418 0.022639839 0.33561492 -0.045821536 -0.032513935 0.024073666
-0.17092983 0.0836557 0.017109606 -0.18057673 -0.13985345 0.113081895 -0.12972444 -0.109933935
-0.022431705 -0.011767734 0.041083142 -0.17053227 0.058118246 -0.21354371 -0.06724382 0.0017869796
0.024871115 -0.1675198 0.065255664 0.122754246 0.0058465586 -0.10675712 0.03190984 -0.21167456
00000000: cf77 4e3d 453a afbd e845 9a3e 93b8 f6bc
00000010: f945 573e e17f f43d 1663 a03d 4911 9e3c
00000020: 4b79 cb3d a2be d73d a07b 36be 81d4 ea3d
00000030: fa2f 8e3d 56c4 aa3d 5f88 9e3e 442a f3bd
00000040: 0119 9dbe 7e67 2bbe 0efd 313d 9f28 ad3d
00000050: 1160 22be a7c7 853e 31e1 cabd b43d c4be
00000060: 2294 743c a227 08bd dd01 eb3b 9b0e 0f3e
00000070: da0e bbbe 1c14 ec3c 9972 c63e ec43 20bd
00000080: 346c b5bf 58eb 9d3d 9212 a53e 1f5b 0bbf
00000090: 8656 9abf 467d 39be bb0b 97bc 2f3f 8cbe
000000a0: 8765 94bf 2ccb 57be 3105 bfbc 6cca 82bf
000000b0: 4fac 063e 3ea6 203f 8f9e f9be 3dde 7c3e
000000c0: ec60 b93e 3471 85bc 3160 b4be 9f9f 233e
000000d0: daee fa3d 3ccb 57bf df4c 9bbf ebe4 56be
000000e0: 2493 89be e007 063f e959 003e 0bec 8f3d
000000f0: aadf c1bd b912 f3be 3187 8dbf 185b cfbe
00000100: 04b9 acbc d390 aa3d 9b6f 0fbe 2f77 b93c
00000110: b8d5 ab3e 5daf 3bbd 552d 05bd 2336 c53c
00000120: 3b08 2fbe ae53 ab3d 7229 8c3c 1be9 38be
00000130: be35 0fbe 7b97 e73d 7cd6 04be 0b25 e1bd
00000140: b2c2 b7bc 74cd 40bc cc46 283d 03a0 2ebe
00000150: 660d 6e3d 34ab 5abe 21b7 89bd 1639 ea3a
00000160: 82be cb3c 4f8a 2bbe c3a4 853d 9466 fb3d
00000170: 7d94 bf3b 7aa3 dabd e4b3 023d 37c1 58be

dense.1.fn.net.0.weight f4 [64, 64]
0.06799872 -0.08822509 0.09568552 0.17645036 0.031878766 -0.03572211 -0.08469857 -0.050354205
-0.04678876 -0.030869592 -0.018693412 0.018933468 -0.033896357 -0.3133821 -0.09645637 -0.14148025
0.065768406 0.073796935 -0.038410444 0.055303793 0.084918916 0.044594828 0.13102263 0.16438569
0.24236248 -0.15112151 -0.19634731 -0.009482539 0.11038198 -0.11937087 0.06643034 -0.053805154
0.050833836 -0.084113106 0.030535068 0.1294847 -0.16288577 0.31524187 0.033373624 -0.040443722
-0.11801044 -0.12292028 0.1301681 -0.019637017 -0.112865284 0.24367505 -0.26279122 -0.027392112
0.001697284 0.07313021 -0.07982155 0.08258552 -0.08812985 0.11017623 -0.0014711588 0.116386674
-0.2531874 0.29915303 0.1681593 -0.13409035 0.0512073 -0.030036194 -0.054369453 0.16400968
-0.00090273534 0.09012026 -0.121525906 0.05769044 -0.35106027 -0.2957304 -0.106792934 0.035847723
-0.04853623 0.08325831 0.0029279294 -0.082994856 0.073151715 -0.10289674 0.18841478 0.08778853
-0.15153989 -0.050822817 0.025959525 0.18368511 -0.07720235 -0.060385007 0.046959613 -0.032406278
-0.18566287 -0.25812998 0.06627866 -0.1637486 0.047783084 -0.014330307 -0.09097144 -0.057500266
-0.17895132 -0.04060193 -0.057532128 -0.04686112 0.14195089 -0.25326055 -0.15268207 0.020571843
0.07466753 0.058447834 -0.090874694 -0.09457735 0.119529955 0.062345814 0.20992708 0.043751217
-0.20895101 -0.1425652 0.12820202 -0.32407913 0.12237991 0.019571854 0.15299752 -0.1412013
0.23096299 -0.1383435 -0.2830997 0.06282991 -0.07595773 0.11856988 0.07296563 -0.059239514
-0.110589676 -0.13267878 0.12387903 -0.039716817 -0.036992285 -0.039904073 0.15730964 0.047368523
0.07334025 -0.16595018 0.101013824 0.1741723 -0.07826936 0.124514446 -0.1423496 -0.026594061
0.26946378 0.18221864 0.03429768 -0.036533285 0.015416161 -0.08409671 -0.16210024 0.08198688
0.16937825 0.2267071 -0.057701305 0.06436446 -0.05130649 -0.0095461495 0.033514947 0.048990145
0.060353514 0.19416936 0.18127453 0.1073071 -0.11713849 0.29891723 0.048441783 -0.1980489
-0.07564289 0.20184897 -0.0123025775 -0.081958294 -0.2344383 0.068830624 -0.24616878 -0.10964029
0.10242944 0.11958642 -0.13500024 0.10993318 0.082648486 0.07685118 0.004383088 0.122242875
-0.11435844 0.10462229 -0.04483368 -0.1282743 0.09019871 -0.08744111 0.04815428 -0.033165846
-0.108588584 -0.025593396 0.08802359 -0.006227193 0.20951678 0.06735196 0.11789946 0.0013601134
0.033180904 -0.13882609 -0.00838305 0.09219821 -0.13695161 0.022578163 -0.06919969 -0.0033578349
0.28892696 0.25181398 -0.032962535 -0.07546009 0.035058614 0.06149299 -0.0727985 0.10708669
0.13033848 0.07118263 0.010934046 0.090242416 -0.05500572 0.16823375 0.16973352 0.09195962
0.10582204 0.08908952 0.12619199 0.14054646 -0.09192733 0.30899292 0.12172864 -0.19684905
-0.07866001 -0.041107327 -0.014097995 -0.07652427 -0.27989957 0.22285986 -0.15860325 -0.08189716
0.17407987 0.12436731 -0.07488647 0.06991655 -0.07832574 0.075117044 -0.0132916095 0.039318997
-0.058946386 0.20212239 0.04061095 -0.09782864 -0.01194073 -0.055302866 0.01972523 -0.16889949
00000000: ea42 8b3d 5baf b4bd c5f6 c33d 67af 343e
00000010: 4f93 023d 5951 12bd 7276 adbd 3640 4ebd
00000020: 92a5 3fbd 3ae2 fcbc ed22 99bc 5c1a 9b3c
00000030: e8d6 0abd 9e73 a0be eb8a c5bd 33e0 10be
00000040: 96b1 863d d922 973d 4554 1dbd 3b86 623d
00000050: f8e9 ad3d 11a9 363d cc2a 063e b954 283e
00000060: df2d 783e 99bf 1abe 450f 49be a75c 1bbc
00000070: f30f e23d b778 f4bd a10c 883d cb62 5cbd
00000080: 2437 503d 7e43 acbd ae24 fa3c a397 043e
00000090: 87cb 26be 6267 a13e c8b2 083d 51a8 25bd
000000a0: 75af f1bd a1bd fbbd c94a 053e cfdd a0bc
000000b0: ea25 e7bd f485 793e 928c 86be 6c65 e0bc
000000c0: 6777 de3a 4bc5 953d 7b79 a3bd 9922 a93d
000000d0: 6c7d b4bd 13a4 e13d e6d3 c0ba 235c ee3d
000000e0: c7a1 81be 962a 993e f431 2c3e fb4e 09be
000000f0: bfbe 513d 770e f6bc 81b2 5ebd 27f2 273e
00000100: 8ba5 6cba f990 b83d 93e2 f8bd d04c 6c3d
00000110: 2cbe b3be fa69 97be 41b6 dabd 10d5 123d
00000120: edcd 46bd 5583 aa3d 81e2 3f3b 35f9 a9bd
00000130: 91d0 953d 87bb d2bd ceef 403e 79ca b33d
00000140: 462d 1bbe 962b 50bd 12a9 d43c f317 3c3e
00000150: 441c 9ebd 4556 77bd b958 403d 72bc 04bd
00000160: 681e 3ebe 9d29 84be 1bbd 873d b7ad 27be
00000170: 32b8 433d aac9 6abc 3c4f babd 6685 6bbd
00000180: 043f 37be 364e 26bd cfa6 6bbd 72f1 3fbd
00000190: 935b 113e 5eab 81be b058 1cbe 4886 a83c
000001a0: 4aeb 983d ff66 6f3d 831c babd c5b1 c1bd
000001b0: 1fcc f43d 535e 7f3d 20f7 563e 7a34 333d
000001c0: 41f7 55be 9dfc 11be 6447 033e b3ed a5be
000001d0: 51a2 fa3d 2755 a03c 62ab 1c3e 1397 10be
000001e0: 9081 6c3e eba9 0dbe 72f2 90be f8ac 803d
000001f0: ba8f 9bbd c4d4 f23d 016f 953d 22a5 72bd
00000200: d77c e2bd f2dc 07be 4ab4 fd3d 1aae 22bd
00000210: 3985 17bd 7472 23bd c715 213e 7f05 423d
00000220: 6a33 963d d8ee 29be 56e0 ce3d 395a 323e
00000230: b04b a0bd 6e01 ff3d 18c4 11be cadb d9bc
00000240: 28f7 893e 8697 3a3e b97b 0c3d eda3 15bd
00000250: 1194 7c3c e53a acbd 9bfd 25be bde8 a73d
00000260: 7e71 2d3e e825 683e 3458 6cbd 84d1 833d
00000270: c126 52bd 7467 1cbc f846 093d e4a9 483d
00000280: 3f35 773d 55d4 463e 08a0 393e d3c3 db3d
00000290: 4ee6 efbd ae0b 993e e46a 463d 55cd 4abe
000002a0: a9ea 9abd 7fb1 4e3e c090 49bc c0d9 a7bd
000002b0: 9810 70be 12f7 8c3d ab13 7cbe 178b e0bd
000002c0: 87c6 d13d bae9 f43d 813d 0abe a624 e13d
000002d0: 9c43 a93d 2764 9d3d 02a0 8f3b 795a fa3d
000002e0: c234 eabd 3644 d63d 85a3 37bd 575a 03be
000002f0: 1aba b83d 5314 b3bd 6c3d 453d e9d8 07bd
00000300: b163 debd 3ea9 d1bc b645 b43d 7b0d ccbb
00000310: 918b 563e d3ef 893d 4675 f13d d545 b23a
00000320: b3e8 073d 6d28 0ebe 0f59 09bc 6ad2 bc3d
00000330: 0b3d 0cbe d7f5 b83c 91b8 8dbd 1f0f 5cbb
00000340: 3cee 933e c3ed 803e b903 07bd d28a 9abd
00000350: 9f99 0f3d 13e0 7b3d 6117 95bd 4450 db3d
00000360: 7377 053e 33c8 913d b624 333c 04d1 b83d
00000370: ae4d 61bd 7845 2c3e a0ce 2d3e 5355 bc3d
00000380: 3ab9 d83d 9174 b63d 7938 013e 69eb 0f3e
00000390: 6544 bcbd 5234 9e3e dd4c f93d cc92 49be
000003a0: 8018 a1bd 2860 28bd 47fb 66bc c2b8 9cbd
000003b0: ff4e 8fbe 6035 643e e468 22be b3b9 a7bd
000003c0: fe41 323e 4ab4 fe3d 145e 99bd 6830 8f3d
000003d0: 3f69 a0bd f7d6 993d 0dc5 59bc f50c 213d
000003e0: c471 71bd 2cf9 4e3e ab57 263d 625a c8bd
000003f0: 0da3 43bc 4285 62bd ce96 a13c fdf3 2cbe

dense.1.fn.net.0.bias f4 [64]
0.040431928 -0.03532166 0.03029856 0.05256326 -0.0743597 0.06057041 0.0042376593 0.07783103
-0.026301414 0.004350066 -0.030702725 0.062005125 -0.24136405 -0.08392619 0.07150601 0.013017973
0.06607106 0.03407325 -0.598684 -0.062970854 0.01746258 -0.00522215 -0.00996646 0.072750255
0.054758616 -0.20771356 -0.020023515 -0.1528931 0.037818585 0.0038405533 0.019537106 0.014145607
0.0047915904 0.07405865 0.09442502 -0.574382 -0.009046147 0.045052465 0.042390015 -0.18174505
0.05623258 0.04030148 -0.13530014 -0.085552774 0.0043862555 -0.04084736 -0.059836354 0.049868513
0.01653675 0.08904578 0.02045092 0.067993835 0.003272415 -0.095762275 -0.0387241 0.06569065
-0.026578069 -0.12230866 0.07888527 0.04526156 0.09158801 0.047683965 0.007283691 0.025363384
00000000: f39b 253d 72ad 10bd b034 f83c 934c 573d
00000010: e649 98bd ae18 783d 10dc 8a3b e065 9f3d
00000020: 1076 d7bc 008b 8e3b 4884 fbbc 16f9 7d3d
00000030: 2328 77be 7fe1 abbd be71 923d 5649 553c
00000040: 4450 873d 6490 0b3d 5b43 19bf ddf6 80bd
00000050: af0d 8f3c 921e abbb 5d4a 23bc 16fe 943d
00000060: 924a 603d ddb2 54be 5b08 a4bc 0290 1cbe
00000070: a9e7 1a3d cbb1 7b3b 480c a03c fac2 673c
00000080: c602 9d3b 10ac 973d e861 c13d b30a 13bf
00000090: 4a36 14bc ef88 383d 27a1 2d3d 601b 3abe
000000a0: 2254 663d 2a13 253d 1f8c 0abe 4b36 afbd
000000b0: 94ba 8f3b 904f 27bd f716 75bd ed42 4c3d
000000c0: 1478 873c a25d b63d b088 a73c 5a40 8b3d
000000d0: 0376 563b 031f c4bd 299d 1ebd d288 863d
000000e0: 40ba d9bc f67c fabd 9a8e a13d 2f64 393d
000000f0: 7f92 bb3d 4350 433d 07ac ee3b dfc6 cf3c

dense.1.fn.net.3.weight f4 [64, 64]
0.015567328 -0.12976155 0.058499325 0.06274688 -0.097687066 0.14247432 -0.16907734 0.04733488
-0.11451666 -0.097308405 -0.17346208 0.0010244307 -0.021463752 -0.06968111 0.01792339 0.08088903
0.005463266 -0.05761537 0.049776144 -0.09559368 0.09653846 -0.072172865 -0.03385229 0.017288083
0.041515727 0.08074194 0.07060121 -0.12417673 0.09222471 0.10248615 0.05213511 -0.061340738
-0.052357603 0.08390211 0.061677948 -0.10716588 0.042971995 0.076448254 -0.00023109853 0.17880568
-0.051965408 0.047972236 0.17915972 0.06780431 0.11739652 -0.15589486 -0.07360595 0.082041204
-0.11316557 0.07615947 0.003963926 0.13135523 -0.07921643 -0.1077361 -0.016563207 0.07599177
-0.12309044 -0.10794196 -0.053384263 0.072399005 0.052475255 0.064076126 0.07200741 0.022533
-0.055584148 0.120215155 -0.0557106 -0.08700731 0.02353883 -0.09987213 0.093233876 -0.13734397
0.14768326 0.16399649 0.12278726 0.045720283 -0.12807392 0.12197485 -0.066566184 -0.03705852
-0.05997672 0.047584686 -0.034232628 0.10325396 -0.07747314 0.11277906 0.15199392 0.029221121
-0.0068347817 0.06147103 -0.08118004 0.08999563 0.0030295134 -0.07855079 -0.04807956 0.1227503
0.14827918 -0.12263943 -0.005961789 0.11198335 -0.06447113 0.010771472 -0.0039098654 -0.24495651
0.04462064 -0.09387971 -0.06328452 -0.27177376 -0.08449634 0.106379695 0.08375252 -0.0627797
0.017328681 -0.086402126 -0.0007048909 -0.073148705 0.10258931 0.055550877 0.09032223 -0.0141938245
0.18641613 0.021104889 -0.08261677 -0.014802859 -0.124552116 -0.07129143 -0.011348337 0.023106575
0.032066077 -0.02894457 -0.022992315 0.04126866 -0.053241868 0.025124038 -0.06674093 0.05328034
-0.049217477 -0.056403942 0.024978433 0.07829052 0.14728247 -0.07898876 0.043541264 0.044171005
0.08732478 -0.034926508 0.06476311 -0.05502771 -0.031683486 -0.05795521 0.007080646 0.096899584
0.016171198 -0.03769695 0.01884129 -0.089889154 0.028420122 0.006982306 0.014863743 -0.08852954
-0.13718978 0.023327174 0.112512395 -0.038818903 0.08465596 0.053332414 -0.038014844 0.09512102
-0.01536743 -0.047352068 0.026094792 0.0042384365 0.0042352336 -0.027425978 -0.065659896 0.046409335
-0.07160493 0.08385287 -0.009694699 0.06995579 -0.14709939 -0.061131362 -0.07801186 -0.023047838
-0.16080081 -0.053642455 0.08551496 -0.06372982 -0.025534974 0.09500894 0.08253127 0.05985377
-0.016625043 -0.077182464 0.06395149 0.191071 -0.10872517 0.0030616773 -0.117839046 0.07791675
-0.15436667 -0.12134677 -0.109237805 0.15277371 0.13846608 -0.08165685 0.12873857 0.073243804
0.0682421 -0.1275852 0.19736107 -0.1683777 0.13945149 -0.080524676 -0.05896304 0.08250917
0.08920693 -0.19372204 0.07620991 -0.12579003 0.105336525 0.09397625 0.084821165 -0.05857896
-0.07041497 0.055283703 0.06948701 -0.3342492 0.06417929 0.06773425 0.068128735 0.12834315
0.10709492 0.049590196 0.078485556 0.13046563 0.15612182 -0.057936396 -0.06888239 0.015556807
-0.023201786 0.045819115 0.020190291 0.0779676 -0.12991835 -0.1292346 -0.014809797 0.041457105
-0.06224799 -0.27812555 0.1397876 0.07557971 0.05081221 0.12938401 0.05755426 0.10099773
00000000: 1b0e 7f3c 36e0 04be fd9c 6f3d 7081 803d
00000010: 2810 c8bd cae4 113e 9c22 2dbe 38e2 413d
00000020: b687 eabd a149 c7bd 0ba0 31be 3146 863a
00000030: c0d4 afbc f8b4 8ebd 13d4 923c 26a9 a53d
00000040: 3205 b33b 18fe 6bbd 12e2 4b3d 9fc6 c3bd
00000050: f5b5 c53d 5ecf 93bd b3a8 0abd bd9f 8d3c
00000060: 650c 2a3d 085c a53d 5e97 903d 5f50 febd
00000070: 4fe0 bc3d 42e4 d13d a08b 553d 6d40 7bbd
00000080: ed74 56bd dfd4 ab3d 04a2 7c3d c979 dbbd
00000090: 6703 303d e790 9c3d 0a53 72b9 d618 373e
000000a0: aed9 54bd 897e 443d a575 373e fcdc 8a3d
000000b0: 966d f03d e7a2 1fbe b7be 96bd 3805 a83d
000000c0: 5ac3 e7bd 7ff9 9b3d d2e3 813b fc81 063e
000000d0: 393c a2bd bfa4 dcbd 90af 87bc 93a1 9b3d
000000e0: d716 fcbd ad10 ddbd 75a9 5abd ee45 943d
000000f0: 4bf0 563d 583a 833d 9f78 933d 2097 b83c
00000100: 34ac 63bd 5d33 f63d cc30 64bd e330 b2bd
00000110: 81d4 c03c c289 ccbd 67f1 be3d e6a3 0cbe
00000120: 483a 173e b2ee 273e e377 fb3d 3145 3b3d
00000130: cf25 03be f3cd f93d da53 88bd adca 17bd
00000140: 26aa 75bd 29e8 423d 8337 0cbd d076 d33d
00000150: 3daa 9ebd b5f8 e63d 4ba4 1b3e 2261 ef3c
00000160: 4ef6 dfbb 0cc9 7b3d b941 a6bd a14f b83d
00000170: cd8a 463b 3ddf a0bd 13ef 44bd 8264 fb3d
00000180: 7fd6 173e 622a fbbd 1c5b c3bb 8757 e53d
00000190: 7109 84bd d47a 303c 541e 80bb e1d5 7abe
000001a0: 22c4 363d 0144 c0bd 509b 81bd ee25 8bbe
000001b0: 6b0c adbd 99dd d93d 7186 ab3d a592 80bd
000001c0: e1f4 8d3c 99f3 b0bd 6dc8 38ba fdce 95bd
000001d0: 581a d23d 5189 633d dcfa b83d 378d 68bc
000001e0: dfe3 3e3e 29e4 ac3c fb32 a9bd b187 72bc
000001f0: 2e15 ffbd 3e01 92bd 60ee 39bc 004a bd3c
00000200: b857 033d 2a1d edbc 615a bcbc 5409 293d
00000210: 2514 5abd edd0 cd3c 78af 88bd 7c3c 5a3d
00000220: 4498 49bd d207 67bd 929f cc3c c856 a03d
00000230: 37d1 163e dcc4 a1bd 5358 323d a8ec 343d
00000240: 56d7 b23d 190f 0fbd 85a2 843d bc64 61bd
00000250: 8bc6 01bd 7162 6dbd c404 e83b 4a73 c63d
00000260: 7679 843c 1e68 1abd 0d59 9a3c ce17 b8bd
00000270: 51d1 e83c d4cb e43b 0f87 733c fa4e b5bd
00000280: 7a7b 0cbe a118 bf3c e66c e63d 9200 1fbd
00000290: 1b60 ad3d 1773 5a3d 74b5 1bbd cfce c23d
000002a0: acc7 7bbc 3ef4 41bd bfc4 d53c 95e2 8a3b
000002b0: b7c7 8a3b 72ac e0bc b278 86bd b717 3e3d
000002c0: 9ba5 92bd 0ebb ab3d 84d6 1ebc fb44 8f3d
000002d0: 39a1 16be e164 7abd afc4 9fbd d2ce bcbc
000002e0: f8a8 24be 31b8 5bbd 7822 af3d c884 82bd
000002f0: b92e d1bc 0c94 c23d 2806 a93d 3a29 753d
00000300: 3e31 88bc d711 9ebd 00f9 823d 1ea8 433e
00000310: 4dab debd 6ca6 483b 9955 f1bd d192 9f3d
00000320: 4c12 1ebe a884 f8bd 12b8 dfbd b670 1c3e
00000330: 0dca 0d3e b53b a7bd 0bd4 033e d900 963d
00000340: 84c2 8b3d b2a5 02be 0519 4a3e 346b 2cbe
00000350: 5fcc 0e3e 1fea a4bd 3b83 71bd 91fa a83d
00000360: 1fb2 b63d 125f 46be f113 9c3d 1acf 00be
00000370: adba d73d 9f76 c03d b8b6 ad3d 7ef0 6fbd
00000380: b935 90bd 2a71 623d 354f 8e3d b622 abbe
00000390: 6e70 833d 41b8 8a3d 1487 8b3d 636c 033e
000003a0: 9554 db3d 171f 4b3d 09bd a03d c898 053e
000003b0: 66de 1f3e b74e 6dbd 3612 8dbd fae1 7e3c
000003c0: ac11 bebc d3ac 3b3d 1c66 a53c 7aad 9f3d
000003d0: 5109 05be 1356 04be caa4 72bc edce 293d
000003e0: c0f7 7ebd 7966 8ebe 7b24 0f3e 89c9 9a3d
000003f0: 7720 503d 3e7d 043e 04be 6b3d e6d7 ce3d
